notebooks/best_model.pth (torch, 449954 bytes, 24 tensors)

features.0.weight f4 [16, 1, 3, 3]
1.2232932 1.1188881 0.60987055 0.93695706 0.7825043 0.31273776 1.2320633 0.7456941
0.15462874 -0.55671465 0.040087 0.45418555 -0.59819293 -0.01307761 0.5531508 -0.47428888
0.30389905 0.40382716 0.20718668 0.48734248 0.3092297 -0.1710787 -0.32147765 0.032912888
-0.10216569 -0.17892078 -0.3113055 -0.19211243 -0.15387364 0.010181114 -0.5747052 -0.046461802
0.6854778 0.31448695 -0.0521632 0.70590526 -0.6751785 -0.33635107 -0.6242029 0.3983536
0.21155275 0.5025092 0.21029218 0.13572493 0.21735433 0.8639919 0.7464376 0.3019954
0.56548125 0.332954 0.53388584 -0.4274412 0.1258916 -0.14939766 0.65304327 1.0731094
0.7055937 0.60021967 0.9043184 1.0456535 0.69256586 0.97789496 0.7702301 0.43970034
-0.21205606 -0.3572763 0.0946131 0.11185558 -0.44798288 0.09693684 0.4925431 -0.28570664
-0.27843302 0.28912953 -0.042210773 -0.015612012 0.02175712 0.10137644 0.30142018 -0.42086372
-0.023913471 0.4952042 -0.2197434 -0.3457314 0.4976208 -0.10708296 -0.4239186 0.37482858
0.22902271 -0.3591242 0.5538911 0.2499497 -0.1575556 0.6937833 0.6418887 -0.06319044
0.91440266 0.24762183 0.050078 0.16441222 -0.21593875 0.18230654 0.17108332 -0.2526341
0.09566902 0.017180068 -0.019238196 -0.2620826 -0.53720665 -0.7319872 -0.62991214 -0.19578858
-0.40763772 -0.31399852 -0.11451928 -0.381133 -0.41780812 -0.5106248 0.6508363 0.095967874
0.0489596 0.14792292 0.002421108 0.28802484 -0.57054985 -0.021445148 0.107465446 -0.3242914
0.09943471 0.2723243 -0.57438475 0.32105502 0.36305332 -0.6906369 0.41849747 0.5728836
0.58724684 0.59313375 0.06655202 -0.33252582 -0.37257388 -0.21991278 -0.38414478 -0.4680682
00000000: df94 9c3f ba37 8f3f 7a20 1c3f 6bdc 6f3f
00000010: 3452 483f 2a1f a03e 40b4 9d3f cfe5 3e3f
00000020: ff56 1e3e da84 0ebf 4432 243d 028b e83e
00000030: 2c23 19bf 7943 56bc 4a9b 0d3f fed5 f2be
00000040: a898 9b3e 6fc2 ce3e bf28 543e f484 f93e
00000050: 5b53 9e3e 412f 2fbe b898 a4be aacf 063d
00000060: 3f3c d1bd 0237 37be 6f63 9fbe 1fb9 44be
00000070: 0d91 1dbe b0ce 263c e11f 13bf bb4e 3ebd
00000080: 797b 2f3f 6f04 a13e 14a9 55bd 35b6 343f
00000090: 80d8 2cbf 3536 acbe c3cb 1fbf 01f5 cb3e
000000a0: 49a1 583e 71a4 003f d556 573e 7afb 0a3e
000000b0: 2292 5e3e 932e 5d3f 8916 3f3f 249f 9a3e
000000c0: 61c3 103f f278 aa3e beac 083f 93d9 dabe
000000d0: bae9 003e b3fb 18be d82d 273f a65b 893f
000000e0: caa1 343f ffa7 193f 6981 673f f9d7 853f
000000f0: ff4b 313f 5357 7a3f cd2d 453f 6720 e13e
00000100: 3925 59be ebec b6be 83c4 c13d 8a14 e53d
00000110: 035e e5be d286 c63d 9c2e fc3e 2448 92be
00000120: c68e 8ebe c908 943e 34e5 2cbd 86c9 7fbc
00000130: fd3b b23c 739e cf3d bf53 9a3e 737b d7be
00000140: 2fe6 c3bc 688b fd3e 6a04 61be b503 b1be
00000150: 27c8 fe3e 504e dbbd dc0b d9be 88e9 bf3e
00000160: ee84 6a3e 21df b7be cfcb 0d3f d0f2 7f3e
00000170: 4156 21be c89b 313f d152 243f fd69 81bd
00000180: 4b16 6a3f 9490 7d3e 971e 4d3d ad5b 283e
00000190: 0c1f 5dbe 91ae 3a3e 7730 2f3e 4259 81be
000001a0: 1fee c33d 37bd 8c3c 6c99 9dbc b12f 86be
000001b0: 6086 09bf 8363 3bbf ec41 21bf cd7c 48be
000001c0: e4b5 d0be 6ac4 a0be 1689 eabd dd23 c3be
000001d0: f2ea d5be 4fb8 02bf 359d 263f ce8a c43d
000001e0: dd89 483d 1b79 173e 74ab 1e3b fe77 933e
000001f0: 8e0f 12bf bcad afbc d816 dc3d 8609 a6be
00000200: 6da4 cb3d 176e 8b3e e10a 13bf 5361 a43e
00000210: 20e2 b93e 94cd 30bf 4d45 d63e 80a8 123f
00000220: cf55 163f 9dd7 173f 6d4c 883d d340 aabe
00000230: 01c2 bebe d130 61be a0ae c4be a3a6 efbe

features.0.bias f4 [16]
-0.07612584 -0.026200213 0.6241724 -0.14101821 0.22160573 -0.35289016 -0.15588635 0.5288423
0.3223166 0.029293783 -0.08693447 0.7002865 -0.3211867 -0.056686785 -0.026038844 -0.20903017
00000000: dde7 9bbd d4a1 d6bc c3c9 1f3f 1467 10be
00000010: 9dec 623e 05ae b4be aca0 1fbe 3562 073f
00000020: ae06 a53e 84f9 ef3c b30a b2bd fa45 333f
00000030: 9572 a4be 6730 68bd 6a4f d5bc 010c 56be

features.3.weight f4 [32, 16, 3, 3]
0.05577485 0.08469793 0.02563556 0.045997735 0.08701577 0.11303169 0.11354373 0.08039575
0.037628945 -0.2700609 -0.105981596 -0.2201642 -0.40824097 -0.45640072 -0.59983695 -0.34277484
-0.5729678 -0.3865253 0.13250156 0.07504483 0.115305714 0.12881666 0.17092013 0.058225427
0.023533728 0.15819412 0.14953597 0.06333575 0.13819431 0.17234348 0.0060751582 -0.10564382
-0.05762223 -0.16014 -0.14824381 -0.036570273 0.51134014 0.3744304 0.40800288 0.38409454
0.18789698 0.09985042 -0.021145878 -0.10490847 -0.0011556804 -0.044889417 -0.008778031 0.076201625
0.16776457 0.1363251 0.07411912 0.11282677 0.0875037 0.08751508 0.028331243 0.099468924
0.16184773 0.07053661 0.117380574 -0.0006218562 -0.019382495 -0.042813387 -0.037728745 -0.25731027
-0.27874234 -0.16018088 -0.3570599 -0.27068347 -0.17811151 -0.2665658 -0.14295645 -0.064362384
0.06717922 0.013268807 0.03836839 0.026622495 0.048393346 0.044930205 0.13035458 0.09195379
0.040767077 -0.5006439 -0.5112201 -0.14447445 -0.61163354 -0.47963145 -0.13151382 -0.39268148
-0.29405588 -0.19294105 0.014176558 -0.023854457 0.021823544 0.09334355 0.08492984 0.08591556
-0.051894613 -0.044636212 -0.096458025 0.050075408 -0.069281496 -0.022203669 -0.1053241 -0.142027
-0.038532212 0.069215246 -0.006245848 0.039468322 0.5121817 0.26053563 -0.0120402705 -0.018466137
-0.38368404 -0.4629374 0.06488137 0.0038831714 -0.075598285 0.0068239095 0.12955481 0.31438628
0.07620131 0.10199733 0.20111637 0.00088422565 0.079137065 0.06180621 -0.2950966 -0.28218532
-0.10894892 -0.33251917 -0.489881 -0.29051182 -0.35737664 -0.29473686 -0.23897953 0.0358091
0.00051569147 0.00643548 0.023367269 -0.051530495 -0.01277725 -0.046985943 -0.1722384 -0.117387734
0.28153217 0.10635787 -0.1504461 0.1735558 0.08810411 -0.12977675 0.1559888 0.03647178
-0.033527322 -0.15364607 -1.0377986 -0.7088626 -0.110555 -1.1088609 -0.76093 0.29300135
-0.70547235 -0.60403377 -0.05512078 0.04746428 0.16500647 0.073539235 0.005440529 0.118425615
0.018249657 -0.008265832 0.034221027 -0.14756209 -0.4842552 -0.58842224 -0.07444305 -0.4243564
-0.5906906 0.02631191 -0.2976456 -0.4330712 0.0011246031 -0.14652061 0.0016308476 -0.05950098
-0.07888793 -0.014383092 -0.060731377 0.14258197 0.021670738 0.20346864 -0.04043557 -0.19682358
0.16809385 0.040724136 -0.3042633 0.2346334 -0.01794125 -0.14449286 0.21860515 -0.07007116
-0.23532 0.23685241 0.018607773 -0.29799742 0.21345629 0.054047514 -0.20204103 0.17682952
-0.040018577 0.023516908 0.1852264 -0.05403915 0.018367376 0.09868618 0.05931157 0.056117825
0.024579138 -0.018202467 -0.043383066 -0.049065188 -0.07406242 -0.051632855 0.034857508 -0.07509446
-0.048017982 0.48732224 0.07371003 -0.08236289 0.47376767 0.09962224 0.017218469 0.37729964
0.20454048 0.12338329 0.28822416 -0.042336136 -0.1718104 0.22365488 -0.014408799 -0.2015099
0.19644588 0.037033692 -0.070434205 0.08967942 0.0706881 0.047608677 0.080915645 0.056711864
-0.024655815 -0.0005512785 0.008957367 -0.045526236 -0.029308863 -0.022850404 0.120446816 -0.026164489
00000000: 2b74 643d 1c76 ad3d aa01 d23c 1f68 3c3d
00000010: 5335 b23d 297d e73d 9d89 e83d 87a6 a43d
00000020: cf20 1a3d 6c45 8abe e10c d9bd b972 61be
00000030: f604 d1be 5bad e9be ea8e 19bf 2f80 afbe
00000040: 05ae 12bf a5e6 c5be 7dae 073e 1bb1 993d
00000050: 6725 ec3d 84e8 033e b005 2f3e c97d 6e3d
00000060: cec9 c03c a4fd 213e f51f 193e 2cb6 813d
00000070: cf82 0d3e cf7a 303e 1f12 c73b c95b d8bd
00000080: 4a05 6cbd bdfb 23be 3acd 17be b6ca 15bd
00000090: 30e7 023f 57b5 bf3e c1e5 d03e 0aa8 c43e
000000a0: 1168 403e 617e cc3d 1f3a adbc 40da d6bd
000000b0: 337a 97ba f7dd 37bd bbd1 0fbc 990f 9c3d
000000c0: 7aca 2b3e cf98 0b3e c4cb 973d b911 e73d
000000d0: 2435 b33d 1b3b b33d ec16 e83c 5db6 cb3d
000000e0: 69bb 253e 8075 903d 3a65 f03d 1004 23ba
000000f0: 0ac8 9ebc 175d 2fbd 7589 1abd 2cbe 83be
00000100: 51b7 8ebe 7506 24be 8ed0 b6be 0697 8abe
00000110: dd62 36be 507b 88be 2d63 12be 6dd0 83bd
00000120: 4295 893d 6965 593c 2c28 1d3d 6b17 da3c
00000130: 1a38 463d bc08 383d ac7b 053e 4552 bc3d
00000140: 61fb 263d 332a 00bf 52df 02bf 1cf1 13be
00000150: 0494 1cbf 4192 f5be 8fab 06be 8c0d c9be
00000160: 7e8e 96be 5792 45be cb44 683c 6c6a c3bc
00000170: 4ac7 b23c e72a bf3d b2ef ad3d 7ff4 af3d
00000180: 728f 54bd 76d4 36bd c98b c5bd df1b 4d3d
00000190: 75e3 8dbd 78e4 b5bc 29b4 d7bd 876f 11be
000001a0: f4d3 1dbd b9c0 8d3d f8a9 ccbb 89a9 213d
000001b0: 571e 033f ed64 853e 8e44 45bc 4c46 97bc
000001c0: 3c72 c4be 2206 edbe 86e0 843d ce7c 7e3b
000001d0: 46d3 9abd 1a9b df3b 04aa 043e 3df7 a03e
000001e0: 6f0f 9c3d fae3 d03d 73f1 4d3e 61cb 673a
000001f0: 9d12 a23d 8228 7d3d e716 97be 987a 90be
00000200: 9d20 dfbd f43f aabe afd1 fabe f7bd 94be
00000210: 12fa b6be c0e7 96be 0db7 74be 90ac 123d
00000220: 782f 073a b8e0 d23b b76c bf3c a411 53bd
00000230: ac57 51bc 5574 40bd 435f 30be fb68 f0bd
00000240: fc24 903e 28d2 d93d 8b0e 1abe 9db8 313e
00000250: ed6f b43d 32e4 04be 87bb 1f3e 6f63 153d
00000260: f253 09bd 6555 1dbe 96d6 84bf 0578 35bf
00000270: a96a e2bd 27ef 8dbf 4fcc 42bf 4604 963e
00000280: d699 34bf f5a1 1abf 54c6 61bd e869 423d
00000290: 75f7 283e bd9b 963d 7746 b23b 2189 f23d
000002a0: 4e80 953c 6a6d 07bc 592b 0c3d 841a 17be
000002b0: 4cf0 f7be d7a2 16bf 9975 98bd 3e45 d9be
000002c0: 8037 17bf 138c d73c 0165 98be 82bb ddbe
000002d0: 6b67 933a 8009 16be 2ac2 d53a 4db7 73bd
000002e0: ff8f a1bd 0fa7 6bbc 77c1 78bd 0201 123e
000002f0: d586 b13c 155a 503e c59f 25bd 1f8c 49be
00000300: cb20 2c3e 5ace 263d 66c8 9bbe bd43 703e
00000310: 87f9 92bc f0f5 13be 07da 5f3e 7881 8fbd
00000320: baf7 70be 7089 723e 546f 983c 1e93 98be
00000330: 4994 5a3e ed60 5d3d d8e3 4ebe cc12 353e
00000340: 85ea 23bd 88a6 c03c fdab 3d3e 2858 5dbd
00000350: 2e77 963c fb1b ca3d b0f0 723d cedb 653d
00000360: 305a c93c 571d 95bc 71b2 31bd 94f8 48bd
00000370: 0aae 97bd f97c 53bd bfc6 0e3d 20cb 99bd
00000380: 81ae 44bd 4d82 f93e 49f5 963d e0ad a8bd
00000390: ad91 f23e bf06 cc3d bf0d 8d3c 6b2d c13e
000003a0: 0f73 513e 61b0 fc3d 1e92 933e a868 2dbd
000003b0: 11ef 2fbe c905 653e e212 6cbc 9c58 4ebe
000003c0: 1c29 493e a4b0 173d cf3f 90bd d8a9 b73d
000003d0: ecc4 903d 5101 433d 1ab7 a53d b34a 683d
000003e0: fefa c9bc ad83 10ba ecc1 123c b879 3abd
000003f0: 2419 f0bc c530 bbbc d2ac f63d e956 d6bc

features.3.bias f4 [32]
0.06606228 0.072755665 0.1386695 0.03461942 0.005744565 -0.048867334 -0.1730276 -0.0138296895
0.12239908 0.049645558 -0.1280392 0.033932682 0.1392684 0.023481267 0.06737178 -0.018499706
-0.010348554 -0.038193572 0.20820348 -0.0869437 0.12865643 -0.023883652 -0.08347327 0.06305268
0.115893774 -0.315039 0.29193446 0.16852005 -0.34641632 -0.016135313 -0.11534784 -0.048766144
00000000: a94b 873d ec00 953d 61ff 0d3e 18cd 0d3d
00000010: e73c bc3b 1d29 48bd 262e 31be ec95 62bc
00000020: 5eac fa3d 2459 4b3d b51c 03be fffc 0a3d
00000030: 609c 0e3e c95b c03c 37fa 893d b28c 97bc
00000040: fb8c 29bc dd70 1cbd 4b33 553e 8a0f b2bd
00000050: 83be 033e a6a7 c3bc 09f4 aabd c321 813d
00000060: b759 ed3d cb4c a1be 6f78 953e 8590 2c3e
00000070: 7b5d b1be 342e 84bc 7d3b ecbd 02bf 47bd

features.6.weight f4 [64, 32, 3, 3]
-0.014379871 0.050607745 0.05424535 0.046606097 0.10202464 0.09467791 0.04737311 0.10611282
0.048496835 -0.46081948 -0.3898768 -0.35089812 -0.19994266 -0.16464402 -0.012760483 0.14604394
0.23402014 0.2945 -0.31621557 -0.45516098 -0.32533813 0.019588007 -0.044072237 -0.0009005258
0.2325235 0.16400474 0.37562817 -0.37240905 -0.2707648 -0.23439522 -0.19608577 -0.11408773
-0.07192657 -0.054786026 0.023161992 0.076239474 -0.08903699 -0.13096362 -0.16003981 -0.019741954
-0.017661957 -0.0065205675 0.03940654 0.04214274 0.050480224 -0.19682667 -0.19156265 -0.13905954
-0.11677961 -0.061236635 -0.00029973022 0.07325078 0.10022044 0.09404225 0.09075624 0.06795132
0.19927293 0.11386736 0.123386614 0.3471316 0.24713418 0.13093662 0.3465928 -0.14791209
-0.13651864 -0.13586493 -0.068953626 -0.15870892 -0.042714536 -0.108175986 -0.10373166 -0.0775987
-0.017409766 -0.0016463631 0.017774502 -0.050975338 0.005868136 0.036067784 0.08093523 -0.013500755
0.0054151337 -0.033941202 -0.03857008 -0.043394472 -0.016075466 0.010765721 0.01083761 0.0070815347
0.05481703 0.0026737056 -0.027347805 -0.04801676 0.07016424 0.07527896 0.02177302 0.09747805
0.048819184 0.10017714 0.1700671 0.2280099 0.2275804 0.22766359 0.23091356 0.1724301
0.20382358 0.17287646 0.17272276 0.14144038 -0.032902308 -0.10331687 -0.10647692 -0.10823955
-0.19167085 -0.15311398 -0.17246246 -0.1337135 -0.05984139 -0.45873508 -0.5825918 -0.42231464
0.005795052 -0.13073419 -0.14555633 0.2517174 0.20744298 0.2665007 0.017718462 -0.07058632
0.08641046 0.031015735 0.04628626 0.09505736 -0.030075174 0.014296214 0.05412755 -0.0136525845
-0.11896601 -0.14111128 -0.029195037 -0.123207904 -0.067451745 -0.010846947 0.0035459665 0.007820145
-0.47568765 -0.44734237 -0.41623706 -0.20188582 -0.13827315 -0.15197937 -0.05142868 -0.03269859
0.08526254 0.24033009 0.18510137 0.27287775 0.24291351 0.2085825 0.24481255 0.2979214
0.15357138 0.27483007 0.080448896 0.07935807 -0.017682428 0.03665055 -0.02015521 0.08965941
0.012092189 0.0010975801 0.047546413 -0.009215282 -0.0853075 0.06316381 -0.041543715 0.010341182
0.084387094 -0.033003006 0.040939197 0.0452628 -0.08142129 -0.11579509 -0.04005763 -0.025425892
-0.06406845 -0.07574612 0.038442384 -0.06544014 0.05997039 -0.0070177545 -0.07457936 0.049313217
0.100529455 0.012092122 0.19482702 0.016857436 0.08214998 0.14441565 -0.89570516 -0.77215147
-0.5057146 -0.43263528 -0.3430394 -0.071584746 -0.0015923363 0.12040894 0.26695365 -0.5597466
-0.5988823 -0.4859583 -0.3785347 -0.1943159 -0.044925544 0.13649413 0.23599926 0.35100403
0.00042056665 -0.12653974 -0.15451789 -0.0051566283 -0.12325993 -0.15613326 -0.12297661 -0.19317685
-0.07503739 -0.052269753 -0.030180523 0.015633482 0.001403964 0.0069686077 0.062361214 0.033125818
0.13611017 0.14331368 0.041431706 0.05743371 0.20915644 0.061382078 0.029335331 0.124487884
-0.055723708 -0.14870146 0.0110776 -0.074003816 0.010845667 0.043950047 -0.023472706 0.07554046
0.01877393 0.10395009 0.096382506 0.1294619 -0.10993538 -0.079918556 -0.020762812 -0.038546793
00000000: 8d99 6bbc 114a 4f3d 5f30 5e3d 09e6 3e3d
00000010: 4bf2 d03d 7ee6 c13d 4e0a 423d ae51 d93d
00000020: 9ea4 463d 88f0 ebbe ef9d c7be eba8 b3be
00000030: c5bd 4cbe 7198 28be 5811 51bc 8b8c 153e
00000040: faa2 6f3e b4c8 963e 02e7 a1be dc0a e9be
00000050: b892 a6be 0777 a03c 1785 34bd 4311 6cba
00000060: a41a 6e3e dcf0 273e 5652 c03e 66ac bebe
00000070: afa1 8abe 4d05 70be b5ca 48be d4a6 e9bd
00000080: 3d4e 93bd 5067 60bd 38be bd3c 7123 9c3d
00000090: 0759 b6bd 541b 06be 7ae1 23be e1b9 a1bc
000000a0: cfaf 90bc 7caa d5bb c168 213d de9d 2c3d
000000b0: 5ac4 4e3d ee8c 49be 0029 44be a065 0ebe
000000c0: 262a efbd 44d3 7abd 1c25 9db9 8104 963d
000000d0: 6040 cd3d 3999 c03d 68de b93d 102a 8b3d
000000e0: 340e 4c3e 4a33 e93d 1fb2 fc3d 3cbb b13e
000000f0: be10 7d3e 4014 063e 9d74 b13e 4476 17be
00000100: 8bcb 0bbe 2d20 0bbe 8f37 8dbd 9784 22be
00000110: 70f5 2ebd 5f8b ddbd 4471 d4bd 11ec 9ebd
00000120: ed9e 8ebc c7ca d7ba d59b 913c 84cb 50bd
00000130: 7e49 c03b d0bb 133d 5fc1 a53d 4532 5dbc
00000140: 6f71 b13b ee05 0bbd a9fb 1dbd 67be 31bd
00000150: b2b0 83bc b562 303c 3b90 313c 380c e83b
00000160: d287 603d 5639 2f3b 8108 e0bc 39ad 44bd
00000170: 45b2 8f3d db2b 9a3d 555d b23c 92a2 c73d
00000180: a0f6 473d ac29 cd3d 1226 2e3e 6d7b 693e
00000190: d60a 693e a520 693e 9b74 6c3e 8491 303e
000001a0: 21b7 503e 8706 313e 3cde 303e bfd5 103e
000001b0: 92c4 06bd cc97 d3bd 9210 dabd b2ac ddbd
000001c0: 5d45 44be e9c9 1cbe 009a 30be 31ec 08be
000001d0: 3f1c 75bd 53df eabe bc24 15bf a039 d8be
000001e0: 6be4 bd3b 2fdf 05be b80c 15be 1ae1 803e
000001f0: ef6b 543e c872 883e 4f26 913c 8f8f 90bd
00000200: f8f7 b03d b614 fe3c a996 3d3d 6fad c23d
00000210: 3660 f6bc ab3a 6a3c dab4 5d3d 17af 5fbc
00000220: 74a4 f3bd 7a7f 10be 6e2a efbc 6d54 fcbd
00000230: 2424 8abd 65b7 31bc 7263 683b 1120 003c
00000240: 558d f3be 0f0a e5be 061d d5be 28bb 4ebe
00000250: 7a97 0dbe 7ba0 1bbe e1a6 52bd f5ee 05bd
00000260: 209e ae3d 1719 763e 378b 3d3e a2b6 8b3e
00000270: 52be 783e a796 553e 24b0 7a3e 2789 983e
00000280: d141 1d3e 87b6 8c3e 64c2 a43d 7c86 a23d
00000290: bdda 90bc e31e 163d 8a1c a5bc 5a9f b73d
000002a0: 511e 463c addc 8f3a 07c0 423d b2fb 16bc
000002b0: b3b5 aebd 075c 813d be29 2abd 106e 293c
000002c0: 24d3 ac3d 292e 07bd dcaf 273d 7c65 393d
000002d0: 35c0 a6bd fa25 edbd 7813 24bd f649 d0bc
000002e0: 5236 83bd c820 9bbd c375 1d3d 7b05 86bd
000002f0: 83a3 753d 31f5 e5bb 10bd 98bd a8fc 493d
00000300: 63e2 cd3d 091e 463c bc80 473e 9b18 8a3c
00000310: 403e a83d b2e1 133e ef4c 65bf b8ab 45bf
00000320: 8376 01bf 5f82 ddbe dca2 afbe 069b 92bd
00000330: f1b5 d0ba f698 f63d 26ae 883e 8e4b 0fbf
00000340: 5a50 19bf 87cf f8be 4dcf c1be bffa 46be
00000350: d903 38bd 1ec5 0b3e caa9 713e cdb6 b33e
00000360: 807f dc39 a293 01be f039 1ebe eff8 a8bb
00000370: b46f fcbd 66e1 1fbe 29db fbbd 27d0 45be
00000380: 34ad 99bd cf18 56bd 253d f7bc ca11 803c
00000390: 3705 b83a eb58 e43b 796e 7f3d f0ae 073d
000003a0: 7760 0b3e d2c0 123e 4bb4 293d 9c3f 6b3d
000003b0: 1b2d 563e c66b 7b3d a650 f03c 81f3 fe3d
000003c0: 8b3e 64bd 3245 18be d27e 353c 508f 97bd
000003d0: 06b2 313c f704 343d d549 c0bc f5b4 9a3d
000003e0: c9cb 993c c9e3 d43d 3164 c53d a991 043e
000003f0: cd25 e1bd 57ac a3bd c616 aabc 3ee3 1dbd

features.6.bias f4 [64]
0.06460584 0.06484541 -0.122108884 -0.03347141 -0.03500444 0.012901308 -0.025839675 -0.018441875
-0.05632512 -0.0036332894 -0.078403786 -0.2744262 0.0038122472 0.069381915 -0.06479602 -0.09335751
0.1023826 -0.15675247 0.08844325 0.18653934 -0.13565344 0.0715831 -0.166644 -0.06853306
0.08322417 0.0014045059 0.18971391 0.004030198 -0.022904988 0.00063809793 -0.002947223 -0.1799429
0.0025426077 0.016104193 0.09991088 -0.03599587 -0.07293664 0.0006698265 -0.05596112 0.005310301
0.045056928 -0.020654654 -0.06286106 -0.0029855145 -0.056571983 0.006225839 -0.015902033 -0.12566386
-0.09372796 -0.13565667 -0.07505109 -0.24029543 -0.016519763 -0.09406666 -0.22883008 0.10766035
0.09032626 0.006497296 -0.021107187 -0.06987654 0.039449293 -0.0013258255 0.08206212 -0.19156426
00000000: 1150 843d accd 843d 3914 fabd 5119 09bd
00000010: d160 0fbd 0260 533c baad d3bc 6a13 97bc
00000020: 2bb5 66bd 7b1c 6ebb 2a92 a0bd 9781 8cbe
00000030: e5d6 793b 1b18 8e3d c7b3 84bd 3932 bfbd
00000040: f8ad d13d b883 20be bc21 b53d 2b04 3f3e
00000050: bce8 0abe 299a 923d baa4 2abe 105b 8cbd
00000060: 6f71 aa3d 6617 b83a 5d44 423e c00f 843b
00000070: 3ea3 bbbc 0746 273a 3226 41bb f442 38be
00000080: e1a1 263b f1ec 833c 139e cc3d 6870 13bd
00000090: ce5f 95bd 4c97 2f3a 7d37 65bd 0902 ae3b
000000a0: 9d8d 383d f333 a9bc 4dbd 80bd 9fa8 43bb
000000b0: 06b8 67bd 1f02 cc3b fb44 82bc 07ae 00be
000000c0: 72f4 bfbd 95e9 0abe 63b4 99bd 0110 76be
000000d0: 7454 87bc 05a6 c0bd 6f52 6abe 087d dc3d
000000e0: f9fc b83d 45e7 d43b fbe8 acbc 6e1b 8fbd
000000f0: 9595 213d 52c7 adba 2f10 a83d 6c29 44be

classifier.weight f4 [206, 64]
0.050065342 0.12150922 -0.30509263 -0.51969016 0.044516172 -0.26849073 0.0540602 0.3036626
0.2186258 -2.1430988 -0.01689548 -0.006215131 -0.37277022 -0.783896 0.073013045 -0.19175686
-0.41485772 -0.059452605 0.11640556 0.13736749 -0.08168451 -0.15153012 0.24594335 -0.08777163
0.041171983 -0.019611258 0.11829147 0.105405524 0.23409013 -0.008992421 0.14047024 -2.8326728
0.10534048 -0.42811877 -0.43506768 -0.012388291 -0.50606793 0.050214104 -0.68396944 0.063259356
-0.017427733 -0.47531265 0.004189615 0.010619792 -0.46454686 -0.034730062 0.07944741 0.06293592
-1.0844833 0.07921838 -0.70813745 -0.16731635 0.08594998 -0.35412398 -0.161199 0.14418606
0.16148661 0.052567136 -0.58934563 -0.4084908 -0.12604736 0.18718351 0.20761551 -0.008212141
0.048230577 -0.06990134 -0.42967704 -0.3127485 0.06045348 -0.39141887 -0.08207646 0.23592539
0.03829596 -1.644472 0.023700587 0.25284588 0.04062925 -0.6611569 -0.059564073 0.038592495
-0.18545988 -0.05341333 0.031958494 -0.008689786 0.28391886 -0.2803915 0.06436468 0.1991247
-0.060339317 -0.1011686 0.21690236 -0.17460883 0.053383946 -0.116024986 0.06517049 -1.6421983
0.15773813 -0.8698225 -0.4825668 0.21975774 -0.0749994 0.057760492 -0.93584496 0.091479845
-0.098142676 -0.3522257 -0.0026985465 -0.031519596 -0.2897647 0.047200643 0.089555375 -0.22077186
-1.8026488 0.27452713 -0.32026824 -0.041486263 0.116349176 -0.50143623 0.14493927 0.18810603
-0.092735365 -0.20751989 -0.89939636 -0.18644394 -0.02268663 0.11925544 0.21983221 0.021941835
0.013357393 0.13710609 -0.012596615 -1.8461848 0.14317554 0.14823636 -0.09873157 -0.13680497
0.17870636 -0.5201694 -0.045012705 -0.8583406 -0.21333611 -0.28716466 -0.24904977 -0.2423237
-0.6572155 -0.29534522 -0.05340396 -0.19582082 -0.10607563 -0.053884022 0.18738104 -0.13293448
0.042324334 0.068730146 0.13837203 0.10423353 0.12847203 0.025282986 0.030764729 -0.7615681
0.03228921 -0.23779576 -1.4871577 0.04428737 -0.22502936 -0.010996171 -0.5346023 -0.27853683
0.11960755 0.015480466 -0.002579103 -0.07840554 0.10730383 -0.02760602 0.012512003 -0.57940596
-1.0279456 -0.30246758 -0.3541821 -0.68615675 -0.11257702 -0.14065015 -0.17485002 0.07513599
0.0066229743 -0.046673708 -0.57967854 -0.066373385 -0.10401101 0.070959084 0.06819294 -0.05114618
0.06341018 -0.030340621 -0.25228298 -0.40876433 0.1763143 -0.0062018805 -0.22592762 0.09815029
-0.11826872 -0.3409541 0.096777834 -0.25097033 0.14238986 -0.25092512 -0.15162161 0.014414437
-0.05000375 -0.0145265665 -0.6990172 0.08941341 -0.14553677 -0.10002078 -0.22130871 0.12955451
0.053056892 0.039794777 -0.27262095 0.031811643 -0.2465957 0.08883751 -0.267472 -0.077148825
0.14048024 -1.1560735 -0.4702043 0.08583468 -0.11826135 -0.35982516 -0.32219526 0.15809205
-0.37749007 0.2008995 -0.10376721 0.16992605 -0.019161612 0.057103857 0.014406911 -0.42512563
-0.3470131 -0.30857563 -0.33281893 -0.4290213 -0.0052240337 0.026321461 -0.103481285 -0.17496791
0.09586267 -0.1606968 -0.13254598 -0.025927598 0.06693474 -0.20477448 -0.17782597 0.103496365
00000000: 5111 4d3d d3d9 f83d 1a35 9cbe 6a0a 05bf
00000010: 9756 363d 9e77 89be 3a6e 5d3d aa79 9b3e
00000020: 71df 5f3e 8828 09c0 6468 8abc 4ca8 cbbb
00000030: bddb bebe 69ad 48bf dd87 953d e95b 44be
00000040: 3b68 d4be 9384 73bd 0a66 ee3d 10aa 0c3e
00000050: 354a a7bd b62a 1bbe 93d8 7b3e 9dc1 b3bd
00000060: f4a3 283d caa7 a0bc cc42 f23d dade d73d
00000070: 53b5 6f3e f354 13bc 6ed7 0f3e 834a 35c0
00000080: c0bc d73d 6232 dbbe 31c1 debe 42f8 4abc
00000090: ab8d 01bf 4ead 4d3d 9f18 2fbf 1f8e 813d
000000a0: 9bc4 8ebc 2e5c f3be 0a49 893b a3fe 2d3c
000000b0: 16d9 edbe 1c41 0ebd 53b5 a23d 8ce4 803d
000000c0: 59d0 8abf 3f3d a23d 7f48 35bf fa54 2bbe
000000d0: 8b06 b03d bd4f b5be 5a11 25be 83a5 133e
000000e0: bf5c 253e a350 573d 5bdf 16bf b525 d1be
000000f0: 8f12 01be 09ad 3f3e 2999 543e 378c 06bc
00000100: 6d8d 453d 6f28 8fbd a1fe dbbe 9220 a0be
00000110: 119e 773d 0e68 c8be b417 a8bd 6d96 713e
00000120: 39dc 1c3d 0f7e d2bf bc27 c23c 0475 813e
00000130: db6a 263d 9441 29bf 75f9 73bd 2a13 1e3d
00000140: 32e9 3dbe f0c7 5abd e9e6 023d 9b5f 0ebc
00000150: d05d 913e 7a8f 8fbe a1d1 833d 58e7 4b3e
00000160: 5c26 77bd 7c31 cfbd a71b 5e3e a8cc 32be
00000170: 20a9 5a3d 829e edbd 1b78 853d 8e33 d2bf
00000180: 1b86 213e b0ac 5ebf ff12 f7be 2c08 613e
00000190: 4999 99bd 4496 6c3d 8993 6fbf c959 bb3d
000001a0: 07ff c8bd ed56 b4be 19da 30bb b11a 01bd
000001b0: 0a5c 94be 7655 413d cf68 b73d 0512 62be
000001c0: 32bd e6bf d28e 8c3e 33fa a3be 80ed 29bd
000001d0: 7a48 ee3d 205e 00bf f66a 143e de9e 403e
000001e0: 0aec bdbd 1880 54be d73e 66bf 29eb 3ebe
000001f0: 50d9 b9bc 323c f43d b21b 613e 5dbf b33c
00000200: f8d8 5a3c 8a65 0c3e 0862 4ebc c94f ecbf
00000210: 9c9c 123e 46cb 173e c733 cabd 9a16 0cbe
00000220: cdfe 363e d229 05bf 3e5f 38bd 36bc 5bbf
00000230: c874 5abe 3f07 93be e706 7fbe b423 78be
00000240: 463f 28bf 7d37 97be 1cbe 5abd 4185 48be
00000250: 2e3e d9bd 7eb5 5cbd d1e0 3f3e fa1f 08be
00000260: 485c 2d3d 64c2 8c3d 66b1 0d3e 6478 d53d
00000270: 2c8e 033e 441e cf3c 5006 fc3c 21f6 42bf
00000280: b141 043d bb80 73be 2f5b bebf ac66 353d
00000290: 196e 66be 4929 34bc b2db 08bf 619c 8ebe
000002a0: cef4 f43d c8a1 7d3c 2b06 29bb 1593 a0bd
000002b0: 1cc2 db3d 0526 e2bc 25ff 4c3c f353 14bf
000002c0: b993 83bf 08dd 9abe 5b57 b5be f8a7 2fbf
000002d0: c88e e6bd 9806 10be e20b 33be e6e0 993d
000002e0: 8905 d93b ee2c 3fbd d065 14bf c5ee 87bd
000002f0: b903 d5bd ff52 913d bda8 8b3d a87e 51bd
00000300: 32dd 813d e58c f8bc 3c2b 81be 8f49 d1be
00000310: bc8b 343e 2539 cbbb 9259 67be 0503 c93d
00000320: df36 f2bd 8991 aebe 7533 c63d 2f7f 80be
00000330: a6ce 113e 4279 80be b242 1bbe 882a 6c3c
00000340: bbd0 4cbd d600 6ebc cbf2 32bf 611e b73d
00000350: 9707 15be b2d7 ccbd c09e 62be f0a9 043e
00000360: 2f52 593d d9ff 223d f994 8bbe ed4c 023d
00000370: 9583 7cbe 71f0 b53d 17f2 88be 3400 9ebd
00000380: 0dda 0f3e 37fa 93bf 9ebe f0be 18ca af3d
00000390: 0233 f2bd 013b b8be c7f6 a4be e2e2 213e
000003a0: 6146 c1be 99b8 4d3e e783 d4bd 1801 2e3e
000003b0: d0f8 9cbc bce5 693d f70a 6c3c 11aa d9be
000003c0: b3ab b1be a0fd 9dbe 3e67 aabe aea8 dbbe
000003d0: 5f2e abbb 1ba0 d73c ffed d3bd ca2a 33be
000003e0: a653 c43d b48d 24be 22ba 07be 1d66 d4bc
000003f0: 1515 893d 67b0 51be 0318 36be e7f5 d33d

classifier.bias f4 [206]
0.13595329 0.08470085 0.19345513 0.07695804 0.005344175 0.15710631 0.1242228 0.1970685
0.046934515 -0.017618472 -0.07587226 0.07660548 -0.1560462 0.0011243725 -0.032188702 -0.025980506
0.08053512 0.07038327 -0.2249595 0.19255428 0.12753141 0.14885882 0.060630944 0.114529096
0.117502846 0.153494 0.093804836 0.028345326 -0.086256355 0.04246009 -0.13992983 0.04690392
0.26950014 0.02868697 -0.25140122 0.21160218 0.052597303 0.017008025 -0.0038557197 0.04923193
0.0019079878 0.18245286 -0.018797485 0.08300755 -0.06484374 -0.059652984 -0.106448025 0.015936598
0.17753972 -0.0070386184 -0.009691065 -0.0138251865 0.0907939 -0.010801284 0.003950694 0.059846748
0.06475913 -0.01225079 0.355034 0.13309395 -0.032890618 0.055795237 -0.06359099 0.101114854
-0.055281047 -0.085874245 0.060999822 -0.09615682 0.28882653 -0.0479172 -0.0008271724 -0.078906626
-0.02200958 -0.17634284 -0.11890709 -0.0075230957 -0.27431482 -0.09728879 -0.008394744 0.14932467
0.1403973 0.1385008 -0.031398404 -0.002804483 -0.08101011 0.045447227 0.10478046 -0.07572954
0.0047594896 0.114479765 -0.23478733 0.118626244 -0.18105714 -0.040783763 -0.097579665 -0.2111198
0.1515077 0.044600524 0.014488318 -0.17073506 -0.045502383 -0.06204152 0.02406888 -0.10980828
0.024717368 -0.04613124 0.04169522 0.021933015 -0.0022875404 -0.13022278 0.067667484 0.06659098
-0.016581845 0.081102446 -0.089444295 0.071841344 -0.05234192 0.108774066 -0.16689382 0.08530809
-0.06323437 -0.11346977 -0.049230833 0.00921764 0.0453574 -0.12107444 -0.057440426 -0.11021026
-0.04513408 0.28261533 -0.11660531 0.038732797 -0.048661016 -0.08576663 0.032864515 -0.054201037
-0.019459656 -0.04512897 0.046758913 0.08842622 0.05843804 -0.15052341 -0.056097165 0.1341526
0.059823286 0.013902085 -0.025464721 -0.10828099 -0.12770833 -0.031808995 -0.07311838 -0.10587282
0.04430214 -0.05414477 -0.110639155 0.02241388 -0.039370265 0.09588293 -0.088132374 0.120491914
-0.058374964 -0.0033750702 -0.10876612 -0.06536065 -0.0036417365 -0.047674257 0.01723857 0.14166634
-0.11507879 -0.13367546 -0.09718148 -0.00491816 0.04939696 0.06801208 0.047416307 -0.08738027
-0.17255293 -0.0034140567 -0.26064518 0.022799995 -0.01660476 0.020836333 0.06655108 0.015304222
-0.07232558 -0.16101086 -0.23214841 -0.05309113 -0.13122612 -0.17507222 -0.016505785 -0.22074233
-0.16752554 0.21032712 -0.02663603 -0.010747279 -0.046291288 -0.08950005 0.027085345 -0.027590455
-0.04746322 0.033957493 -0.028762078 0.02244577 -0.04722607 0.01046376
00000000: 5737 0b3e a477 ad3d 1a19 463e 2d9c 9d3d
00000010: 301e af3b 7ae0 203e 8668 fe3d 53cc 493e
00000020: 683e 403d 9d54 90bc ea62 9bbd 55e3 9c3d
00000030: 93ca 1fbe ae5f 933a 4dd8 03bd 12d5 d4bc
00000040: 99ef a43d 1b25 903d c85b 66be f32c 453e
00000050: 9897 023e 726e 183e 2758 783d 3b8e ea3d
00000060: 55a5 f03d 882d 1d3e c01c c03d 7534 e83c
00000070: 2ca7 b0bd a2ea 2d3d c449 0fbe 531e 403d
00000080: ecfb 893e f000 eb3c a9b7 80be 3eae 583e
00000090: 4570 573d 6a54 8b3c 3eb0 7cbb 6ca7 493d
000000a0: 7215 fa3a ecd4 3a3e 2ffd 99bc ddff a93d
000000b0: cbcc 84bd b056 74bd 6c01 dabd 788d 823c
000000c0: f9cc 353e 36a4 e6bb 46c7 1ebc 0983 62bc
000000d0: 27f2 b93d def7 30bc d374 813b dd21 753d
000000e0: 6fa0 843d 8ab7 48bc 04c7 b53e c849 083e
000000f0: 50b8 06bd 8c89 643d fe3b 82bd 4e15 cf3d
00000100: 616e 62bd d6de afbd f3da 793d deed c4bd
00000110: 12e1 933e d344 44bd 9ad6 58ba cc99 a1bd
00000120: 6f4d b4bc 3893 34be 8f85 f3bd 4d84 f6bb
00000130: fe72 8cbe 583f c7bd 1c8a 09bc 91e8 183e
00000140: 4fc4 0f3e 27d3 0d3e 9d9b 00bd 6bcb 37bb
00000150: a1e8 a5bd df26 3a3d 2397 d63d 1718 9bbd
00000160: 7ef5 9b3b 5e74 ea3d 176c 70be 51f2 f23d
00000170: 0b67 39be e00c 27bd d9d7 c7bd ca2f 58be
00000180: d624 1b3e 0aaf 363d 6960 6d3c 2cd5 2ebe
00000190: b560 3abd 401f 7ebd 1a2c c53c 2ae3 e0bd
000001a0: 147c ca3c 1cf4 3cbd 9bc8 2a3d deac b33c
000001b0: 8fea 15bb 1f59 05be 4095 8a3d da60 883d
000001c0: a6d6 87bc 0a19 a63d 922e b7bd 8e21 933d
000001d0: 7b64 56bd f0c4 de3d 37e6 2abe 02b6 ae3d
000001e0: 0581 81bd d762 e8bd 45a6 49bd 9605 173c
000001f0: aec8 393d e0f5 f7bd a746 6bbd ebb5 e1bd
00000200: 83de 38bd f5b2 903e c4ce eebd 48a6 1e3d
00000210: c650 47bd 6aa6 afbd f19c 063d e801 5ebd
00000220: db69 9fbc 28d9 38bd 4686 3f3d ce18 b53d
00000230: ba5c 6f3d cf22 1abe 24c6 65bd 4d5f 093e
00000240: 4309 753d 92c5 633c 649b d0bc 6cc2 ddbd
00000250: f9c5 02be 264a 02bd 17bf 95bd d9d3 d8bd
00000260: 2976 353d e8c6 5dbd c896 e2bd 509d b73c
00000270: b742 21bd 455e c43d bf7e b4bd 77c4 f63d
00000280: 961a 6fbd 4830 5dbb c6c0 debd cedb 85bd
00000290: 33aa 6ebb 1546 43bd e737 8d3c fb10 113e
000002a0: 6eae ebbd 38e2 08be 1507 c7bd 8428 a1bb
000002b0: 7754 4a3d eb49 8b3d 9a37 423d 6df4 b2bd
000002c0: b7b1 30be 5ebe 5fbb 4973 85be 0ec7 ba3c
000002d0: b506 88bc f5b0 aa3c ef4b 883d 8fbe 7a3c
000002e0: 6f1f 94bd 08e0 24be 50b8 6dbe 1676 59bd
000002f0: 2460 06be 2246 33be 2437 87bc 470a 62be
00000300: d18b 2bbe fe5f 573e ce33 dabc 5b15 30bc
00000310: ef9b 3dbd cd4b b7bd 16e2 dd3c 6105 e2bc
00000320: cb68 42bd 0317 0b3d 739e ebbc 31e0 b73c
00000330: 2070 41bd 3170 2b3c

exp_avg f4 [16, 1, 3, 3]
0.0024557048 0.001021266 0.006613624 -0.00088328775 -0.0012035016 0.007053145 -0.0005229525 0.00071458146
0.008199729 -0.12098554 -0.17035598 -0.21321331 -0.14505059 -0.20025665 -0.24773997 -0.17360535
-0.22327235 -0.25438583 0.06115955 0.07193406 0.085346654 0.06374827 0.0789451 0.0859306
0.060522895 0.07306081 0.0833808 -0.0513659 -0.07195015 -0.10140907 -0.050900467 -0.0775208
-0.11651447 -0.0646258 -0.082739204 -0.11553247 0.05235997 0.05200382 0.05092308 0.06606303
0.06852172 0.06270289 0.067568876 0.06982112 0.0687343 0.076578885 0.07152619 0.080752045
0.08274105 0.080286294 0.092929974 0.083628155 0.088514134 0.09293192 -0.0425189 -0.053938083
-0.053524636 -0.050612014 -0.06265727 -0.060876995 -0.05543676 -0.063161425 -0.062162086 0.049879614
0.040680625 0.03554924 0.057944447 0.059942722 0.043478407 0.06432674 0.07518253 0.055805165
0.08882971 0.13000081 0.122718096 0.11682164 0.12272145 0.13996723 0.13926978 0.103024766
0.14045508 -0.016953029 -0.028070435 -0.018380977 -0.01788789 -0.023101993 -0.022043742 -0.01165811
-0.0076841414 -0.013156027 -0.0030620825 -0.002890883 0.001984736 -0.0007862989 0.00066871196 0.007878076
0.0065863896 0.0057857204 0.015036905 0.12263295 0.08824176 0.13855726 0.13187757 0.09484492
0.13616878 0.12708512 0.11731405 0.12082665 0.012888821 0.014431517 0.01486599 0.013080739
0.015954671 0.014887092 0.010250371 0.011591604 0.010623798 0.088707134 0.17516553 0.1476145
0.13620588 0.15209262 0.15476862 0.16250798 0.10620609 0.1536583 0.10098724 0.06208854
0.10253977 0.12924527 0.03576036 0.13421017 0.15974703 0.06916651 0.1716482 -0.12116929
-0.1076136 -0.10171877 -0.09853626 -0.06930978 -0.061228782 -0.07824041 -0.05624871 -0.049324267
00000000: e4ef 203b 00dc 853a 19b7 d83b 708c 67ba
00000010: d0be 9dba 121e e73b c016 09ba c052 3b3a
00000020: 2858 063c 44c7 f7bd cc71 2ebe 9754 5abe
00000030: 2488 14be 1410 4dbe 8caf 7dbe 9ac5 31be
00000040: 82a1 64be dc3e 82be 7082 7a3d 2a52 933d
00000050: 3aca ae3d 748e 823d f8ad a13d 62fc af3d
00000060: dbe6 773d e8a0 953d 8ec3 aa3d 0d65 52bd
00000070: 9a5a 93bd 8faf cfbd 027d 50bd 3ac3 9ebd
00000080: 239f eebd 885a 84bd 2c73 a9bd 4a9c ecbd
00000090: 6877 563d f501 553d b894 503d 0e4c 873d
000000a0: 1e55 8c3d 5f6a 803d 8d61 8a3d 60fe 8e3d
000000b0: 92c4 8c3d 64d5 9c3d 537c 923d 5461 a53d
000000c0: 2474 a93d 246d a43d 1252 be3d 3d45 ab3d
000000d0: e646 b53d 1753 be3d 4c28 2ebd 2eee 5cbd
000000e0: a63c 5bbd 8b4e 4fbd 7452 80bd 285a 79bd
000000f0: a811 63bd c75a 81bd ac9d 7ebd 914e 4c3d
00000100: baa0 263d 149c 113d 2857 6d3d 8086 753d
00000110: 6a16 323d bdbd 833d 4cf9 993d f593 643d
00000120: 5aec b53d ef1e 053e a053 fb3d 2f40 ef3d
00000130: 6255 fb3d 9253 0f3e bd9c 0e3e a6fe d23d
00000140: 75d3 0f3e 14e1 8abc f8f3 e5bc b493 96bc
00000150: a089 92bc 6440 bdbc 1495 b4bc a801 3fbc
00000160: 40cb fbbb 608c 57bc 38ad 48bb f874 3dbb
00000170: 5812 023b a01f 4eba 804c 2f3a 0c13 013c
00000180: a4d2 d73b 2496 bd3b 5a5d 763c fc26 fb3d
00000190: 19b8 b43d f4e1 0d3e ea0a 073e 0e3e c23d
000001a0: d46f 0b3e 9a22 023e 5942 f03d f673 f73d
000001b0: a22b 533c 2b72 6c3c 7b90 733c 9950 563c
000001c0: 5fb3 823c fde8 733c 2cf1 273c b6ea 3d3c
000001d0: 700f 2e3c 16ac b53d 985e 333e 4128 173e
000001e0: 8e79 0b3e 2bbe 1b3e aa7b 1e3e 7e68 263e
000001f0: 9482 d93d 9a58 1d3e 66d2 ce3d 8e50 7e3d
00000200: 5f00 d23d df58 043e 7579 123d 646e 093e
00000210: ba94 233e 2ca7 8d3d 8cc4 2f3e 9b27 f8bd
00000220: 8564 dcbd ee51 d0bd 61cd c9bd 49f2 8dbd
00000230: 08cb 7abd 823c a0bd 0c65 66bd 3e08 4abd

exp_avg_sq f4 [16, 1, 3, 3]
0.0039492734 0.0035364109 0.0028427932 0.0044584526 0.004074863 0.0033490495 0.0049612573 0.0046364567
0.0039976537 0.14012882 0.19800512 0.2724098 0.13627052 0.20804107 0.30003 0.1443483
0.2259623 0.2821702 0.17978637 0.2058678 0.20905204 0.16204914 0.16302751 0.18621562
0.15493637 0.15323167 0.15540595 0.047268935 0.050965816 0.06597025 0.04833938 0.058236785
0.09368635 0.07195438 0.06692983 0.10114004 0.12706144 0.14924277 0.14281535 0.19969745
0.20103861 0.22729544 0.22794245 0.21942349 0.24808511 0.075218 0.07663533 0.071203075
0.06972848 0.0736492 0.07361966 0.046431378 0.057664204 0.056138963 0.008197883 0.011275824
0.011364285 0.009487811 0.012526108 0.01251453 0.010095628 0.012128216 0.011537707 0.067048416
0.0525087 0.042717323 0.06692394 0.06483432 0.04410787 0.069867246 0.07967365 0.05278591
0.08447159 0.1259262 0.10929656 0.10314146 0.101885274 0.11646385 0.12240856 0.08068077
0.10950065 0.51577246 0.35112312 0.29907566 0.57514125 0.3980768 0.3065501 0.5542962
0.4610195 0.33678797 0.02425619 0.020763237 0.016202057 0.028133191 0.024257107 0.018270481
0.028724795 0.02363197 0.02010556 0.09454833 0.068110876 0.09654682 0.09390104 0.06791492
0.08824927 0.084335305 0.075611286 0.075591154 0.009022442 0.010054527 0.009225709 0.009093206
0.010357748 0.009464627 0.008801055 0.009767578 0.009257399 0.3105204 0.6393055 0.49455103
0.39814782 0.4860018 0.4579909 0.45025733 0.31607747 0.41719827 0.6666292 0.5487562
0.67633367 0.72949356 0.5408945 0.7633336 0.73375016 0.5452689 0.7765394 0.15231681
0.13593417 0.12818903 0.1112537 0.0878505 0.08227086 0.06857192 0.057083055 0.05423378
00000000: e868 813b 21c3 673b 284e 3a3b 3618 923b
00000010: 6e86 853b ba7b 5b3b 0b92 a23b 6bed 973b
00000020: c0fe 823b ee7d 0f3e dbc1 4a3e 4c79 8b3e
00000030: 808a 0b3e b808 553e 889d 993e 0ad0 133e
00000040: a962 673e 9d78 903e eb19 383e 02cf 523e
00000050: bd11 563e 36f0 253e aff0 263e 4faf 3e3e
00000060: a4a7 1e3e c3e8 1c3e bd22 1f3e 129d 413d
00000070: 88c1 503d 691b 873d 84ff 453d b289 6e3d
00000080: a1de bf3d d15c 933d 8212 893d 8222 cf3d
00000090: 651c 023e 19d3 183e 303e 123e 7d7d 4c3e
000000a0: 11dd 4d3e 23c0 683e bf69 693e 8db0 603e
000000b0: 060a 7e3e e50b 9a3d fcf2 9c3d ebd2 913d
000000c0: cecd 8e3d 64d5 963d e8c5 963d d42e 3e3d
000000d0: 4d31 6c3d f8f1 653d 6a50 063c 3cbe 383c
000000e0: 4431 3a3c c372 1b3c 4e3a 4d3c be09 4d3c
000000f0: 2268 253c 6db5 463c a708 3d3c ae50 893d
00000100: 5d13 573d 5cf8 2e3d 6b0f 893d dbc7 843d
00000110: 74aa 343d 8f16 8f3d f02b a33d 0a36 583d
00000120: 71ff ac3d ccf2 003e e0d6 df3d d43b d33d
00000130: 3aa9 d03d 9984 ee3d 57b1 fa3d f63b a53d
00000140: e041 e03d aa09 043f 69c6 b33e 7220 993e
00000150: 753c 133f b9d0 cb3e 22f4 9c3e 5be6 0d3f
00000160: bf0a ec3e 796f ac3e ebb4 c63c aa17 aa3c
00000170: 2dba 843c 9477 e63c d7b6 c63c faab 953c
00000180: 4350 eb3c d597 c13c 6ab4 a43c 8ea2 c13d
00000190: b77d 8b3d 57ba c53d 304f c03d fa16 8b3d
000001a0: 09bc b43d fdb7 ac3d 17da 9a3d 89cf 9a3d
000001b0: ddd2 133c bebb 243c 6e27 173c acfb 143c
000001c0: 8bb3 293c 8611 1b3c 4d32 103c 3108 203c
000001d0: 58ac 173c 88fc 9e3e 86a9 233f cb35 fd3e
000001e0: 08da cb3e 3ad5 f83e c97d ea3e 2188 e63e
000001f0: e8d4 a13e 039b d53e 36a8 2a3f 497b 0c3f
00000200: 3424 2d3f 17c0 3a3f 1078 0a3f d569 433f
00000210: 0dd7 3b3f be96 0b3f 49cb 463f f0f8 1b3e
00000220: 5432 0b3e fc43 033e fbd8 e33d f7ea b33d
00000230: a07d a83d 6f6f 8c3d eccf 693d 3d24 5e3d

exp_avg f4 [16]
-0.0009843418 -0.21314225 0.025689453 -0.079508595 -0.001719825 0.07291373 -0.05612023 0.05956762
0.1350476 0.00031530112 0.0030849818 0.12838511 -0.019074284 0.28608158 0.25412828 -0.10342073
00000000: 0805 81ba f641 5abe b072 d23c 67d5 a2bd
00000010: c06b e1ba cb53 953d 54de 65bd 2dfd 733d
00000020: eb49 0a3e 004f a539 682d 4a3b 6377 033e
00000030: ac41 9cbc 4979 923e 1a1d 823e 3fce d3bd

exp_avg_sq f4 [16]
0.0033028373 0.3008954 0.29616198 0.09756769 0.36595705 0.047634713 0.009394802 0.07151455
0.19270702 0.51056343 0.019627258 0.11028436 0.011557789 0.8256215 1.2301424 0.10992263
00000000: 6a74 583b f60e 9a3e 8ba2 973e 92d1 c73d
00000010: b95e bb3e 9e1c 433d a8ec 193c 3876 923d
00000020: fd54 453e 49b4 023f 58c9 a03c c4dc e13d
00000030: e15c 3d3c ee5b 533f 4e75 9d3f 1e1f e13d

exp_avg f4 [32, 16, 3, 3]
0.004364742 0.0024929252 0.0049661975 0.0053741084 0.0034551285 0.0059775813 0.0016862182 -1.7362647e-05
0.0019349968 -0.000944623 6.5740605e-05 0.0002819 -0.0010269693 -0.00037505443 0.00016093705 -0.00120622
-0.0005830362 0.00014634203 0.00095647946 0.00097352784 0.0009157788 0.001394551 0.0015061973 0.0016149882
0.0016015952 0.0016666946 0.0017667798 -2.2254884e-05 0.0006231376 0.0010794807 -0.00047387253 4.76907e-06
0.00071900385 -0.0007908285 -0.00040651846 0.00041011872 0.0013591886 0.0014620869 0.0013674124 0.0003722196
0.0005295528 0.0005611013 0.00018662965 0.00028976158 0.00035431108 0.0011692757 0.00054275617 0.0016679945
0.0018185969 0.001233147 0.0024208487 0.00024783565 -0.00021807244 0.00079566333 0.004063408 0.003005623
0.0061173355 0.0048835604 0.0037051626 0.007050747 0.00083637424 -0.0002650041 0.0025727386 0.0014236559
0.00070374086 0.0004007636 0.0010149211 0.00043739623 8.436991e-05 0.0011617176 0.0005843131 0.00022268016
0.00050007773 0.00060355646 0.0005148275 0.00063904957 0.00059202826 0.0006299849 0.0005740788 0.00059020624
0.00052791083 0.00057822966 -0.00030089138 -0.00064200006 0.00023074675 -0.00042266006 -0.0009249793 0.0002632156
-0.0004624957 -0.0009925069 0.0023015677 0.0010380498 0.0019387482 0.0023738337 0.0012376439 0.0020923023
0.0006603538 -0.0004696059 5.7671685e-05 0.0012284309 0.0011846629 0.001007701 0.0014431307 0.0013976193
0.001289764 0.0014743813 0.0013852391 0.0013303548 0.0020655761 0.0019991943 0.0014791351 0.0008623658
0.00076158374 0.000577253 0.0007785404 0.00091716857 0.00081585866 -0.00027217684 -0.00016404263 -0.000116286974
4.8819347e-05 -5.40982e-07 0.00021167914 -8.9198584e-05 -5.8285077e-05 1.6499544e-05 -0.00021266268 -3.0886207e-05
-6.551709e-05 -0.00025599296 -0.00016477739 -5.8041944e-05 -0.00026313483 -0.00025353362 -0.00014755523 -0.00013870726
-0.0002874484 -0.0004927489 0.0004949162 0.0004701622 0.0004534301 0.0005947739 0.00053927035 0.0005976167
0.0034652613 0.0072931014 0.010684608 0.004632622 0.008792881 0.012909995 0.0062804893 0.007469155
0.010116264 -0.00074928126 0.00035345595 -1.1486001e-05 -0.0007143307 0.0003126617 -0.00017738738 -0.0013245699
-0.00018508913 -0.00018963299 -0.0025576712 -0.0028910611 -0.0029057 -0.002370535 -0.0020956132 -0.002193887
-0.0028793383 -0.0020719906 -0.0019856794 0.000113664195 0.001031949 0.0009668849 -3.2477546e-05 0.00070379
0.0006046919 -0.0002568101 0.00013190624 0.00019683107 -0.002263687 -0.0013682637 -0.001406678 -0.0022540377
-0.0022507678 -0.002111731 -0.002230637 -0.0027740248 -0.0028731902 0.0008131601 0.0019627018 0.0030954815
0.0014135754 0.0035175914 0.00510569 0.0012495816 0.0023252303 0.004000052 0.004606772 0.008631874
0.01196811 0.005917933 0.0102098845 0.013582811 0.0070182756 0.007836144 0.010846473 -0.001303141
-0.0024792973 -0.0023738598 -0.0016600504 -0.0030305737 -0.002516164 -0.0011882677 -0.0029832392 -0.0026221764
-0.001798488 -0.001703134 -0.0014554409 -0.001609657 -0.0015245894 -0.0014923215 -0.001684297 -0.0013586166
-0.0014278747 7.247517e-05 -0.0011332303 -0.00072127325 -7.344084e-05 -0.0017154196 -0.0007876258 0.0006423929
-0.0015276263 -0.0011374765 0.0009703394 0.0031707287 0.0048665237 0.0013573486 0.0032225866 0.0052764257
0.00241331 0.002745038 0.0038684253 -0.0018708227 -0.0021562641 -0.0022470336 -0.0016991523 -0.0020280392
-0.0019511178 -0.0017477748 -0.0019316406 -0.0019432623 -0.00083716225 -0.0011078535 -0.00091983285 -0.0010505839
00000000: 1c06 8f3b 5860 233b 7cbb a23b 4a19 b03b
00000010: 706f 623b 96df c33b 1804 dd3a 00a6 91b7
00000020: b89f fd3a 94a0 77ba 38de 8938 facb 9339
00000030: 5f9b 86ba f4a2 c4b9 36c1 2839 071a 9eba
00000040: e6d6 18ba 6473 1939 40bc 7a3a 5934 7f3a
00000050: e010 703a 5ec9 b63a 986b c53a 03ae d33a
00000060: 9eec d13a fe74 da3a 4b93 e73a 00b0 bab7
00000070: 0e5a 233a 5d7d 8d3a 1872 f8b9 0006 a036
00000080: 887b 3c3a 9a4f 4fba fc21 d5b9 3405 d739
00000090: cd26 b23a 7fa3 bf3a bf3a b33a 7826 c339
000000a0: b0d1 0a3a df16 133a 04b2 4339 24eb 9739
000000b0: d4c2 b939 6242 993a c047 0e3a 9ca0 da3a
000000c0: fc5d ee3a 8ca1 a13a 1aa7 1e3b f0ef 8139
000000d0: 60aa 64b9 1094 503a 5626 853b fcf9 443b
000000e0: ee73 c83b 4606 a03b 50d2 723b f409 e73b
000000f0: 2040 5b3a 40f0 8ab9 649b 283b f799 ba3a
00000100: 407b 383a 941d d239 1a07 853a 5452 e539
00000110: c0ef b038 c644 983a 972c 193a 407f 6939
00000120: a617 033a fd37 1e3a 7df5 063a e485 273a
00000130: 5832 1b3a 9225 253a c77d 163a 12b8 1a3a
00000140: 7f63 0a3a 5694 173a f5c0 9db9 e54b 28ba
00000150: 9cf4 7139 7998 ddb9 4f7a 72ba 3300 8a39
00000160: 1f7b f2b9 0117 82ba e6d5 163b 2c0f 883a
00000170: 981d fe3a 5292 1b3b 7038 a23a 021f 093b
00000180: 981b 2d3a 7035 f6b9 80e4 7138 4d03 a13a
00000190: b146 9b3a d614 843a 6e27 bd3a 5230 b73a
000001a0: 4c0d a93a 0740 c13a e990 b53a 4d5f ae3a
000001b0: 9e5e 073b ea04 033b 8adf c13a 6410 623a
000001c0: 05a5 473a cb52 173a f616 4c3a 246e 703a
000001d0: 59df 553a f5b2 8eb9 dc02 2cb9 18df f3b8
000001e0: 60c3 4c38 0038 11b5 30f6 5d39 2010 bbb8
000001f0: 2077 74b8 8068 8a37 34fe 5eb9 d08b 01b8
00000200: 3866 89b8 cb36 86b9 18c8 2cb9 1072 73b8
00000210: 5cf5 89b9 b5ec 84b9 0eb9 1ab9 f271 11b9
00000220: acb4 96b9 d22b 01ba 44bd 013a 1a80 f639
00000230: 5cba ed39 9aea 1b3a d25d 0d3a 61a9 1c3a
00000240: 7019 633b f8fa ee3b 7e0e 2f3c 40cd 973b
00000250: 0410 103c 7284 533c 90cc cd3b d0bf f43b
00000260: b0be 253c 6a6b 44ba 0e50 b939 00b4 40b7
00000270: ec41 3bba beec a339 1001 3ab9 319d adba
00000280: 7c14 42b9 38d8 46b9 9a9e 27bb f577 3dbb
00000290: 8e6d 3ebb fa5a 1bbb 8e56 09bb 51c7 0fbb
000002a0: 48b3 3cbb 3cca 07bb 2c22 02bb 005f ee38
000002b0: 7642 873a 8c76 7d3a 8038 08b8 8c7e 383a
000002c0: 3084 1e3a 78a4 86b9 5050 0a39 7064 4e39
000002d0: 5e5a 14bb 5057 b3ba 4860 b8ba 7ab8 13bb
000002e0: 9e81 13bb f864 0abb e12f 12bb 6acc 35bb
000002f0: 224c 3cbb 402a 553a aca0 003b 90dd 4a3b
00000300: b847 b93a 6487 663b a24d a73b 00c9 a33a
00000310: e462 183b de12 833b 68f4 963b b46c 0d3c
00000320: e415 443c 38eb c13b 5c47 273c 708a 5e3c
00000330: 90f9 e53b 2c63 003c 68b5 313c 28ce aaba
00000340: b57b 22bb c292 1bbb 0c96 d9ba 979c 46bb
00000350: 3ae6 24bb a6bf 9bba 7382 43bb d2d8 2bbb
00000360: 3ebb ebba b23b dfba 7ec4 beba 20fb d2ba
00000370: bbd4 c7ba 009a c3ba a1c3 dcba 9c13 b2ba
00000380: 8627 bbba d0fd 9738 e688 94ba d413 3dba
00000390: 4004 9ab8 eed7 e0ba ac78 4eba 4266 283a
000003a0: a23a c8ba 6117 95ba 605e 7e3a 00cc 4f3b
000003b0: 5c77 9f3b 10e9 b13a 0832 533b dee5 ac3b
000003c0: a028 1e3b 18e6 333b 6885 7d3b 6536 f5ba
000003d0: 1c50 0dbb f842 13bb 17b6 deba dae8 04bb
000003e0: a6bc ffba 9715 e5ba 1a2f fdba 10b5 feba
000003f0: 0275 5bba 6535 91ba f020 71ba bfb3 89ba
