notebooks/checkpoint_epoch_5.pth (torch, 150276 bytes, 8 tensors)

features.0.weight f4 [16, 1, 3, 3]
0.3717593 0.23800607 0.12352341 -0.12250952 -0.089370504 -0.041678566 0.39839447 0.15326913
-0.072718084 -0.29869053 -0.00155175 0.1807007 -0.27767044 -0.08324601 0.25428453 -0.16459954
0.2722129 0.09370661 0.0044022226 0.2392626 0.12593211 -0.16211137 -0.26264653 -0.014203103
-0.0724116 -0.14697091 -0.2377851 0.14614242 -0.01904333 -0.16126622 -0.42192212 -0.0036566698
0.2896869 0.32544243 -0.1514728 0.1720536 -0.38197052 -0.1434399 -0.40253684 0.30195674
0.083387606 0.33173782 0.07775517 -0.07627246 0.05771043 0.4659993 0.29528868 0.02238484
0.26864856 -0.043152977 0.32788527 -0.45386505 0.119221754 -0.2577361 0.2454104 0.4343947
0.14906232 -0.024242513 0.050910506 0.50696874 0.13035116 0.2512309 0.24730834 0.2451009
-0.30877817 -0.3028253 -0.052449957 -0.007539843 -0.3255679 -0.115001135 0.31248245 -0.23669781
-0.22422054 0.14585154 -0.03531895 -0.06515816 -0.0132286055 0.037317924 0.27357674 -0.1959951
-0.13916855 0.32891673 -0.19380695 -0.1619228 0.28033456 -0.12763041 -0.29931405 0.10164039
0.22780576 -0.2427282 0.13428225 0.01914194 -0.15155366 0.08743659 0.37002996 -0.10180761
0.38730884 -0.110758014 -0.0072363536 0.05845181 -0.09598133 0.044138473 0.1257263 -0.14251342
-0.037004426 0.059884444 -0.024364159 -0.22800206 -0.20520973 -0.37006006 -0.35746703 0.042871688
-0.22431815 -0.21219306 0.1500346 -0.16778432 -0.30477524 -0.37964094 0.43140885 0.05552775
0.065343976 0.04368241 -0.062640265 0.20405215 -0.32477233 -0.062303614 -0.028572246 -0.18367927
-0.08103678 0.07721275 -0.26396632 0.15274864 0.2801689 -0.30035427 0.36058787 0.25005716
0.04080148 0.20771113 0.07532506 -0.28887323 -0.3042894 0.01585233 0.047102965 -0.31303847
00000000: 3c57 be3e ddb7 733e d7f9 fc3d 45e6 fabd
00000010: e207 b7bd 25b7 2abd 5cfa cb3e 95f2 1c3e
00000020: 38ed 94bd f7ed 98be 1764 cbba 9b09 393e
00000030: d22a 8ebe e27c aabd 9531 823e c88c 28be
00000040: 7d5f 8b3e 40e9 bf3d 8540 903b 4101 753e
00000050: 59f4 003e 8600 26be 9b79 86be 22b4 68bc
00000060: 884c 94bd 8b7f 16be f07d 73be 5ca6 153e
00000070: c200 9cbc f922 25be 2d06 d8be bda4 6fbb
00000080: d751 943e 64a0 a63e b01b 1bbe d22e 303e
00000090: a491 c3be e9e1 12be 4f19 cebe 139a 9a3e
000000a0: 1fc7 aa3d 8ad9 a93e 1a3e 9f3d bc34 9cbd
000000b0: c661 6c3d 7697 ee3e 1430 973e 6960 b73c
000000c0: 4e8c 893e 2dc1 30bd 94e0 a73e 0061 e8be
000000d0: 892a f43d fcf5 83be dd4c 7b3e fb68 de3e
000000e0: cba3 183e 3c98 c6bc 8987 503d b4c8 013f
000000f0: c67a 053e 56a1 803e 663e 7d3e bbfb 7a3e
00000100: 2c18 9ebe eb0b 9bbe c4d5 56bd ca10 f7bb
00000110: d6b0 a6be b785 ebbd b3fd 9f3e e960 72be
00000120: 129a 65be 1b5a 153e 9aaa 10bd a471 85bd
00000130: cbbc 58bc aeda 183d 4012 8c3e f1b2 48be
00000140: 3382 0ebe c667 a83e 5475 46be 17cf 25be
00000150: 0388 8f3e 8cb1 02be b13f 99be d628 d03d
00000160: ea45 693e be8d 78be 4981 093e 8fcf 9c3c
00000170: e230 1bbe f411 b33d 9174 bd3e 8280 d0bd
00000180: 584d c63e 19d5 e2bd ef1e edbb 2a6b 6f3d
00000190: dc91 c4bd 8bca 343d 65be 003e 0aef 11be
000001a0: f491 17bd 6449 753d 5897 c7bc 5f79 69be
000001b0: 8022 52be 8378 bdbe eb05 b7be 399a 2f3d
000001c0: a8b3 65be 2349 59be aca2 193e a7cf 2bbe
000001d0: 800b 9cbe 4c60 c2be 9fe1 dc3e 1171 633d
000001e0: 10d3 853d 54ec 323d 8a49 80bd 0cf3 503e
000001f0: 8f48 a6be 1332 7fbd 5810 eabc 6b16 3cbe
00000200: 9cf6 a5bd b821 9e3d 9826 87be 246a 1c3e
00000210: 4c72 8f3e 09c8 99be f99e b83e 7e07 803e
00000220: 741f 273d 3ab2 543e 0644 9a3d 31e7 93be
00000230: d2cb 9bbe bfdc 813c 0aef 403d 9446 a0be

features.0.bias f4 [16]
0.2952769 -0.03090229 0.33093327 -0.08435191 0.14936297 -0.17868951 0.07609915 0.16621216
0.1732906 0.08383261 0.15774359 0.36746904 -0.13857517 -0.10452207 0.038881205 -0.20368415
00000000: 892e 973e cd26 fdbc 1670 a93e b2c0 acbd
00000010: 9bf2 183e 62fa 36be dfd9 9b3d 8533 2a3e
00000020: 1773 313e 6eb0 ab3d 8987 213e e724 bc3e
00000030: a6e6 0dbe ab0f d6bd e641 1f3d 9492 50be

features.3.weight f4 [32, 16, 3, 3]
0.08141549 0.086823314 -0.022391591 0.0077079153 0.054289438 0.061958622 0.08488401 0.08486581
0.031472206 -0.051120065 0.046594113 0.017481871 -0.07929736 0.0072931275 -0.04712645 0.046393465
-0.06290415 -0.04621682 0.049373418 -0.024137096 -0.006078948 0.06760891 0.079763554 -0.039192162
-0.063587494 0.07512918 0.07572905 0.0072518433 0.013473865 0.07515367 0.04149478 -0.05684021
0.0077488995 -0.034255553 -0.034968864 0.020807765 0.08496326 -0.033110917 0.06802264 0.037215035
-0.059559423 -0.048959266 -0.048486914 -0.04070271 0.052222073 -0.031458035 -0.042179074 -0.027123757
0.09009605 0.048841067 -0.042981353 0.063080505 0.061723724 0.06112318 0.03334372 0.06574324
0.08714061 0.024744479 0.061958477 -0.069052294 -0.03383994 -0.046559896 -0.052058674 -0.05804618
-0.027351437 -0.039834645 -0.050692733 0.012237488 -0.050015878 -0.033561945 0.044720538 0.015107755
-0.023697697 -0.06998644 -0.069462456 -0.037398268 -0.010332849 -0.024021614 0.046945464 0.028595412
-0.037276503 -0.057404168 -0.041456513 0.047173418 -0.0840376 -0.048184626 0.045587104 -0.026946131
0.03083659 -0.0349351 0.03666119 -0.013527149 -0.02319435 0.065362036 0.073848516 0.052874364
-0.06278145 -0.008988155 -0.08308004 0.09127682 0.0037188195 0.004898357 -0.047434684 -0.07033655
-0.01834428 0.07501948 0.016528375 0.029636752 -0.036243197 -0.0035936502 -0.06468422 -0.05546183
-0.100672446 -0.10810019 -0.096960075 -0.034900375 -0.10292398 -0.1156737 -0.09452347 0.00482434
-0.029978974 -0.06096601 0.014632873 -0.10320574 -0.021544833 -0.080457896 -0.08044511 -0.006963028
0.047177434 -0.040974922 -0.09057426 -0.08984524 -0.07333713 0.018355077 -0.095350616 -0.07184427
-0.041596945 -0.157865 -0.02295407 -0.031854216 -0.038793918 0.011299868 -0.009261339 0.007320683
0.07942277 0.08720102 -0.045753285 -0.005874006 0.07800556 -0.0024276215 0.01136373 -0.019361908
0.04400965 -0.09487619 -0.04328751 -0.07609481 -0.09792898 -0.069656864 -0.041245323 0.011749416
-0.045914073 0.067554556 -0.060238987 0.020096952 0.091470234 0.07543499 0.02036612 0.07955517
-0.038082648 0.043752603 0.07155783 -0.06953796 -0.10741594 -0.1274416 0.016076952 -0.06512836
-0.110116586 -0.05463297 -0.058005266 -0.10526372 0.031364355 -0.0745482 0.06872753 -0.053317633
-0.07749233 0.023531212 -0.068880044 0.03297405 -0.087003425 9.9191035e-05 -0.044127777 -0.044065464
-0.05144954 0.078963704 -0.10159838 0.015226506 -0.054029033 0.038654864 0.05399744 -0.04300597
-0.085882306 0.0871481 0.05808932 -0.115967795 0.06316584 0.025702711 -0.09007356 0.006594599
-0.058396287 -0.014316933 -0.01738798 -0.07856383 -0.046773553 0.0034503513 0.020051712 0.008250612
-0.0034705638 0.019221302 -0.007994534 -0.041109778 -0.039932244 -0.010546805 0.060223125 -0.011359492
0.024436919 0.00069041445 0.026108708 -0.02983068 -0.04910639 0.017778508 -0.0071057966 0.05700584
0.06726567 0.08461556 0.052449007 -0.07152329 -0.05223012 0.003836842 -0.036771577 -0.07699155
0.03319279 -0.04698777 -0.015936337 0.045098417 0.051748298 0.013949003 0.038959354 0.038892608
-0.05141768 -0.0069234613 0.018284852 -0.031542893 -0.069159515 -0.098646246 0.050179336 -0.0005511801
00000000: 2abd a63d 6cd0 b13d 926e b7bc ae92 fc3b
00000010: 9a5e 5e3d 53c8 7d3d abd7 ad3d 20ce ad3d
00000020: 00e9 003d 4663 51bd 78d9 3e3d 2436 8f3c
00000030: a766 a2bd 30fb ee3b aa07 41bd 1307 3e3d
00000040: e4d3 80bd d94d 3dbd c83b 4a3d 29bb c5bc
00000050: e931 c7bb 8a76 8a3d 135b a33d f687 20bd
00000060: 293a 82bd 54dd 993d d517 9b3d dfa0 ed3b
00000070: 7cc1 5c3c 2bea 993d 6ef6 293d 48d1 68bd
00000080: 7bea fd3b 8d4f 0cbd 833b 0fbd 0c75 aa3c
00000090: 3801 ae3d 509f 07bd 744f 8b3d cb6e 183d
000000a0: 95f4 73bd 8389 48bd 379a 46bd e3b7 26bd
000000b0: d0e6 553d 24da 00bd f7c3 2cbd a432 debc
000000c0: 4784 b83d 920d 483d 370d 30bd 5a30 813d
000000d0: 04d2 7c3d 4d5c 7a3d 6d93 083d 64a4 863d
000000e0: c776 b23d efb4 ca3c 2cc8 7d3d 4a6b 8dbd
000000f0: c09b 0abd 97b5 3ebd 7a3b 55bd d5c1 6dbd
00000100: 1f10 e0bc a729 23bd 2fa3 4fbd bf7f 483c
00000110: 73dd 4cbd 4078 09bd e22c 373d 8486 773c
00000120: ac21 c2bc 0d55 8fbd 5542 8ebd ed2e 19bd
00000130: 1c4b 29bc fac8 c4bc e349 403d ed40 ea3c
00000140: 3faf 18bd a220 6bbd 4ece 29bd ea38 413d
00000150: e81b acbd 3e5d 45bd 8bb9 3a3d 22be dcbc
00000160: 049d fc3c 1b18 0fbd 0b2a 163d faa0 5dbc
00000170: 1402 bebc 88dc 853d e43d 973d ca92 583d
00000180: 9093 80bd 0e43 13bc de25 aabd 57ef ba3d
00000190: 70b7 733b 6682 a03b df4a 42bd 9c0c 90bd
000001a0: be46 96bc d0a3 993d 8466 873c c6c8 f23c
000001b0: bf73 14bd 7283 6bbb 2979 84bd f22b 63bd
000001c0: 5b2d cebd a263 ddbd 0193 c6bd b2f3 0ebd
000001d0: cfc9 d2bd 55e6 ecbd 8595 c1bd 7f15 9e3b
000001e0: 7796 f5bc 7fb7 79bd b8be 6f3c 885d d3bd
000001f0: ca7e b0bc 1cc7 a4bd 68c0 a4bd 1d2a e4bb
00000200: 203d 413d 52d5 27bd ff7e b9bd c800 b8bd
00000210: c731 96bd 635d 963c 2f47 c3bd 1723 93bd
00000220: 8f61 2abd 5da7 21be 2c0a bcbc 9179 02bd
00000230: 5fe6 1ebd 1523 393c dfbc 17bc 57e2 ef3b
00000240: 68a8 a23d 7396 b23d cc67 3bbd bc7a c0bb
00000250: 61c1 9f3d bb18 1fbb f02e 3a3c dd9c 9ebc
00000260: 7643 343d 734e c2bd 3e4e 31bd 99d7 9bbd
00000270: fd8e c8bd 42a8 8ebd dbf0 28bd 9f80 403c
00000280: 6510 3cbd 0b5a 8a3d 28bd 76bd 5da2 a43c
00000290: bf54 bb3d a97d 9a3d d9d6 a63c d2ed a23d
000002a0: 8dfc 1bbd ee35 333d e98c 923d eb69 8ebd
000002b0: e3fc dbbd 0d80 02be d0b3 833c 0562 85bd
000002c0: ce84 e1bd d2c6 5fbd ee96 6dbd 8194 d7bd
000002d0: e977 003d baac 98bd 05c1 8c3d 9763 5abd
000002e0: 4cb4 9ebd 87c4 c03c fb10 8dbd cc0f 073d
000002f0: da2e b2bd c804 d038 54bf 34bd fd7d 34bd
00000300: c1bc 52bd b9b7 a13d d012 d0bd 9878 793c
00000310: 8c4d 5dbd 9054 1e3d 6b2c 5d3d 0727 30bd
00000320: 10e3 afbd b47a b23d 11ef 6d3d 8680 edbd
00000330: 185d 813d 7e8e d23c 7d78 b8bd 8217 d83b
00000340: f230 6fbd 9291 6abc 3d71 8ebc 13e6 a0bd
00000350: a095 3fbd 4a1f 623b 7d43 a43c 932d 073c
00000360: 6672 63bb fe75 9d3c 82fb 02bc ba62 28bd
00000370: fe8f 23bd 82cc 2cbc 86ac 763d 2a1d 3abc
00000380: ef2f c83c eefc 343a eee1 d53c 785f f4bc
00000390: c823 49bd 3ca4 913c bed7 e8bb f57e 693d
000003a0: 95c2 893d ec4a ad3d c5d4 563d cd7a 92bd
000003b0: 40ef 55bd 8773 7b3b cb9d 16bd bfad 9dbd
000003c0: 2af5 073d 3f76 40bd ec8c 82bc 1eb9 383d
000003d0: 06f6 533d 5c8a 643c d893 1f3d db4d 1f3d
000003e0: 589b 52bd 34de e2bb 1dca 953c 1f33 01bd
000003f0: 81a3 8dbd 0b07 cabd d988 4d3d 127d 10ba

features.3.bias f4 [32]
0.04346899 0.04734657 0.07020915 0.039836284 0.10099474 0.009420689 -0.062372316 -0.01454761
0.086985454 0.055895228 -0.056541987 0.04219845 -0.0062692193 0.039897956 0.032242857 -0.034346495
0.08038037 -0.024922654 0.08615859 -0.02647091 0.10950859 0.039029416 0.046667114 0.049097642
0.049704537 -0.001583014 0.10812045 0.052086856 0.069688566 0.03394161 -0.070447184 -0.060333278
00000000: 8a0c 323d 7aee 413d d1c9 8f3d 5f2b 233d
00000010: 55d6 ce3d 3c59 1a3c 1d7a 7fbd 1959 6ebc
00000020: 6e25 b23d 65f2 643d 9298 67bd 48d8 2c3d
00000030: 066e cdbb 0a6c 233d 1611 043d e9ae 0cbd
00000040: 779e a43d 982a ccbc ea73 b03d 86d9 d8bc
00000050: 0a46 e03d 4fdd 1f3d 0426 3f3d 9c1a 493d
00000060: fc96 4b3d 237d cfba 416e dd3d 0759 553d
00000070: e1b8 8e3d 5c06 0b3d 9d46 90bd 0720 77bd

features.6.weight f4 [64, 32, 3, 3]
-0.0056075165 0.026290465 -0.0044310233 0.017391764 0.041370016 0.009241939 0.035545114 0.07435815
8.840938e-05 -0.027563322 0.010106764 -0.048886668 0.04514856 -0.020212315 -0.02102561 0.00847441
0.00854926 -0.028619194 -0.06106026 -0.10620874 -0.11328752 -0.074258566 -0.019684914 -0.0865798
-0.14218606 -0.1333533 -0.03692323 -0.07245923 -0.019389324 -0.027350135 -0.035585474 -0.0069177668
-0.00958196 -0.06959606 -0.038683865 -0.009271459 0.07063154 0.041169673 -0.025159813 0.06369299
0.07355886 0.04955372 0.062130786 0.066594966 0.038769692 -0.005966373 -0.024194472 -0.019766742
-0.049181093 -0.01931307 0.0030146805 0.0013316589 0.005069037 -0.022938758 -0.06371241 -0.0011325332
-0.025713822 -0.087774426 -0.052018423 0.028137093 0.011696461 -0.06585913 0.009675339 -0.030600796
0.025923291 -0.011669516 0.03155913 -0.01931984 0.033608936 0.008544254 0.036706697 -0.035044115
0.028392168 0.03416119 0.028910834 -0.04140932 0.0066439733 0.012509692 0.06298176 -0.032273993
-0.033271443 0.017862484 0.018590664 0.010564419 0.014495102 0.044146355 0.037563443 -0.0074160644
0.041253924 -0.024217132 0.018133644 -0.027131535 0.045813467 0.06272395 0.00016193723 0.029267713
-0.034375805 0.010145067 0.047299225 0.04804746 0.046446383 -0.0023716525 0.04905504 0.004470065
-0.0037747296 0.023863059 0.048357565 -0.018088365 0.06862418 0.023321558 -0.00988956 0.016488034
-0.05347036 -0.050598405 -0.042439945 0.010378925 0.0030102457 -0.16921228 -0.15402451 -0.07317245
-0.07250657 -0.055700038 -0.13869298 -0.10835476 -0.031634845 -0.036987577 0.035539337 -0.023257853
0.02708289 -0.031774834 0.011640546 -0.048706893 0.003907126 0.051970225 -0.009508699 0.08519094
-0.00090241485 -0.028896207 0.048008136 -0.030776378 0.012128524 0.02093795 0.03870829 0.019157425
-0.07990668 -0.050437696 -0.08580229 -0.0153123895 0.029816974 -0.04878484 -0.07712521 -0.08257319
-0.01012232 0.072321974 0.018686697 0.05841619 0.055794362 0.049520854 0.049510796 0.0729127
-0.033232246 0.07165128 0.058527377 0.06609721 -0.031711113 0.01782516 -0.032206148 0.074682936
-0.016043926 -0.016455991 0.026429078 0.05941713 -0.039848316 0.06290037 -0.032620355 -0.012174842
0.019073019 -0.0056848773 0.044880062 0.012036182 0.0038670779 -0.014094317 0.057255164 0.047337145
0.02304143 0.00014085029 0.07502831 -0.024877 0.081151724 0.021486765 -0.019726673 -0.026930487
0.023379175 -0.04329707 0.003263962 0.010479054 0.06137333 0.0028501148 -0.12102696 -0.06010429
-0.019701116 -0.013661465 -0.058135353 -0.002843554 -0.076140784 -0.060517132 -0.045228302 0.053007662
-0.022366954 -0.037569065 -0.03231202 0.054846134 0.015373539 -0.038671892 -0.019395798 -0.01134489
0.067036554 0.024712957 0.012890836 0.04365299 0.009296125 -0.033801664 -0.013309024 -0.023282714
0.080626644 0.046995 0.031509645 0.016533993 0.01108726 -0.007890342 0.015369301 -0.05896123
0.036484353 0.041545805 -0.02772022 -0.047442768 0.05161876 0.025881387 -0.027772183 0.018014187
0.061944105 -0.047279164 0.047325704 -0.033419244 0.038701363 0.048578274 -0.045187194 0.05604262
-0.013855907 0.020272112 0.017419657 0.0532281 0.06290804 0.01693333 0.013641577 0.044812527
00000000: 42bf b7bb 1a5f d73c 1e32 91bb 2c79 8e3c
00000010: 9b73 293d 806b 173c c197 113d 1649 983d
00000020: 6d68 b938 7acc e1bc d796 253c 633d 48bd
00000030: b2ed 383d 4c94 a5bc e63d acbc 40d8 0a3c
00000040: 3212 0c3c cd72 eabc 531a 7abd f883 d9bd
00000050: 4a03 e8bd e014 98bd 4242 a1bc c050 b1bd
00000060: 3999 11be c48d 08be d03c 17bd 8165 94bd
00000070: 5cd6 9ebc 640d e0bc 13c2 11bd 6fae e2bb
00000080: a7fd 1cbc 6188 8ebd f972 1ebd 51e7 17bc
00000090: 45a7 903d 88a1 283d f41b cebc 7871 823d
000000a0: 07a6 963d d7f8 4a3d da7c 7e3d f162 883d
000000b0: f8cc 1e3d 9081 c3bb 7c33 c6bc dded a1bc
000000c0: 1d72 49bd 7236 9ebc f291 453b 0f8b ae3a
000000d0: 2a1a a63b 10ea bbbc a77b 82bd 8271 94ba
000000e0: cba5 d2bc 14c3 b3bd 4511 55bd c37f e63c
000000f0: 83a2 3f3c 27e1 86bd 5085 1e3c 85ae fabc
00000100: 155d d43c 7f31 3fbc 2544 013d a444 9ebc
00000110: 86a9 093d 33fd 0b3c c359 163d 6b8a 0fbd
00000120: b196 e83c 9bec 0b3d 6ad6 ec3c d29c 29bd
00000130: b0b5 d93b 74f5 4c3c 95fc 803d bc31 04bd
00000140: a347 08bd 5854 923c 734b 983c 6316 2d3c
00000150: dd7c 6d3c cfd2 343d 20dc 193d 7502 f3bb
00000160: e0f9 283d 0263 c6bc 028d 943c f442 debc
00000170: e7a6 3b3d 6a75 803d b2cd 2939 d8c2 ef3c
00000180: a5cd 0cbd 7f37 263c d5bc 413d 6acd 443d
00000190: 903e 3e3d ba6d 1bbb f0ed 483d 9f79 923b
000001a0: 7461 77bb 767c c33c 9512 463d 0d2e 94bc
000001b0: d68a 8c3d da0c bf3c d207 22bc ea11 873c
000001c0: bc03 5bbd 4640 4fbd 82d5 2dbd 5e0c 2a3c
000001d0: 8b47 453b fc45 2dbe 9ab8 1dbe 70db 95bd
000001e0: 537e 94bd b925 64bd 8805 0ebe 1ae9 ddbd
000001f0: 8a93 01bd 4980 17bd b291 113d 4187 bebc
00000200: f0dc dd3c 5426 02bd fdb7 3e3c e180 47bd
00000210: 5907 803b bbde 543d 60ca 1bbc 9678 ae3d
00000220: 0990 6cba bdb7 ecbc 2ea4 443d be1e fcbc
00000230: b7b6 463c 1086 ab3c 958c 1e3d 08f0 9c3c
00000240: 1da6 a3bd c297 4ebd 1cb9 afbd d1e0 7abc
00000250: ba42 f43c 9dd2 47bd d2f3 9dbd 221c a9bd
00000260: 16d8 25bc 8b1d 943d d814 993c d145 6f3d
00000270: a188 643d 61d6 4a3d d5cb 4a3d 4153 953d
00000280: 891e 08bd e8bd 923d 67ba 6f3d f95d 873d
00000290: 83e3 01bd 1206 923c 98ea 03bd 5ef3 983d
000002a0: 8d6e 83bc b7ce 86bc cb81 d83c 605f 733d
000002b0: fd37 23bd e9d1 803d ec9c 05bd fd78 47bc
000002c0: 053f 9c3c 3548 babb 28d4 373d 6833 453c
000002d0: cd6e 7d3b daeb 66bc 6484 6a3d 98e4 413d
000002e0: 62c1 bc3c 36b1 1339 71a8 993d daca cbbc
000002f0: e032 a63d 0305 b03c d599 a1bc 539d dcbc
00000300: af85 bf3c 4558 31bd 32e8 553b 57b0 2b3c
00000310: 9a62 7b3d fec8 3a3b fcdc f7bd ea2f 76bd
00000320: 3c64 a1bc 56d4 5fbc 561f 6ebd eb5a 3abb
00000330: b3ef 9bbd d0e0 77bd 5041 39bd 901e 593d
00000340: e73a b7bc 05e2 19bd 9c59 04bd 57a6 603d
00000350: 4ce1 7b3c 6b66 1ebd f0e3 9ebc ebdf 39bc
00000360: 764a 893d d472 ca3c 1634 533c 7acd 323d
00000370: c64e 183c 9d73 0abd 180e 5abc 64bb bebc
00000380: 951f a53d d47d 403d 4210 013d 4c72 873c
00000390: 57a7 353c 7e46 01bc 85cf 7b3c 5581 71bd
000003a0: 9e70 153d ef2b 2a3d 8415 e3bc 5953 42bd
000003b0: 316e 533d 3405 d43c 7d82 e3bc 7d92 933c
000003c0: 1ab9 7d3d cca7 41bd 99d8 413d 9ee2 08bd
000003d0: 5285 1e3d 03fa 463d 3516 39bd f28c 653d
000003e0: e303 63bc b311 a63c abb3 8e3c b505 5a3d
000003f0: eed5 803d c4b7 8a3c ec80 5f3c 578d 373d

features.6.bias f4 [64]
0.04835684 0.07335877 -0.041446567 -0.008774134 -0.0051060417 0.030029243 -0.025479775 -0.014266462
0.04124812 -0.040535588 -0.078053854 0.034116056 -0.02971811 -0.053920463 0.03882223 -0.042032145
0.045624685 -0.03885171 0.041578736 0.09562935 -0.07474405 0.03102196 0.010814095 0.03849654
0.036490347 -0.0024570087 0.07981114 0.029354155 0.03338327 0.0062739444 -0.013305905 -0.035150982
0.07811494 0.029633824 0.058053657 0.011272807 -0.049266838 0.02435609 -0.017901458 -0.04424897
0.024636412 0.034004424 0.07016262 0.057993468 -0.009139725 0.061840177 0.05385907 0.05545484
-0.0660458 -0.008774287 -0.018795922 -0.072477795 -0.0165396 -0.022800226 -0.023932293 0.05857773
0.039890252 0.06417406 0.008839202 -0.013453585 0.046393286 -0.009633496 0.029721815 -0.071456015
00000000: d211 463d 1f3d 963d e0c3 29bd 63c1 0fbc
00000010: 9550 a7bb e3ff f53c f6ba d0bc e1bd 69bc
00000020: caf3 283d a508 26bd b3da 9fbd 47bd 0b3d
00000030: 6573 f3bc b4db 5cbd 0f04 1f3d e629 2cbd
00000040: f3e0 3a3d f822 1fbd 774e 2a3d 52d9 c33d
00000050: 6913 99bd c421 fe3c 9a2d 313c 8cae 1d3d
00000060: e776 153d c405 21bb 0674 a33d 2078 f03c
00000070: e5bc 083d a995 cd3b 0301 5abc 7afa 0fbd
00000080: bafa 9f3d a2c2 f23c acc9 6d3d 94b1 383c
00000090: 06cc 49bd 6c86 c73c 14a6 92bc 683e 35bd
000000a0: 4dd2 c93c 3948 0b3d 6bb1 8f3d 8f8a 6d3d
000000b0: c9be 15bc 204c 7d3d 549b 5c3d 9d24 633d
000000c0: 0543 87bd 07c2 0fbc e8f9 99bc 3d6f 94bd
000000d0: 0e7e 87bc 8ac7 babc a80d c4bc 34ef 6f3d
000000e0: f663 233d b16d 833d 4dd2 103c 6d6c 5cbc
000000f0: e306 3e3d d0d5 1dbc 2a7b f33c 8857 92bd

classifier.weight f4 [206, 64]
-0.08967442 -0.08596193 -0.14785995 -0.51674354 -0.19946457 -0.22513542 -0.127962 -0.021393485
-0.0063221985 -0.47926444 -0.01689548 -0.24480604 -0.25874978 -0.075982705 -0.029631365 0.079300515
-0.09929465 -0.08217044 -0.16181655 -0.1285694 -0.27170092 -0.25352895 -0.031468898 -0.04405786
-0.09172268 -0.11657311 -0.18572795 0.07162955 -0.038662624 -0.12913649 -0.059025463 0.04566211
-0.09492001 -0.4972379 -0.76083237 -0.2782711 -0.32499647 -0.08860807 -0.44158185 -0.054401953
-0.18980655 -0.3303789 -0.18131137 -0.19970423 -0.1205683 -0.13919774 -0.008569336 -0.1868164
-0.41040075 -0.1122991 -0.36174133 -0.43187094 0.08595006 -0.18444939 -0.04385374 -0.14258534
-0.04677002 -0.005746773 -0.43940398 0.042777777 -0.04712853 -0.07192698 -0.07419077 -0.17659672
-0.04471703 -0.13659872 -0.24920148 -0.548678 -0.07805323 -0.23007089 -0.19997947 -0.037556402
-0.1515672 -0.49073148 0.023700587 -0.1513728 -0.0105890585 0.0024909924 -0.12589753 0.01616453
-0.05264321 -0.13326879 -0.17949581 -0.09799381 -0.1114892 -0.2375342 -0.15999828 -0.0068477695
-0.057994064 -0.115078196 -0.013482454 -0.12258161 -0.19234136 -0.16845174 -0.090504915 -0.30610555
-0.0055441745 -0.68894637 -0.2838491 -0.0874687 -0.11604894 -0.032190874 -0.46500123 -0.16107927
-0.019940546 -0.17533684 -0.009836122 -0.19885845 -0.19511138 -0.1693242 -0.20392075 -0.36156586
-0.16919877 -0.05580679 -0.3135313 -0.19431546 0.11634949 -0.18332104 -0.0861606 0.00886573
-0.14863098 -0.04051471 -0.6432344 0.02328803 -0.024328241 -0.1557397 -0.04226056 -0.03470727
-0.11231668 -0.046920747 -0.23406397 -0.6079573 -0.12213049 -0.0683903 -0.22421278 -0.08232909
-0.019843422 -0.5202727 -0.045012705 -0.0891324 -0.3109318 0.006138493 -0.04573604 -0.09336905
-0.23625347 0.09164251 -0.2672528 -0.29495892 -0.079618834 -0.1451295 -0.06442949 -0.19680901
-0.038959734 -0.09324928 -0.024221221 -0.07573345 -0.1029168 -0.16005383 -0.100457415 -0.12641281
-0.16614346 -0.39203584 -0.8377672 -0.061724517 -0.26515684 -0.050143432 -0.35356006 -0.3589685
-0.076093756 -0.1545474 -0.114471875 -0.24172257 -0.070365496 -0.0902892 -0.13107528 -0.3237292
-0.5821258 -0.21758609 -0.31646425 -0.5478931 -0.11257696 -0.12396683 -0.20406644 -0.20096831
-0.176784 -0.20276369 -0.5615451 -0.13288943 -0.15462358 -0.17532435 -0.10030863 -0.19618297
0.0008301139 -0.050735608 -0.1799206 -0.3231779 -0.07005172 -0.16003728 -0.09187545 -0.029135788
-0.1530553 -0.3968168 0.096777834 -0.20172805 -0.00090656424 0.103730954 -0.044195384 0.0030994164
0.01747638 -0.06250868 -0.1524767 -0.05887315 -0.10611991 -0.0814501 -0.13218419 -0.068990394
-0.06505454 -0.055254303 -0.066177204 0.014135306 -0.18636198 -0.108832516 -0.21168564 0.02666073
-0.045196455 -0.25499308 -0.29795521 -0.04313222 -0.08463983 -0.18257357 -0.2648652 0.03986255
-0.10925046 -0.021313908 -0.027456867 -0.09199006 -0.17143118 -5.24672e-05 -0.06800751 -0.37830278
-0.24847111 -0.052252423 -0.344518 -0.44742605 -0.0052215136 -0.06529132 -0.16046104 -0.09629808
-0.04599343 -0.12724905 -0.14148411 -0.12944797 -0.12871574 -0.019802172 -0.15674916 -0.15015854
00000000: 39a7 b7bd cf0c b0bd 9968 17be 4e49 04bf
00000010: 7140 4cbe e689 66be 7808 03be 6441 afbc
00000020: 722a cfbb 2662 f5be 6468 8abc 6fae 7abe
00000030: da7a 84be d29c 9bbd 7abd f2bc 4f68 a23d
00000040: fe5a cbbd fa48 a8bd 3db3 25be b2a7 03be
00000050: 621c 8bbe 8cce 81be 88e5 00bd 0476 34bd
00000060: 1ad9 bbbd e2bd eebd 782f 3ebe 83b2 923d
00000070: b35c 1ebd 5b3c 04be afc4 71bd 3108 3b3d
00000080: 6c65 c2bd f795 febe e9c5 42bf 8d79 8ebe
00000090: f065 a6be 2678 b5bd 0417 e2be 95d4 5ebd
000000a0: a65c 42be 6c27 a9be b0a9 39be 447f 4cbe
000000b0: 83ec f6bd da89 0ebe 6666 0cbc cc4c 3fbe
000000c0: 0c20 d2be 12fd e5bd 2936 b9be 301e ddbe
000000d0: 9606 b03d 4de0 3cbe fb9f 33bd e401 12be
000000e0: ec91 3fbd 6d4f bcbb 8ff9 e0be c037 2f3d
000000f0: d809 41bd 744e 93bd 55f1 97bd c5d5 34be
00000100: 3429 37bd 89e0 0bbe ac2e 7fbe 2976 0cbf
00000110: 5fda 9fbd b497 6bbe 6bc7 4cbe bed4 19bd
00000120: 6f34 1bbe 2841 fbbe bc27 c23c 7901 1bbe
00000130: bb7d 2dbc eb3f 233b 48eb 00be 7a6b 843c
00000140: 68a0 57bd 9d77 08be c0cd 37be fbb0 c8bd
00000150: 7354 e4bd 2a3c 73be 97d6 23be 4163 e0bb
00000160: 2f8b 6dbd 1eae ebbd 83e5 5cbc 110c fbbd
00000170: 22f5 44be 9d7e 2cbe a45a b9bd deb9 9cbe
00000180: e8ab b5bb ca5e 30bf ab54 91be ca22 b3bd
00000190: 11ab edbd 94da 03bd a414 eebe f7f1 24be
000001a0: 5b5a a3bc 808b 33be b027 21bc 8da1 4bbe
000001b0: 47cb 47be 5363 2dbe 9ad0 50be 291f b9be
000001c0: 7142 2dbe a995 64bd 2d87 a0be a2fa 46be
000001d0: a448 ee3d 83b8 3bbe f874 b0bd 9141 113c
000001e0: b832 18be c1f2 25bd 02ab 24bf 8ac6 be3c
000001f0: 054c c7bc 3a7a 1fbe 6919 2dbd 3629 0ebd
00000200: 4a06 e6bd f82f 40bd 77ae 6fbe 17a3 1bbf
00000210: 8d1f fabd 3710 8cbd 0998 65be 279c a8bd
00000220: ac8e a2bc 9730 05bf 3e5f 38bd 0c8b b6bd
00000230: 7432 9fbe 6925 c93b b755 3bbd 4638 bfbd
00000240: 6eec 71be 11af bb3d 5cd5 88be db04 97be
00000250: 330f a3bd d49c 14be 9cf3 83bd 4d88 49be
00000260: 3e94 1fbd 7af9 bebd 956b c6bc 241a 9bbd
00000270: 0bc6 d2bd 27e5 23be 9ebc cdbd 5c72 01be
00000280: 8321 2abe ecb8 c8be e977 56bf d9d2 7cbd
00000290: a3c2 87be 3363 4dbd d305 b5be b8ca b7be
000002a0: 0bd7 9bbd ac41 1ebe 3b70 eabd 1f86 77be
000002b0: c91b 90bd 8be9 b8bd 9938 06be d5bf a5be
000002c0: 3206 15bf e3ce 5ebe 9a07 a2be b942 0cbf
000002d0: c08e e6bd 52e2 fdbd cbf6 50be a3ca 4dbe
000002e0: dd06 35be 49a1 4fbe 6bc1 0fbf 2b14 08be
000002f0: a555 1ebe 3a88 33be 9c6e cdbd 30e4 48be
00000300: 009c 593a 24d0 4fbd 1b3d 38be 9377 a5be
00000310: 4777 8fbd d0e0 23be 3229 bcbd 2dae eebc
00000320: 87ba 1cbe 922b cbbe 7533 c63d cc91 4ebe
00000330: 7fa6 6dba e570 d43d 3806 35bd 941f 4b3b
00000340: a02a 8f3c 8d04 80bd da22 1cbe f924 71bd
00000350: 6555 d9bd 4fcf a6bd 4b5b 07be d64a 8dbd
00000360: 513b 85bd 5652 62bd ea87 87bd c597 673c
00000370: add5 3ebe 95e3 debd 1fc4 58be 9a67 da3c
00000380: eb1f 39bd 748e 82be 968d 98be 69ab 30bd
00000390: a657 adbd 91f4 3abe 699c 87be ea46 233d
000003a0: b5be dfbd 819a aebc 39ed e0bc 4965 bcbd
000003b0: a88b 2fbe 3a10 5cb8 8547 8bbd e7b0 c1be
000003c0: 366f 7ebe a306 56bd aa64 b0be 0715 e5be
000003d0: 3b19 abbb 75b7 85bd e64f 24be ee37 c5bd
000003e0: 9b63 3cbd 934d 02be 36e1 10be 028e 04be
000003f0: 0fce 03be 2a38 a2bc da82 20be 29c3 19be

classifier.bias f4 [206]
-0.06596621 -0.05109945 0.019522639 -0.038273696 -0.09909563 -0.021553844 0.040379666 0.021538775
-0.13476598 -0.11153328 -0.16128767 0.004097948 -0.06634139 -0.047131233 -0.029470628 0.01952455
0.023902033 -0.01768009 -0.18531162 0.07527282 0.048235595 0.014294752 -0.012520687 0.05447175
-0.028285027 -0.023935976 0.014730954 -0.09042266 -0.1541225 0.04106918 -0.04220341 -0.041667923
0.025846278 -0.13485311 -0.0668344 0.03244401 0.05577152 -0.025708642 -0.16687362 -0.051892392
-0.02231649 0.034705155 0.009492975 0.044724096 -0.13650997 -0.057069402 -0.14383218 0.0006850767
-0.00459577 -0.09923984 -0.07247878 -0.07531218 -0.08043187 0.035859592 -0.03145269 -0.053345334
-0.008012584 -0.047940284 0.035391517 -0.02803579 -0.10134521 -0.00273898 0.017657831 0.022868918
-0.02233454 -0.07042136 -0.0077316863 -0.02594243 0.07242893 -0.03630512 0.08587734 0.017362285
0.019921198 -0.041145444 -0.049338 0.030718202 -0.15580334 -0.058798097 -0.04786524 0.04677371
0.13723902 0.0591843 -0.050431587 -0.035640713 -0.03384131 0.04778089 0.0734756 0.0024300998
-0.10763788 0.09024508 -0.067458294 0.09354503 -0.10486818 -0.015619708 -0.05403056 -0.16746783
0.08010144 0.054472487 -0.05359599 -0.11385877 -0.006493252 0.007353458 0.052426714 -0.12567635
0.050828576 -0.048403505 0.062472414 0.07198539 0.003956859 -0.12592427 -0.029284388 0.06837866
-0.006141001 0.007793585 -0.11525791 0.05813002 -0.06263011 0.050783493 -0.10681133 0.089580014
-0.023124948 -0.048325032 0.0016499091 0.05942991 0.10880468 -0.0648397 -0.12581219 -0.1005218
-0.072335064 0.11300356 -0.081994325 -0.033993274 -0.09859519 -0.01469902 0.016188063 -0.0060891714
0.028872836 -0.10201845 0.044198897 0.028857937 0.07821032 -0.06833956 -0.051131178 0.032196596
0.14061406 -0.09306733 0.05502191 -0.043776903 -0.10229877 -0.03652 -0.08400283 0.01352282
0.060429085 0.027370142 -0.15311454 -0.031343393 -0.094389535 0.06354193 -0.054723196 0.05271968
-0.029466305 0.008277102 -0.10348439 -0.08677361 0.014881961 -0.029091991 0.007454985 0.05882735
-0.07698773 -0.083945855 -0.07056981 0.010423285 0.07878987 0.03161312 0.116062544 0.07089468
-0.11264394 0.07705275 -0.1305025 0.035307914 0.0045751515 0.04374743 -0.04531983 0.04929412
-0.07865864 0.0032055276 -0.1372551 0.1026366 0.065487206 -0.17189255 -0.034313634 -0.12500198
-0.12379061 0.014420307 0.07574959 -0.007213929 0.0053588585 -0.0076101613 -0.040341925 -0.028787805
-0.0032237223 0.12617952 0.06556623 0.07931741 0.025796622 0.008289954
00000000: 4b19 87bd a84d 51bd f1ed 9f3c e1c4 1cbd
00000010: a6f2 cabd b091 b0bc 2665 253d 1672 b03c
00000020: 1800 0abe 8f6b e4bd 9828 25be 1448 863b
00000030: ffdd 87bd ae0c 41bd 636c f1bc f3f1 9f3c
00000040: 32ce c33c d6d5 90bc 54c2 3dbe a328 9a3d
00000050: b092 453d 8934 6a3c 9123 4dbc c51d 5f3d
00000060: 00b6 e7bc 6115 c4bc 195a 713c 842f b9bd
00000070: 4ad2 1dbe 2838 283d 7cdd 2cbd fcab 2abd
00000080: 93bb d33c ef16 0abe 79e0 88bd 03e4 043d
00000090: ad70 643d ee9a d2bc ebe0 2abe 1e8d 54bd
000000a0: 12d1 b6bc fe26 0e3d 6c88 1b3c 9d30 373d
000000b0: 45c9 0bbe 9bc1 69bd be48 13be b896 333a
000000c0: 1d98 96bb 423e cbbd c16f 94bd 463d 9abd
000000d0: 77b9 a4bd 82e1 123d 89d4 00bd a380 5abd
000000e0: 3747 03bc 085d 44bd b2f6 103d 50ab e5bc
000000f0: 148e cfbd 7680 33bb 28a7 903c 9957 bb3c
00000100: edf6 b6bc 1339 90bd 165a fdbb 3885 d4bc
00000110: 9e55 943d adb4 14bd 75e0 af3d 5a3b 8e3c
00000120: c831 a33c 2088 28bd a516 4abd bda4 fb3c
00000130: e98a 1fbe 46d6 70bd 580e 44bd ca95 3f3d
00000140: 6388 0c3e 3d6b 723d 5a91 4ebd fffb 11bd
00000150: 2f9d 0abd e5b5 433d 607a 963d 4f42 1f3b
00000160: 4071 dcbd 6ad2 b83d 9327 8abd 8994 bf3d
00000170: 21c5 d6bd cee9 7fbc 264f 5dbd b07c 2bbe
00000180: 390c a43d 8b1e 5f3d 7887 5bbd c92e e9bd
00000190: 58c5 d4bb 47f5 f03b 65bd 563d 4db1 00be
000001a0: a031 503d c142 46bd 13e3 7f3d 136d 933d
000001b0: 8aa8 813b 4bf2 00be d0e5 efbc 1c0a 8c3d
000001c0: 733a c9bb 5461 ff3b 570c ecbd be19 6e3d
000001d0: 3744 80bd 5a02 503d e6bf dabd ba75 b73d
000001e0: 8870 bdbc 78f0 45bd c341 d83a c76c 733d
000001f0: fdd4 de3d adca 84bd e9d4 00be 60de cdbd
00000200: 6824 94bd 696e e73d a4ec a7bd 883c 0bbd
00000210: 46ec c9bd 29d4 70bc d49c 843c ac87 c7bb
00000220: ba86 ec3c 0def d0bd e709 353d 7b67 ec3c
00000230: bb2c a03d 9cf5 8bbd ed6e 51bd 94e0 033d
00000240: 22fd 0f3e 169a bebd a85e 613d 694f 33bd
00000250: 0482 d1bd ff95 15bd ad09 acbd d18e 5d3c
00000260: 7d84 773d 5937 e03c 0fca 1cbe ee61 00bd
00000270: 4d4f c1bd 4522 823d 6e25 60bd 97f0 573d
00000280: 5263 f1bc af9c 073c a0ef d3bd 5db6 b1bd
00000290: 78d3 733c 5452 eebc f248 f43b f3f4 703d
000002a0: beab 9dbd ceeb abbd e886 90bd 6dc6 2a3c
000002b0: 955c a13d c27c 013d 33b2 ed3d 3b31 913d
000002c0: deb1 e6bd d5cd 9d3d 73a2 05be 089f 103d
000002d0: 27eb 953b 8130 333d 49a1 39bd a2e8 493d
000002e0: c817 a1bd d413 523b 9a8c 0cbe 2333 d23d
000002f0: 281e 863d 9a04 30be 748c 0cbd 8500 00be
00000300: ee85 fdbd 2743 6c3c 9a22 9b3d d362 ecbb
00000310: 5d99 af3b a95e f9bb 933d 25bd 67d4 ebbc
00000320: 1645 53bb 3435 013e 9647 863d 2b71 a23d
00000330: 7053 d33c 96d2 073c
