notebooks/checkpoint_epoch_30.pth (torch, 150288 bytes, 8 tensors)

features.0.weight f4 [16, 1, 3, 3]
000000 e9 01 60 3f 04 6a 46 3f 04 52 de 3e 9a bd 0c 3f
       0.87502915 0.77505517 0.43421948 0.5497681
000010 47 90 ee 3e 4c 61 4d 3e 74 a0 6d 3f ba 24 03 3f
       0.4659445 0.20056647 0.9282296 0.51227915
000020 4e 9e 86 3d ce 8d eb be b4 6b 19 3d fc af b5 3e
       0.06573163 -0.46006626 0.03745623 0.35485828
000030 97 76 f5 be 85 fa 01 bd 83 d1 e0 3e 21 e6 be be
       -0.4794204 -0.031733055 0.43909845 -0.3728495
000040 4c f2 94 3e 2f 41 90 3e 3f a1 24 3e 32 fb d0 3e
       0.29091108 0.2817473 0.16077136 0.40816647
000050 7e aa 85 3e 85 61 0f be 25 28 8c be e9 c6 e1 3c
       0.26106638 -0.14002044 -0.27374378 0.027560668
000060 b8 81 ae bd d8 98 23 be 1b 28 8c be 91 dc 8d bd
       -0.08520836 -0.15976274 -0.27374348 -0.06926835
000070 61 55 cd bd c3 15 81 bd 94 08 01 bf b3 81 25 bd
       -0.1002605 -0.06302979 -0.50403714 -0.040406894
000080 15 2b 09 3f ab fa a8 3e d7 59 01 be b7 94 03 3f
       0.5358136 0.33003744 -0.12631927 0.51398796
000090 b6 76 0f bf 98 30 6d be a1 af 0c bf d0 d4 b3 3e
       -0.56040514 -0.23163068 -0.5495549 0.351233
0000a0 58 05 28 3e 0a ea d7 3e 75 29 2b 3e 9e 49 72 3d
       0.16408288 0.42170745 0.16715033 0.059152238
0000b0 35 b9 2a 3e 7d 5f 36 3f b5 08 14 3f 0d e2 56 3e
       0.16672213 0.71239454 0.57825786 0.20984669
0000c0 90 b0 ef 3e 74 c4 4b 3e 09 59 ed 3e 47 50 ce be
       0.46814394 0.1989916 0.4635699 -0.40295622
0000d0 56 56 f2 3d 9b b3 3e be d6 96 02 3f 04 06 54 3f
       0.118328735 -0.18623202 0.5101141 0.8282168
0000e0 1f 0b 06 3f 4f 4c d8 3e 50 c4 1c 3f ad 18 5e 3f
       0.5236072 0.4224572 0.6123705 0.867564
0000f0 5f 29 0b 3f 76 b1 37 3f 8c b0 12 3f 26 f3 d0 3e
       0.5436 0.7175516 0.5730064 0.40810508
000100 cc ea 59 be b6 ca a9 be f2 87 9a 3d 6e 44 d1 3d
       -0.21280974 -0.3316247 0.07545461 0.1021813
000110 e5 a1 d0 be 99 11 77 3d ef 12 eb 3e 08 23 8c be
       -0.40748516 0.060319517 0.45912883 -0.27370477
000120 cd 7e 76 be 15 fa 72 3e ab c4 ed bc 23 69 e0 bc
       -0.24071808 0.23728211 -0.029024443 -0.027393883
000130 35 5c 94 bb c6 3d ba 3d 89 03 8f 3e 43 05 bb be
       -0.0045275935 0.090938136 0.27932385 -0.36527452
000140 da d8 10 bd 06 5d e2 3e e1 d1 51 be f6 5b 95 be
       -0.035363056 0.44211596 -0.20490219 -0.29171723
000150 40 51 da 3e c1 75 db bd 90 46 c7 be fd 56 91 3e
       0.42640114 -0.10715819 -0.38921022 0.2838668
000160 9c 90 65 3e b9 12 b1 be 5e ee c9 3e 65 69 37 3e
       0.22418445 -0.34584597 0.39439672 0.17911299
000170 33 c4 11 be 15 2b f2 3e 20 f0 0c 3f 44 df 7a bd
       -0.14235 0.47298494 0.550539 -0.06124808
000180 66 10 39 3f 0e da f6 3d b7 7d 03 3d 67 c2 04 3e
       0.7229065 0.120533094 0.032102313 0.12964784
000190 ba 42 43 be 48 dd 19 3e af ad 19 3e d6 d4 6a be
       -0.19068423 0.15025818 0.15007661 -0.22932753
0001a0 e1 71 8d 3d e8 aa d6 3c 2e 8f c1 bc cf 4c 6a be
       0.06906486 0.026204541 -0.023627844 -0.22880863
0001b0 92 cd dc be 17 c0 1a bf 3d 6a 0b bf bf f4 0f be
       -0.43125588 -0.60449356 -0.5445898 -0.14058207
0001c0 63 d2 b1 be 49 d1 92 be 97 06 2e bd 64 df 9a be
       -0.34730825 -0.28675297 -0.042486753 -0.3024856
0001d0 b6 92 c1 be 0d f5 f0 be 12 47 16 3f d3 91 97 3d
       -0.37807244 -0.4706196 0.58702195 0.07400861
0001e0 e4 46 48 3d 02 0a fe 3d 54 d9 a6 bc ab 81 86 3e
       0.04889573 0.124042526 -0.020367302 0.26270804
0001f0 4a 23 f8 be 02 41 19 bd 61 7e 93 3d d2 33 88 be
       -0.48464423 -0.037415512 0.07201839 -0.26602036
000200 cd a9 77 3d 4b dc 5e 3e 56 5b f5 be 47 dd 8d 3e
       0.06046467 0.21763723 -0.47921246 0.27707884
000210 85 a9 b3 3e da 33 14 bf 99 a2 d3 3e c5 7e e9 3e
       0.3509027 -0.5789162 0.4133499 0.4560453
000220 50 aa d6 3e 93 ba ef 3e 99 4c 7c 3d 2d 23 ab be
       0.41926813 0.46822032 0.061596487 -0.33425274
000230 8e c5 c3 be a5 aa 36 be 84 bf 9d be 28 d5 e9 be
       -0.3823666 -0.17838533 -0.30810177 -0.45670438

features.0.bias f4 [16]
000000 bd dc c6 3d 34 c5 3e bd 9b cf 0e 3f 21 46 07 be
       0.09710071 -0.046574786 0.5578553 -0.13210346
000010 a8 0f 4a 3e ab 9e 91 be c7 90 9b bd fc f8 e6 3e
       0.19732535 -0.28441367 -0.075959735 0.45111835
000020 79 d5 94 3e 4c b7 2c 3d 1c 46 a1 3b 7c cd 21 3f
       0.29069117 0.042166993 0.0049216878 0.6320417
000030 1a 92 74 be b0 e2 4a bd 35 ac 31 bc f9 04 87 be
       -0.23883858 -0.049532592 -0.01084428 -0.2637098

features.3.weight f4 [32, 16, 3, 3]
000000 13 92 ac 3d 7e 57 cf 3d 80 00 d7 3c c8 3c 3d 3d
       0.08426299 0.1012411 0.026245356 0.046200544
000010 1f a6 ad 3d db 44 e2 3d ae 04 de 3d 9d c8 a7 3d
       0.08478951 0.110482894 0.10840736 0.08192561
000020 a9 d6 31 3d aa 8e 7d be 6b 40 db bd a1 09 4d be
       0.043417607 -0.24761453 -0.10705646 -0.20023204
000030 ae b4 c2 be 76 d0 c1 be 88 27 f4 be f8 76 97 be
       -0.38028473 -0.37854356 -0.4768641 -0.29582953
000040 a0 2f f6 be 93 e8 a2 be 1e 1f ed 3d 8b 19 5e 3d
       -0.4808321 -0.31818065 0.11578201 0.05422358
000050 da a0 a2 3d f7 87 14 3e b2 ed 36 3e f4 c6 7c 3d
       0.07940836 0.14504991 0.17864111 0.061713174
000060 6d 2b 22 3a bb a6 0e 3e 8f e2 0c 3e 2d 3e 62 3d
       0.00061862805 0.1393079 0.137583 0.055235077
000070 be 3b d6 3d 06 e9 26 3e 30 85 17 bc 4a 47 dd bd
       0.10460614 0.16299829 -0.009248063 -0.10804613
000080 87 58 fe bc 7b 03 07 be 2f 3c e4 bd 1c 9d 37 3b
       -0.031048073 -0.13184921 -0.111442916 0.0028017228
000090 64 f6 cc 3e c8 d4 87 3e 2b d2 a8 3e 20 bf 72 3e
       0.4003173 0.26529527 0.32972845 0.23705721
0000a0 e2 89 a2 3d 54 ef 38 3d 7b 1e 85 bc 62 cc 37 bd
       0.07936455 0.045150116 -0.016249886 -0.04487265
0000b0 66 cc 82 3d 8b b0 a6 bc 7d 2e ce ba 00 83 7a 3d
       0.06386642 -0.020347854 -0.0015730407 0.061160088
0000c0 4a 66 2b 3e 83 54 05 3e 68 a4 86 3d 81 d5 c3 3d
       0.16738239 0.1302052 0.06574327 0.09562207
0000d0 90 76 9a 3d 56 0a af 3d 23 45 5c 3d c2 9c df 3d
       0.07542145 0.08546893 0.05377687 0.10918571
0000e0 55 52 25 3e a3 60 8f 3d 3b c9 e4 3d 72 7a ea ba
       0.16144688 0.07000854 0.11171194 -0.0017889275
0000f0 1f bf aa bc 69 3d 2f bd c9 03 f5 bc f6 a7 48 be
       -0.020843087 -0.042783175 -0.029909031 -0.19595322
000100 18 a2 59 be a3 fe 23 be d4 f6 8c be 1a 46 58 be
       -0.2125324 -0.16015105 -0.27532065 -0.21120492
000110 6e 7e 42 be 92 45 47 be e3 b5 c6 bd df f1 a8 bd
       -0.18993542 -0.19460133 -0.09702661 -0.08249258
000120 da fd 3c 3d b9 b5 ae bb 8e d4 f0 3b b1 ff 6e 3c
       0.04614053 -0.0053317216 0.0073495572 0.014587329
000130 cb 7a 23 3d 60 c9 f7 3c 93 a6 d6 3d d2 2e 9d 3d
       0.039912026 0.03024739 0.1048099 0.07674946
000140 8e 2d ab 3c c0 cd c0 be b9 52 c1 be 01 24 09 be
       0.020895746 -0.37656975 -0.37758425 -0.1339264
000150 f9 71 f0 be 01 41 c0 be e0 53 0d be 65 05 97 be
       -0.46961954 -0.37549594 -0.13801527 -0.29496303
000160 e9 96 60 be e3 f3 5c be 80 5d 36 3d c9 37 0f bb
       -0.21932568 -0.2157741 0.044522762 -0.002185332
000170 21 d7 c8 3c f3 1f c1 3d 39 a9 b0 3d c6 f9 ab 3d
       0.024516644 0.09429922 0.08626027 0.0839725
000180 f1 4b 5c bd 9f 04 18 bd 79 1c bb bd cd 68 a3 3d
       -0.05378336 -0.037113782 -0.0913629 0.079789735
000190 64 72 e3 bc 09 84 dd bb 4c 17 7d bd ed 05 be bd
       -0.027764507 -0.0067601246 -0.061789796 -0.09278474
0001a0 ce 42 9c bc 45 b9 ab 3d 22 a2 64 3c 1c 10 27 3d
       -0.019074824 0.08384947 0.013954671 0.040786847
0001b0 72 a3 c9 3e ff eb 77 3e 96 68 1d 3d e3 61 7f bd
       0.3938251 0.24211119 0.03842982 -0.06234921
0001c0 a0 0c a0 be 57 d4 af be c5 d7 38 bc cf 39 04 3c
       -0.31259632 -0.3434169 -0.011281912 0.008070423
0001d0 5b aa 6c bd bf a2 51 bd bd 7b 1d 3d c9 8d 41 3e
       -0.05777965 -0.051180597 0.038448084 0.18901743
0001e0 be da 13 3d f6 f7 4a 3d ab bd 14 3e 39 fd 87 bd
       0.03609728 0.04955288 0.14525478 -0.06640095
0001f0 97 02 b2 3c ed f9 55 39 d5 b4 47 be 78 26 0c be
       0.02172975 0.00020406368 -0.19502576 -0.1368655
000200 70 39 14 bd 0e ba 6c be f2 08 a6 be 36 f1 6c be
       -0.03618759 -0.23117849 -0.324287 -0.2313889
000210 ba 1a 86 be 64 23 32 be e5 ae 52 be 3c a8 5e bd
       -0.26192266 -0.17396313 -0.2057453 -0.05435966
000220 df ae a7 bd f7 06 21 be 2e a6 e1 3c 74 e4 0a bd
       -0.08187651 -0.15725313 0.027545061 -0.033909276
000230 5b 9c ad bc 84 f6 7b bd 5d ef 1b be 89 e5 d3 bd
       -0.02119272 -0.061514392 -0.15228029 -0.10346515
000240 40 f3 6a 3e 48 51 ec 3d eb 6a f9 bd 0d 2e 0b 3e
       0.22944355 0.11538941 -0.12178596 0.13591786
000250 d5 53 c7 3d 73 e8 c1 bd 33 25 0c 3e b2 30 c8 3c
       0.097327866 -0.09468164 0.13686065 0.024437282
000260 35 7d 76 bc 18 03 46 bd 6e 31 2b bf 78 43 ef be
       -0.0150445 -0.048342794 -0.668723 -0.46731162
000270 d8 65 72 bd 19 5e 3d bf 15 40 f2 be 78 a9 36 3e
       -0.059179157 -0.73971707 -0.47314516 0.17838085
000280 fc 89 fb be 6a 78 9a be 15 56 5f bd f8 de 3e 3d
       -0.4912871 -0.30169994 -0.054525454 0.04659936
000290 13 9a 13 3e 39 a2 88 3d 78 c9 57 3c 0a 85 d0 3d
       0.14414243 0.066715665 0.0131705925 0.10181625
0002a0 2c 6a 25 bc 54 07 6e 3c 9a cf 26 3d c9 18 d4 bd
       -0.010096114 0.014528114 0.040725328 -0.1035629
0002b0 4a e8 bf be dc 1b e5 be ba da 0b bd ea 28 a6 be
       -0.3748191 -0.44747818 -0.03414414 -0.3245309
0002c0 5d c0 db be 70 62 9c bc ec 24 78 be 50 54 9c be
       -0.429202 -0.019089907 -0.24232835 -0.30533075
0002d0 55 49 04 bc 39 dd 0e be 69 a7 ee 3b 3b cd 83 bd
       -0.008074124 -0.13951577 0.0072831404 -0.06435629
0002e0 91 4c c3 bd d1 d3 b4 bc 2b fb 9e bd bb 04 9d 3d
       -0.09536088 -0.022073658 -0.0776275 0.07666918
0002f0 38 8f 0f bd 84 47 15 3e 04 6d 03 bd f4 22 2a be
       -0.035048693 0.14578062 -0.032086387 -0.16614896
000300 ed 5c e6 3d 83 66 68 3d a9 62 84 be 0f 95 42 3e
       0.11248193 0.056738388 -0.25856522 0.19002174
000310 55 58 ec bc 03 7d d8 bd da c7 38 3e a2 e9 5c bd
       -0.028850714 -0.10570719 0.18044987 -0.053933747
000320 28 4e 49 be 87 d1 55 3e 84 6d 0f 3d da a4 7c be
       -0.1965872 0.2088071 0.03501655 -0.24672261
000330 aa 6b 42 3e 1a 2a 34 3d 4f 50 2c be 1b ae e1 3d
       0.18986383 0.043985464 -0.1682751 0.11019536
000340 8b d3 f0 bc cb 40 d4 3b 36 33 ee 3d 8b ed 59 bd
       -0.029397747 0.0064774505 0.116308615 -0.053205054
000350 c7 6d 53 bc 80 ef 90 3d b6 77 2b 3d a2 29 a7 3c
       -0.012904591 0.07076931 0.041862212 0.020405594
000360 1d ed 63 3c 36 39 a4 ba 58 0e 19 bd 5c de 2a bd
       0.013911513 -0.0012529257 -0.037367195 -0.041715965
000370 1d bc 70 bd 50 d7 2a bd ca 2d 18 3d 31 66 55 bd
       -0.05877315 -0.041709244 0.037153043 -0.05209941
000380 a8 54 00 bd 8b d6 a1 3e ef 22 b6 3d ce 32 9f bd
       -0.031330734 0.31608996 0.08893382 -0.07773362
000390 f2 16 a0 3e 02 dc bf 3d 93 dd 8f bc d8 10 9a 3e
       0.31267506 0.09368135 -0.01756171 0.30090976
0003a0 fa 43 24 3e 3a 61 80 3d e8 d0 63 3e cc af 10 bd
       0.16041556 0.062685445 0.2224766 -0.035323903
0003b0 82 5a 13 be 99 c8 32 3e f4 f7 1a bc ac 56 32 be
       -0.14389995 0.17459334 -0.009458531 -0.17415875
0003c0 3f 34 32 3e 62 7e 68 3c dd 05 87 bd 91 7a 9c 3d
       0.17402743 0.014190288 -0.06592915 0.07640565
0003d0 fd 77 a2 3d 53 98 2e 3d 1f 02 91 3d e6 26 88 3d
       0.07933042 0.042625736 0.07080483 0.06648044
0003e0 c1 8d df bc e0 f8 69 3b c6 ce cb 3c e8 ce 21 bd
       -0.027289273 0.003570132 0.02487887 -0.03950396
0003f0 e2 c5 42 bd fe 98 0a bd d0 06 f7 3d 18 da e2 bc
       -0.047551997 -0.03383731 0.12061846 -0.027691886

features.3.bias f4 [32]
000000 de f9 ab 3d 27 ae 9e 3d 30 9f f3 3d 1c 40 11 3d
       0.08397268 0.07748061 0.11895597 0.03546153
000010 87 b7 6a 3d 32 79 bb bc 51 8d 2e be ba 7a 19 3d
       0.05730393 -0.022884939 -0.17046095 0.037470557
000020 b2 6c 06 3e 50 d9 b1 3d b7 00 f4 bd e7 2f 3c 3d
       0.13127401 0.08684027 -0.11914199 0.04594412
000030 13 2e b5 3d df 45 29 3d 04 22 29 3d 70 79 3e bb
       0.088466786 0.0413264 0.041292205 -0.0029064082
000040 52 c9 c0 3c a2 fd 42 bd 40 70 41 3e 9a 01 33 bd
       0.023533497 -0.047605164 0.18890476 -0.0437027
000050 c1 b4 1e 3e f6 e7 d4 bb a6 0d 45 bd f3 e2 96 3d
       0.1549864 -0.0064973785 -0.04810872 0.07367506
000060 84 a3 c0 3d 4f 47 6f be c8 08 80 3e b6 e3 14 3e
       0.09406188 -0.23367046 0.250067 0.1453999
000070 35 17 53 be c7 78 39 3c 73 ee e3 bd 4d 6a 3e bd
       -0.20614322 0.0113202995 -0.11129465 -0.046488095

features.6.weight f4 [64, 32, 3, 3]
000000 ca 7e 11 bd 9d 15 8c 3c b7 ef 36 3c 4f f5 2d 3d
       -0.035521306 0.01710015 0.011165551 0.042470273
000010 dc 9c ad 3d 4b bf 8e 3d ec 7a 76 3d c5 8b e6 3d
       0.08477184 0.0697008 0.06017582 0.11257128
000020 a6 4b 55 3d 22 75 90 be 9d c7 66 be 30 ad 5e be
       0.052074097 -0.28214365 -0.22537084 -0.21745753
000030 c6 06 c5 bd 19 0a e8 bd ca 85 ce bc 3a 8c 51 3d
       -0.096204326 -0.11330051 -0.02521028 0.05115912
000040 bd 58 c5 3d 5c 48 07 3e e5 bf 92 be 0c 48 b3 be
       0.09636066 0.13211197 -0.2866203 -0.35015905
000050 f6 47 9a be b1 19 84 bd ec cf 6e bd ca d7 9b bd
       -0.30133027 -0.06450213 -0.05830376 -0.07609518
000060 43 54 52 3d f5 45 18 3d a4 c0 4c 3e 95 10 87 be
       0.05134989 0.03717609 0.19995362 -0.2637984
000070 48 74 3a be 07 47 27 be 50 13 dd bd 2a c1 49 bd
       -0.1820842 -0.16335689 -0.10794699 -0.04925648
000080 e6 60 eb bc f5 23 63 bd 00 e6 94 3b 37 2b 53 3d
       -0.028732728 -0.055454213 0.0045440197 0.051554885
000090 9b 68 8a bc 9c c8 28 bd 39 a8 c8 bd c2 9d 0b 3d
       -0.016895583 -0.04120694 -0.09797711 0.034085996
0000a0 2b 2a 45 3d 9e 99 f6 3c af 21 5c 3d a6 d8 82 3d
       0.048135918 0.030102547 0.05374306 0.06388979
0000b0 f2 27 33 3d d6 6f 12 be cb 99 0e be e4 65 e4 bd
       0.043739267 -0.14300475 -0.13925855 -0.111522466
0000c0 05 84 95 bd 7a 94 c7 bc 33 9c 84 3c c6 bd 2e 3d
       -0.07300571 -0.024362791 0.016187763 0.04266145
0000d0 23 3c 85 3d bf 77 53 3d bc a8 84 3d 84 bb 93 3d
       0.06505611 0.05162787 0.06477496 0.072135
0000e0 ec 36 f5 3d 60 09 14 3d f0 c5 5a 3d 4e 34 62 3e
       0.11973366 0.036141753 0.053411424 0.22090265
0000f0 d7 3d 0c 3e 0d 62 2d 3d 60 e4 49 3e a6 d1 99 bd
       0.13695465 0.042329837 0.19716024 -0.075106904
000100 b6 b6 44 bd f7 54 8c bd 98 4e 37 bd 99 f8 fd bd
       -0.04802581 -0.06852143 -0.044752687 -0.12400932
000110 25 4e 32 bd 10 b7 cb bd d0 a4 c1 bd f3 3d f7 bd
       -0.043531556 -0.09947026 -0.094552636 -0.12072363
000120 06 58 17 bd 18 62 72 bc 9e e1 e4 bb 6e 29 34 bd
       -0.03694918 -0.014793895 -0.0069849035 -0.043984823
000130 a0 5e 94 3c 52 2f 0a 3d a8 18 ac 3d b6 b8 8a ba
       0.018111527 0.033736534 0.0840314 -0.0010583613
000140 ad af ab 3b e3 3b e7 bb f1 2d 1a bc 87 53 b7 bc
       0.005239448 -0.0070566996 -0.009410367 -0.022378696
000150 92 53 6b 3b f7 37 ff 3c 83 6d 98 3c 45 34 d1 ba
       0.0035907966 0.031154616 0.018606907 -0.0015961012
000160 9d 14 34 3d fd e6 c8 bc 65 28 77 3d 6c a1 81 3c
       0.04396497 -0.024524206 0.060341258 0.015824042
000170 ea 64 d2 3d a8 01 0c 3e a6 d1 93 3d 67 df fa 3d
       0.10273154 0.13672507 0.07217722 0.12249642
000180 87 ff 15 3d 77 7c a1 3d 51 de 09 3e 09 eb 2b 3e
       0.036620643 0.07885068 0.13463713 0.16788878
000190 8b 03 2f 3e 3b b0 1a 3e 74 71 3a 3e 87 56 0a 3e
       0.17091195 0.15106289 0.18207341 0.1350957
0001a0 7b 2c 1b 3e e0 f0 e0 3d 4d 4a 04 3e a9 09 ae 3d
       0.15153687 0.10983443 0.12918968 0.08497936
0001b0 98 10 0c 3d 60 ae 03 bd 7c 46 65 bd 77 58 9a bd
       0.034195513 -0.03214872 -0.055975422 -0.075364046
0001c0 2c fb 26 be 1c dc 18 be b3 48 38 be 42 27 1b be
       -0.16306752 -0.14927715 -0.17996483 -0.15151694
0001d0 19 3b 04 be 99 92 de be c7 a3 ec be 35 2e a7 be
       -0.12913169 -0.4347122 -0.46218702 -0.3265244
0001e0 96 bb aa bd 21 c5 02 be a4 fe 26 be 98 b5 60 3d
       -0.083365604 -0.12770511 -0.16308075 0.05486068
0001f0 14 82 b4 3d db ba 07 3e 1b a6 6a 3d 1d 2d 75 bc
       0.08813873 0.13254873 0.057287317 -0.014964369
000200 64 85 cf 3d 0a 43 5c 3c 73 68 44 3d f6 04 62 3d
       0.10132864 0.013443718 0.047951173 0.055180512
000210 86 19 32 bd b9 2c 50 3b 5e 11 9c bb 7a b9 2a 3d
       -0.043481372 0.0031764938 -0.0047628125 0.04168079
000220 ea a7 5b bd 7d 7f b0 bd eb c8 09 3c 10 ff 9e bd
       -0.053626932 -0.086180665 0.008409719 -0.07763493
000230 6b 43 18 bd b2 b4 e8 b9 31 7a 48 3c f9 35 c1 bb
       -0.03717367 -0.00044385117 0.012236164 -0.0058963266
000240 5f 5c b1 be 6b ab 9a be 0d ac 98 be 8d ca f9 bd
       -0.34640786 -0.30208907 -0.29818764 -0.121968366
000250 c4 af 6b bd f2 44 d0 bd 97 25 9b bd d3 0f 75 bd
       -0.05754067 -0.101694 -0.07575529 -0.059829544
000260 00 f4 2c 3d 03 74 6d 3e 7c 7d 34 3e dd 4e 72 3e
       0.042224884 0.23188786 0.17625993 0.23662896
000270 f7 64 59 3e bf a0 47 3e c5 df 5f 3e fc ba 69 3e
       0.21229921 0.19494914 0.21862705 0.22825235
000280 15 04 db 3d fa 2b 69 3e 51 83 30 3d 1c a2 47 3d
       0.10694138 0.22770682 0.043093983 0.048738584
000290 91 23 4e bd 48 c0 b8 3c 32 0c ee bc de 1a 9b 3d
       -0.050326888 0.022552624 -0.02905855 0.07573484
0002a0 44 42 a8 ba ae bf a9 bb e5 e5 11 3d e5 71 b0 bb
       -0.0012837132 -0.0051803207 0.035619635 -0.005384671
0002b0 fd 66 ab bd 7f 3e 47 3d 21 df b0 bc 77 7b af 3c
       -0.08369253 0.048643585 -0.021590771 0.021421177
0002c0 c3 7e 9a 3d f6 d7 11 3b b3 b2 8c 3d 2a fc 62 3d
       0.07543709 0.0022253967 0.06870022 0.055416264
0002d0 fb d8 06 bd 87 85 73 bd cc 65 04 3c 0f 81 08 3c
       -0.032921772 -0.059453513 0.008080911 0.008331551
0002e0 a7 1a ba bc 07 90 40 bd a1 9b 4a 3d 54 e5 5e bd
       -0.022717787 -0.047012355 0.049464826 -0.054417923
0002f0 16 28 59 3d b5 7d 3f 3d 16 07 0f bc c5 52 75 3d
       0.053016745 0.046750743 -0.008729717 0.05989339
000300 f7 ed b3 3d db 01 84 3c 75 34 15 3e 6b 26 2d bc
       0.087856226 0.016114166 0.14570792 -0.010568242
000310 d6 09 39 3d 2b 94 53 3d ba bb 17 bf f9 3e ff be
       0.045175396 0.051654976 -0.59270823 -0.49852732
000320 58 69 ab be d3 4e 87 be 2b f1 74 be cb 30 87 bd
       -0.33478808 -0.26427326 -0.23920123 -0.066011034
000330 90 8f ab bd 14 4a e4 bb 78 e4 c8 3d 99 84 9e be
       -0.08376992 -0.0069668386 0.09809202 -0.3096054
000340 a3 ca be be 56 dc 9e be de 76 7d be 1e 14 ef bd
       -0.37263975 -0.31027478 -0.24752375 -0.11673759
000350 30 33 2b bd 81 22 cc 3b 29 be 8b 3d b5 88 29 3e
       -0.041796863 0.006229699 0.068233795 0.16556056
000360 e3 bc 80 3d f8 06 01 bc e7 91 eb bc 64 fc b0 3b
       0.06286027 -0.007875197 -0.028756095 0.005401181
000370 ab 0a 65 bd 44 99 d4 bd 31 60 ee bd e4 b1 1a be
       -0.055918377 -0.103807956 -0.11639441 -0.15106922
000380 5e a2 82 bd fe 57 2d bd 9f 2c 00 bd fc 44 53 bc
       -0.06378625 -0.042320244 -0.031292554 -0.012894865
000390 54 5b 58 3c ab 94 4d 3c 87 d7 68 3d 85 79 cf 3b
       0.013205368 0.012547652 0.056846168 0.006331625
0003a0 c4 e7 ed 3d 15 45 07 3e 8f 3d 29 3d 60 c1 1c 3d
       0.116164714 0.13209946 0.041318472 0.038270354
0003b0 2c 9d 2c 3e b3 c9 81 3d 3f 4a ba 3c 51 6b cf 3d
       0.16856831 0.06337299 0.022740481 0.10127891
0003c0 28 df b1 bc 6f cc 00 be c9 ce cb 39 d3 23 2b bc
       -0.021712855 -0.12577985 0.00038873244 -0.010445553
0003d0 21 ba 74 3d 01 22 95 3d a5 7b 0e bb 81 1d c0 3d
       0.05974782 0.07281876 -0.0021741178 0.093806274
0003e0 ac ea f2 3c 10 5a b5 3d fd bb aa 3d 80 ad f7 3d
       0.029652916 0.08855069 0.08336637 0.120936394
0003f0 eb a0 80 bd 28 9c 91 bd 5d 91 2b bd bc d8 5c 3c
       -0.06280693 -0.071098626 -0.041886676 0.013479408

features.6.bias f4 [64]
000000 a5 56 64 3d 5d f1 2f 3d 04 0a b7 bd 97 49 b0 bd
       0.055746693 0.04295479 -0.08937457 -0.08607786
000010 77 ff 5f bd 1e 2b 22 3c 80 07 b6 bc 25 7a cd bc
       -0.05468699 0.009897975 -0.022220373 -0.025082657
000020 f4 a0 f9 bc 66 9d 68 bc b3 da 9f bd fa ee 60 be
       -0.030472256 -0.014197683 -0.078053854 -0.21966162
000030 37 9a 06 bc d6 7c 1d 3d 32 c7 2f bd 1f ce 85 bd
       -0.008215479 0.03844913 -0.042914577 -0.06533455
000040 68 b3 86 3d 79 26 0a be 5f c2 9c 3d 5b df 1f 3e
       0.06577188 -0.13491239 0.07654261 0.15612547
000050 f0 68 09 be b0 58 4c 3d bb 77 01 be 8c 28 bc bc
       -0.13418937 0.049889266 -0.1264333 -0.022968553
000060 93 33 96 3d 8f ac 23 3b 36 96 1a 3e ea f5 3e bb
       0.07334056 0.002497468 0.15096363 -0.0029138275
000070 db c7 e6 bb 1a de 55 3c ed d8 ca 38 5b 55 10 be
       -0.0070428676 0.013053441 9.672516e-05 -0.1409506
000080 a9 6b 03 3c 93 c8 d4 3c 3b 5f a0 3d 2c 59 31 bd
       0.008021274 0.025974547 0.07830664 -0.04329793
000090 82 84 9e bd 11 43 12 3c da e4 0a bd d8 87 b9 bc
       -0.077401176 0.008927123 -0.033909656 -0.022647783
0000a0 f8 1b d6 3c 17 8c 60 bc 70 3b 11 bd 46 95 04 3d
       0.026136383 -0.013705275 -0.035457075 0.03236892
0000b0 10 9c 2a bd 15 da a9 3c 12 a2 a8 bc 49 d9 53 bd
       -0.04165274 0.020733872 -0.020585094 -0.05172089
0000c0 42 39 ef bd 9d b9 8f bd ee cf c5 bd 43 f5 52 be
       -0.11680843 -0.07017825 -0.096588 -0.20601372
0000d0 74 54 87 bc b4 20 94 bd fc 83 2f be a1 d4 d0 3d
       -0.016519763 -0.072328 -0.17140192 0.10196806
0000e0 77 d9 84 3d 5c 09 52 3d d3 09 f5 bc 69 96 48 bd
       0.064867906 0.051278457 -0.029911911 -0.048971567
0000f0 73 3e 2f 3d 39 54 ed 3b ff dd 74 3d 95 81 3e be
       0.042784166 0.007242706 0.059782024 -0.18604119

classifier.weight f4 [206, 64]
000000 38 ca 80 3d 1d c9 ad 3d 04 a8 1a be 08 da 16 bf
       0.0628857 0.08485625 -0.15103155 -0.5892644
000010 29 fb fd bc da 84 2a be 8e da d3 3d 43 6f 55 3e
       -0.031003552 -0.16652241 0.103444204 0.20843224
000020 95 ca 1f 3e 3c 29 af bf 64 68 8a bc 50 bb a3 bd
       0.15604623 -1.3684459 -0.01689548 -0.079947114
000030 7b 52 a6 be 25 ce 5f bf 71 b6 13 3d 8f b9 51 be
       -0.32484803 -0.87423927 0.03606266 -0.20480941
000040 1a 97 4d be 40 cd e4 bd 6f 2c 9b 3d 79 56 b0 3d
       -0.20077172 -0.11171961 0.075768344 0.08610243
000050 e3 e1 27 be c4 a4 38 be 0f 9f 2a 3e 3b de 8d bd
       -0.16394763 -0.18031603 0.16662239 -0.06927153
000060 f5 99 97 bc c7 32 8c bd 38 12 a5 3c f4 1b eb 3d
       -0.01850603 -0.068456225 0.020150289 0.11479941
000070 25 ca 14 3e b2 01 cd bc 73 30 b0 3d e9 2d f5 bf
       0.14530237 -0.025025222 0.08602991 -1.9154636
000080 1c 92 93 3d 27 94 b2 be 67 24 04 bf b8 dc e8 bd
       0.072056025 -0.34878656 -0.51618046 -0.11370224
000090 31 2f 12 bf 98 a6 ae 3b 17 b1 1f bf 79 8a a8 39
       -0.5710326 0.005329918 -0.6237959 0.00032146627
0000a0 d3 21 b1 3b 63 2c 91 be 07 dd 58 bc 5f 4f 48 bd
       0.0054056435 -0.28354177 -0.013236291 -0.04890382
0000b0 13 4a 52 be ab 40 34 bd 07 5c d1 3d 5d 21 31 bd
       -0.2053607 -0.044006985 0.10222631 -0.04324471
0000c0 50 36 74 bf 28 30 43 3d 4e 7a 11 bf e4 76 83 be
       -0.95395374 0.047653347 -0.5682725 -0.25676644
0000d0 8b 06 b0 3d 73 9c 86 be 7c db 12 bd aa 90 3d 3d
       0.08594998 -0.26291236 -0.035853848 0.04628054
0000e0 a4 e6 f3 3d e3 a6 6c 3d d9 c9 06 bf 1a 16 51 be
       0.119092256 0.057776343 -0.52651745 -0.20418587
0000f0 ee a2 78 bd b6 55 1c 3e 51 53 14 3e a8 35 33 bd
       -0.060702257 0.15267071 0.14484908 -0.043752342
000100 df 18 6c 3d 91 17 2a bc ce b8 ab be 05 a7 b7 be
       0.057640906 -0.010381595 -0.33539432 -0.35869613
000110 92 39 ac 3d 76 fb 81 be da 65 95 bc aa a2 52 3e
       0.08409418 -0.25387162 -0.018237043 0.20569864
000120 97 14 b8 3c 24 b6 95 bf bc 27 c2 3c 79 df 20 3e
       0.022470756 -1.169621 0.023700587 0.15710248
000130 45 8d c7 3c 57 89 2d bf 20 ca 48 bd d7 54 b3 3c
       0.024359355 -0.6778769 -0.049020886 0.02189104
000140 e9 57 35 be f3 96 7a bd 85 ec d9 bc f5 cb 88 3d
       -0.17709316 -0.061179113 -0.02660204 0.06679527
000150 38 38 3f 3e ab 81 46 be 88 6a 99 3d 5c 3f 1a 3e
       0.1867379 -0.19385402 0.07491022 0.15063232
000160 30 e2 9e bd bd e7 e5 bd 13 50 0c 3e e2 ef d2 bd
       -0.077579856 -0.11225841 0.13702421 -0.1029966
000170 61 9c 8e bc 36 03 ab bd e3 ad 0e 3d d9 96 90 bf
       -0.017408552 -0.08350222 0.0348338 -1.1296035
000180 10 dc 53 3e 40 2b 33 bf 64 38 8d be 03 58 15 3e
       0.20689416 -0.6998787 -0.27582085 0.14584355
000190 51 b3 f7 3b f9 73 91 3d b0 41 3e bf fe 04 c7 3c
       0.007559218 0.07102198 -0.7431898 0.024294373
0001a0 7e 67 9c 3d 79 4c 42 be 67 c9 e1 3d 73 55 52 bd
       0.07636927 -0.18974485 0.110247426 -0.051351022
0001b0 12 85 16 be 19 eb af bc 76 e1 54 3d fe e5 65 be
       -0.146992 -0.021474408 0.05197283 -0.22451016
0001c0 49 fa b3 bf 9e 4f 51 3e e8 05 5f be ce 9a b6 bd
       -1.4060756 0.20440528 -0.21779597 -0.089162454
0001d0 7a 48 ee 3d 2a 61 d4 be a5 b0 02 3e 5b af 09 3e
       0.116349176 -0.4148038 0.12762697 0.13445799
0001e0 c4 9d 93 bd 19 ce e9 bc a3 70 54 bf 63 2b d9 bd
       -0.07207826 -0.028540658 -0.8298437 -0.106039785
0001f0 54 27 3a bb aa 2f 62 3d 21 e6 30 3e 95 97 7c 3d
       -0.002840479 0.055221237 0.17275287 0.061667997
000200 3d 10 1b bc 99 ed cf 3d 6d 95 62 bd c0 b4 d7 bf
       -0.009464321 0.1015274 -0.055318285 -1.6852036
000210 aa ed 4b 3d ce a0 c7 3d 0d 57 38 bd 13 d4 bd bd
       0.0497872 0.09747468 -0.045004893 -0.092689656
000220 24 b0 05 3e dd ec e9 be 3e 5f 38 bd 81 f6 43 be
       0.13055474 -0.45688525 -0.045012705 -0.19137003
000230 9d 06 52 be 1d af 64 be e4 ef fd bd 03 a7 8c be
       -0.20510335 -0.22332425 -0.12399271 -0.2747117
000240 de cc b1 be 70 cb f3 bd 88 03 dc bd ae 24 57 be
       -0.34726614 -0.11904037 -0.10742861 -0.21010086
000250 2b 14 d7 bd 13 0d 5c bd 4d e7 ac 3d 5c 98 09 be
       -0.105018936 -0.053723406 0.084425546 -0.13437027
000260 41 67 2e 3d 85 ee c3 3c e9 59 f6 3d 50 41 85 3d
       0.04257894 0.023917446 0.12028868 0.06506598
000270 55 8c 50 3d 4a ff 5f bc 31 61 93 3c 27 9f 44 bf
       0.05091508 -0.0136717055 0.01799068 -0.7680535
000280 7f 29 da bc 13 45 7d be cd db 98 bf 90 8e b3 3c
       -0.026631115 -0.24733381 -1.1942078 0.021918565
000290 25 d0 74 be 47 c3 36 3b 45 27 d7 be c1 27 94 be
       -0.23907526 0.002788739 -0.42022148 -0.2893658
0002a0 cf e5 bb 3d a3 3e c3 bc d8 43 a6 ba 5e 3a 02 be
       0.09174692 -0.023833578 -0.0012685014 -0.12717578
0002b0 cb c1 96 3d 10 b2 46 bc 9b a7 ab 3b 22 f5 b7 be
       0.07361182 -0.012127414 0.005238486 -0.3592921
0002c0 c3 a2 71 bf 87 88 6c be 0a b4 a3 be 1b c8 37 bf
       -0.9438898 -0.23098956 -0.31973296 -0.7178971
0002d0 c8 8e e6 bd 77 da 3e bd 70 d3 b8 bd 53 9e 4c bc
       -0.11257702 -0.046595063 -0.090247035 -0.012488919
0002e0 c2 46 bb bc 9d 62 ce bd 9b 46 08 bf 87 f9 92 bd
       -0.022860888 -0.10077403 -0.53232735 -0.071765
0002f0 f2 a7 92 bd f3 7b f1 3b 73 e3 77 3d 46 ed 9c bd
       -0.07160939 0.007369512 0.060519647 -0.07662444
000300 47 7f 79 3d 18 f1 1c bd 01 19 39 be 29 84 9e be
       0.060912397 -0.038315862 -0.18075944 -0.30960205
000310 e7 6e a7 3d d4 0b c5 bd d8 36 76 be 17 82 59 3d
       0.0817545 -0.09621397 -0.24044359 0.05310258
000320 6e a5 e5 bd e7 1b b2 be 75 33 c6 3d 6e dd 44 be
       -0.11213194 -0.34786913 0.096777834 -0.19225094
000330 18 9c c5 3d 71 f7 60 be 65 40 98 bd 11 5b 98 bc
       0.09648913 -0.21969391 -0.07434157 -0.018598111
000340 a3 e8 09 bd dd f8 15 bd 5f bc 0c bf 05 fc 5b 3d
       -0.033669125 -0.036614288 -0.5497493 0.05370714
000350 52 84 d6 bd cd 93 c6 bc 58 37 3f be 5f 48 70 3d
       -0.10474457 -0.024240399 -0.18673456 0.05866277
000360 4a d9 02 3d 6d 4f ee 3c 4a 25 84 be 3c db 35 3d
       0.031945504 0.029090608 -0.258097 0.04439853
000370 d7 98 64 be f5 c9 a9 3c 8d 4f 86 be 1c 62 76 3b
       -0.22323929 0.020726183 -0.26232567 0.00375951
000380 46 93 3b 3d 84 e8 3b bf a6 63 d6 be 9f 60 6c 3d
       0.045794748 -0.73401666 -0.418729 0.057709333
000390 94 72 8a bd 56 3f 82 be f9 60 88 be a3 11 2f 3e
       -0.06760135 -0.25438946 -0.26636484 0.17096572
0003a0 e5 24 98 be 4a 89 f9 3d 5e c4 4c bd f4 cf 80 3d
       -0.29715648 0.12184389 -0.049991958 0.06289664
0003b0 50 d2 1d bd 5a 0a bd 3d f7 29 e9 3c e5 42 b0 be
       -0.038530648 0.0923049 0.028462393 -0.34426036
0003c0 ed eb 69 be c4 9c 0e be 88 f8 9f be 00 55 de be
       -0.22843905 -0.13926989 -0.31244302 -0.43424225
0003d0 5f 2e ab bb e2 9d 51 3c 39 5f b9 bd 4f dd 26 be
       -0.0052240337 0.01279399 -0.090513654 -0.1629536
0003e0 2a 13 73 3c 34 58 cd bd 76 d5 30 be 46 0c 1a bb
       0.014836112 -0.10026589 -0.17268929 -0.002350585
0003f0 34 b6 0d bc 27 50 d6 bd f7 fa 55 be e3 7d fb 3c
       -0.008649398 -0.104645066 -0.20896517 0.030699676

classifier.bias f4 [206]
000000 2d df b8 3d c3 d6 85 3d 32 cc 21 3e 85 31 1b 3d
       0.090269424 0.06535103 0.1580055 0.037889022
000010 a1 b3 ad bb bf be d6 3d d1 70 ca 3d d3 aa 2b 3e
       -0.0053009544 0.10485601 0.09884799 0.16764383
000020 9e 06 5d 3c 94 f2 96 bc 28 e6 b7 bd 4d 7a 9f 3d
       0.013490347 -0.018426217 -0.08979446 0.07786999
000030 d0 24 fb bd ea b3 ee bb d3 f1 85 bd 35 3c a6 bc
       -0.12262881 -0.007284631 -0.06540265 -0.02029238
000040 bc 0c ae 3d c2 b6 8a 3d 0f ab 4a be 26 00 26 3e
       0.08498523 0.067731395 -0.19791816 0.16210994
000050 09 46 04 3e 62 9c f9 3d c8 50 f7 3c 1c 4f 10 3e
       0.12917341 0.12188031 0.030189887 0.14092678
000060 d6 33 d1 3d fa 17 af 3d 8e 90 b2 3d 24 8f 39 3c
       0.10214965 0.08549495 0.08718978 0.011325631
000070 0b 8e c7 bd f6 bd 6b 3d ae 1e 02 be 71 fa 0e 3d
       -0.097438894 0.057554208 -0.12707016 0.03490681
000080 aa 38 4e 3e 71 6c ce 3b 13 73 29 be ec 20 35 3e
       0.20138803 0.0062995483 -0.16547804 0.1768834
000090 9b b1 55 3d 95 13 d1 3b 91 8e 54 bd 1e 8a e3 3c
       0.05217133 0.006380508 -0.051893774 0.02777582
0000a0 1a f3 90 3b 7e b4 ff 3d 77 78 90 3b af 8f 74 3d
       0.004423511 0.12485598 0.004408892 0.05970734
0000b0 a0 8c 4c bd d1 e4 aa bd 3e 51 e2 bd d7 67 8e 3c
       -0.049938798 -0.083444245 -0.11050652 0.0173835
0000c0 81 22 19 3e 95 96 9e bc f4 eb 16 3c ea 03 13 bb
       0.14954568 -0.019358912 0.009211529 -0.0022432753
0000d0 c4 25 45 3d f4 c8 12 3d 74 f9 20 3d a1 89 38 3c
       0.04813172 0.035836175 0.039300397 0.011263282
0000e0 ac 2e 6a 3d 28 a3 6e ba a5 c8 8d 3e d4 1c d6 3d
       0.057173416 -0.00091032917 0.27692142 0.10454717
0000f0 f7 9a 02 bd 79 ca 91 3d 9a 43 11 bd 2e 70 8a 3d
       -0.031886067 0.07118697 -0.03546486 0.06759678
000100 6f 8d 2c bd da 3d 73 bd f3 b5 1c 3d ba 5e 87 bd
       -0.04212707 -0.059385158 0.038259458 -0.066098645
000110 25 37 60 3e 78 8d 69 bd 41 21 60 3d c1 9d 28 bd
       0.21896036 -0.05701968 0.054719213 -0.04116607
000120 a0 b8 2f bc dc 9c 02 be 95 ae c3 bd 46 59 fd 3b
       -0.01072517 -0.1275515 -0.09554783 0.0077315895
000130 97 13 81 be a0 ab af bd 6a fb c5 bc 55 c8 c8 3d
       -0.25210258 -0.08577657 -0.024167735 0.09803835
000140 a9 30 25 3e 17 7f eb 3d 70 04 0e bd fe c7 ab 3a
       0.16131844 0.1149885 -0.0346722 0.0013105867
000150 0a 69 bf bd 29 ea 59 3d 52 c6 d8 3d 97 29 11 bd
       -0.093462065 0.05320183 0.105847016 -0.035440054
000160 f0 99 9c bc 7c 2b c7 3d 49 62 2c be 8c d7 01 3e
       -0.019116372 0.09725091 -0.16834368 0.12679881
000170 ab 34 03 be 5a 01 35 bd b1 49 60 bd be b4 46 be
       -0.1281306 -0.044190742 -0.054757778 -0.19404885
000180 9f f3 f1 3d fd 92 fa 3c c6 45 a1 3b 5f fb 1e be
       0.11814045 0.030587668 0.0049216477 -0.15525578
000190 d5 05 f9 bc 3c 67 77 bd 1a 64 31 3d 17 4e cf bd
       -0.030398289 -0.060401186 0.043308355 -0.10122316
0001a0 14 54 a4 3c 82 c0 13 bd da 94 7e 3d 78 a6 d1 3c
       0.020059623 -0.03607226 0.062153675 0.025592074
0001b0 7d 49 45 bb 2c 40 05 be fb 49 1c 3d c9 7e 64 3d
       -0.0030103617 -0.13012761 0.03815649 0.055784974
0001c0 ca c3 93 bc 71 7d 15 3d 4f 44 a2 bd 10 42 96 3d
       -0.018037695 0.036496583 -0.07923185 0.07336819
0001d0 f1 22 86 bd e1 3f ba 3d 97 21 19 be 8d fa c7 3d
       -0.06549633 0.09094215 -0.1495422 0.09764586
0001e0 74 a1 1a bd fb e5 d1 bd e2 9a d0 bc b2 c6 28 3d
       -0.03775163 -0.102489434 -0.025464479 0.041205116
0001f0 fa 6b 65 3d 8a 6d cd bd e0 85 82 bd 8b 56 c2 bd
       0.056011178 -0.100306585 -0.06373191 -0.09489163
000200 1c 89 11 bd 16 b3 6c 3e 9b 82 e2 bd 99 4a e1 3c
       -0.03553115 0.23115191 -0.11060067 0.027501391
000210 2a 1e 9d bd 86 b2 67 bd a7 95 c2 3c 92 00 fb bc
       -0.07671769 -0.056566738 0.023753 -0.03063992
000220 d7 4a 3c bc 42 26 0b bd 12 66 51 3d 35 14 87 3d
       -0.011492453 -0.033972032 0.051122732 0.06595651
000230 cd 09 9e 3d f5 fd d7 bd d0 09 29 bd 33 bd bc 3d
       0.07716713 -0.10546485 -0.041269124 0.092157744
000240 6c 9d d4 3d 06 7b ca bc 70 a3 13 3c 91 06 f0 bd
       0.10381588 -0.024716865 0.0090111345 -0.117200024
000250 bc bc de bd f3 54 29 bd bf 1e a7 bd b5 76 9e bd
       -0.10875842 -0.04134078 -0.08160161 -0.07737485
000260 ec da 66 3d 63 76 2a bd 4c 18 ed bd ce e6 17 bc
       0.056361124 -0.04161681 -0.115769 -0.009271337
000270 40 10 0e bd 03 b1 a5 3d 35 d6 94 bd 82 9a b4 3d
       -0.034683466 0.08090403 -0.07267419 0.088185325
000280 e5 c3 41 bd 5d 7f 2a bb 7d 16 c9 bd 97 aa 8e bd
       -0.04730596 -0.0026015856 -0.098187424 -0.06966131
000290 5e 24 0f bb 28 d4 5e bd 0f fd ab 3c fa c7 10 3e
       -0.0021841745 -0.054401547 0.020994691 0.14138785
0002a0 bf e9 bc bd 14 7a ee bd 15 bf b8 bd f8 d4 54 bc
       -0.09224271 -0.11644378 -0.09020821 -0.012990229
0002b0 e6 23 32 3d 59 93 56 3c 00 2d 88 3d 37 60 14 bd
       0.043491267 0.013096654 0.06649208 -0.03622457
0002c0 f3 ce 26 be 62 34 96 3c fe 6f 57 be 72 42 99 3c
       -0.16289882 0.018335525 -0.21038815 0.018708441
0002d0 3f b4 b6 bc a1 e6 35 3d e2 6f 0a 3d 60 4d 33 3d
       -0.022302745 0.044409398 0.033798106 0.043774962
0002e0 56 7e 47 bd 7d 82 ef bd a5 c4 48 be 66 64 cd bc
       -0.048704468 -0.116948105 -0.19606264 -0.025072288
0002f0 ed 7c b4 bd 74 68 0d be 98 27 f6 bc ca f4 3e be
       -0.0881289 -0.13809377 -0.030048177 -0.18648067
000300 4d ac 1a be 4f ad 18 3e 2b 70 32 3c 81 f6 19 3c
       -0.1510479 0.14909862 0.010891001 0.00939715
000310 80 0b 1c bd a6 29 9c bd 75 e6 01 bc b1 38 ef bc
       -0.038096905 -0.07625131 -0.00792848 -0.029201837
000320 f2 92 c8 bc 41 b0 7f 3d 1a 27 58 3a a3 83 90 bc
       -0.024484131 0.06242395 0.00082455727 -0.017640894
000330 26 6f b8 bc dc 5b 6a 3d
       -0.022513937 0.05721651
