notebooks/checkpoint_epoch_15.pth (torch, 150288 bytes, 8 tensors)

features.0.weight f4 [16, 1, 3, 3]
0.58064175 0.45699608 0.25476682 0.16880818 0.14581709 0.06602986 0.6266174 0.29685774
-0.021641213 -0.363737 0.024325127 0.25796044 -0.36558303 -0.0606859 0.33144057 -0.26100084
0.280316 0.17384456 0.09679441 0.3200724 0.19923408 -0.12294143 -0.24590965 0.019532904
-0.052612394 -0.13194892 -0.2268808 0.06851068 -0.044275116 -0.12217135 -0.44982767 -0.024584452
0.3904118 0.3433091 -0.17017217 0.31777135 -0.44824985 -0.15573458 -0.4684452 0.32220912
0.11768235 0.36143327 0.120081216 -0.023364384 0.10324836 0.5823553 0.43175715 0.12553535
0.37219507 0.076042645 0.40187317 -0.4021184 0.11953021 -0.21741335 0.39497793 0.62014496
0.34495422 0.22530884 0.3308992 0.6929238 0.35221234 0.4744892 0.40189442 0.3595897
-0.23872651 -0.31303516 0.03941687 0.066875495 -0.36313963 -0.007929894 0.39487222 -0.2616018
-0.21001178 0.19020972 -0.03313705 -0.02777439 -0.010667723 0.067855835 0.28390017 -0.28106344
-0.072938375 0.38132718 -0.19019479 -0.21512869 0.34643325 -0.115099594 -0.3384195 0.18283582
0.2212275 -0.30239555 0.25623477 0.10759698 -0.13331255 0.2699683 0.46449474 -0.06744182
0.5513668 0.0038587803 0.01775334 0.09598086 -0.15466534 0.1033796 0.1381314 -0.19367255
0.024563504 0.05206565 -0.016252449 -0.21071115 -0.30254582 -0.45653993 -0.43496707 -0.061239753
-0.27808568 -0.25198498 0.041944657 -0.22969049 -0.3447809 -0.4291631 0.5183815 0.057217255
0.05995338 0.09615483 -0.050006438 0.24809763 -0.3936141 -0.055681217 0.037197307 -0.20841087
0.012464142 0.15876509 -0.37241775 0.23037367 0.32427233 -0.45631543 0.4010051 0.368245
0.26646256 0.3552196 0.082365766 -0.29636326 -0.35728657 -0.090228364 -0.14885777 -0.40368816
00000000: f0a4 143f 64fb e93e cc70 823e 0ddc 2c3e
00000010: 1351 153e aa3a 873d ff69 203f bdfd 973e
00000020: ea48 b1bc bc3b babe 7d45 c73c 6413 843e
00000030: b32d bbbe c791 78bd 94b2 a93e e7a1 85be
00000040: 9485 8f3e 4f04 323e 263c c63d 88e0 a33e
00000050: 0504 4c3e b7c8 fbbd bdcf 7bbe 7803 a03c
00000060: 1880 57bd 9e1d 07be 7153 68be 544f 8c3d
00000070: d359 35bd f934 fabd d04f e6be 5565 c9bc
00000080: 0ee4 c73e 36c6 af3e 9d41 2ebe edb2 a23e
00000090: 0181 e5be e378 1fbe 0dd8 efbe 98f8 a43e
000000a0: 7203 f13d c80d b93e 24ed f53d aa66 bfbc
000000b0: e073 d33d 3d15 153f 460f dd3e 578c 003e
000000c0: 5a90 be3e 3fbc 9b3d 52c2 cd3e 77e2 cdbe
000000d0: 41cc f43d 9ba1 5ebe 8c3a ca3e d2c1 1e3f
000000e0: d79d b03e 5cb7 663e 9f6b a93e 7463 313f
000000f0: 2d55 b43e 40f0 f23e 1bc5 cd3e 241c b83e
00000100: b974 74be 2546 a0be 9573 213d 05f6 883d
00000110: 70ed b9be 63ec 01bc b12c ca3e acf0 85be
00000120: 540d 57be 56c6 423e b7ba 07bd 1e87 e3bc
00000130: acc7 2ebc 00f8 8a3d 5d5b 913e 8ce7 8fbe
00000140: b760 95bd 513d c33e 6cc2 42be b24a 5cbe
00000150: b35f b13e 56b9 ebbd 5245 adbe 5039 3b3e
00000160: 7689 623e 97d3 9abe 3431 833e ce5b dc3d
00000170: 1683 08be 4939 8a3e 41d2 ed3e f01e 8abd
00000180: 6026 0d3f 97e3 7c3b 746f 913c 9d91 c43d
00000190: 9760 1ebe afb8 d33d 5172 0d3e 1952 46be
000001a0: 6739 c93c ca42 553d db23 85bc aac4 57be
000001b0: 49e7 9abe 9abf e9be 01b4 debe 89d6 7abd
000001c0: 3f61 8ebe 2d04 81be 29ce 2b3d fc33 6bbe
000001d0: 1f87 b0be 44bb dbbe a6b4 043f a45c 6a3d
000001e0: ad91 753d d3ec c43d 8dd3 4cbd 4e0d 7e3e
000001f0: ca87 c9be fd11 64bd 345c 183d a969 55be
00000200: 6736 4c3c 5193 223e 8aad bebe 13e7 6b3e
00000210: 0607 a63e 2da2 e9be 8a50 cd3e 9c8a bc3e
00000220: c86d 883e 58df b53e 62af a83d edbc 97be
00000230: 44ee b6be a6c9 b8bd 2c6e 18be 37b0 cebe

features.0.bias f4 [16]
0.25927413 -0.037536554 0.45609894 -0.10363149 0.16676976 -0.23701166 0.02017742 0.32744318
0.22644082 0.05718475 0.10286386 0.51801044 -0.1430363 -0.065002725 0.018308025 -0.26623732
00000000: 94bf 843e eebf 19bd cd85 e93e bf3c d4bd
00000010: b1c5 2a3e 2fb3 72be 1e4b a53c a2a6 a73e
00000020: 1ae0 673e 8e3a 6a3d 4aaa d23d 559c 043f
00000030: 1c78 12be 2620 85bd b6fa 953c 4250 88be

features.3.weight f4 [32, 16, 3, 3]
0.111211754 0.10970176 0.015834976 0.048806008 0.08119147 0.10055073 0.11031651 0.0908078
0.049085528 -0.1704971 -0.036588036 -0.08104247 -0.2624164 -0.18901937 -0.22690028 -0.14499325
-0.27952918 -0.15805128 0.07194093 0.00677465 0.019455947 0.11049259 0.13229312 0.009434201
-0.035285916 0.10451764 0.10403576 0.039532863 0.06681614 0.13717942 0.007733098 -0.07971955
0.009677244 -0.08182858 -0.06803711 0.024682824 0.23208873 0.10254964 0.18921658 0.093415834
-0.02164676 -0.020579798 -0.053721383 -0.051903203 0.046254363 0.0025318845 -0.005370153 0.030782862
0.1598141 0.10965646 0.03569413 0.09233728 0.07496568 0.087128125 0.072158866 0.10564544
0.14408821 0.06935556 0.10123028 -0.014021507 -0.016019447 -0.03816651 -0.0267873 -0.12279788
-0.13329998 -0.13449383 -0.1643467 -0.121993296 -0.16457666 -0.11344042 -0.03960184 -0.074363954
0.004151242 -0.043042835 -0.042575426 -0.021433271 0.006655204 -0.009925815 0.06693928 0.04698341
-0.016969766 -0.16568905 -0.18430378 -0.050017368 -0.22769567 -0.19609335 -0.060517788 -0.12946554
-0.080001056 -0.14727457 0.07380043 0.011370918 0.0168972 0.10325427 0.09238187 0.08186154
-0.04604223 -0.017780872 -0.08025527 0.09215611 -0.005707769 -0.00413366 -0.045063205 -0.07337318
-0.02219243 0.08343534 0.019505307 0.030176198 0.0654403 0.057275962 -0.11558059 -0.27172413
-0.2970091 -0.38089436 -0.15060484 -0.07120893 -0.18480435 -0.101205625 -0.050616287 0.06649992
-0.012032371 -0.02353238 0.06654209 -0.10556862 -0.018160544 -0.049498007 -0.09319177 -0.01750214
0.0454753 -0.11167356 -0.16610868 -0.13624491 -0.14894214 -0.044224035 -0.13894811 -0.07757698
-0.10705259 -0.24289215 0.024756307 -0.036352415 -0.054121397 -0.015475001 -0.07708307 -0.05372921
0.16433133 0.11869376 -0.0836992 0.07606187 0.098183475 -0.048837982 0.094386354 0.00922759
0.01354583 -0.004540815 -0.31383517 -0.20948572 -0.048240677 -0.3658995 -0.19402452 0.06482164
-0.25670448 -0.04313838 -0.06223913 0.034015663 0.1195193 0.065647125 0.020717882 0.09519106
-0.034896933 0.033817094 0.060647994 -0.06781509 -0.24435356 -0.26794076 -0.0041353283 -0.20536135
-0.25086382 -0.04966084 -0.15615612 -0.17746797 -0.0099754175 -0.11569194 0.045497 -0.07976679
-0.10361719 -0.00446591 -0.06854196 0.047490086 -0.06035932 0.07925129 -0.0249148 -0.12035443
0.036379065 0.072458334 -0.19104944 0.12078658 -0.03922502 -0.043524045 0.1309805 -0.037563734
-0.14392212 0.16050734 0.04989947 -0.18145384 0.1456725 0.035481755 -0.12553355 0.03939637
-0.018898748 0.01553564 0.034767788 -0.052803077 -0.020226812 0.026941318 0.032492228 0.013724201
0.010932096 0.019716471 -0.01651663 -0.03343689 -0.04197936 -0.023804491 0.048779353 -0.024891444
-0.002478138 0.1195942 0.096897 -0.029021809 0.1073004 0.07593993 -0.0085903555 0.17005228
0.11924429 0.060226064 0.14584479 -0.032438587 -0.09898963 0.102838665 -0.01229088 -0.13046691
0.12708074 -0.0111526 -0.04712712 0.06200485 0.08375297 0.04436982 0.055236436 0.06745586
-0.027779777 0.00017869734 0.03526601 -0.027249193 -0.06723524 -0.047527418 0.11640568 -0.019195251
00000000: fdc2 e33d 51ab e03d 5ab8 813c cfe8 473d
00000010: b747 a63d 8bed cd3d 9fed e13d 71f9 b93d
00000020: e80d 493d cb96 2ebe 56dd 15bd 98f9 a5bd
00000030: 715b 86be 4b8e 41be 8c58 68be 1c79 14be
00000040: 731e 8fbe 32d8 21be c455 933d e2fd dd3b
00000050: 1462 9f3c f049 e23d d977 073e e891 1a3c
00000060: f787 10bd 580d d63d b310 d53d 36ed 213d
00000070: e7d6 883d c378 0c3e ee65 fd3b 0144 a3bd
00000080: 4e8d 1e3c be95 a7bd 0a57 8bbd a233 ca3c
00000090: aba8 6d3e 8c05 d23d fec1 413e cd50 bf3d
000000a0: 8c54 b1bc f796 a8bc f40a 5cbd 7498 54bd
000000b0: 3775 3d3d f9ed 253b 1cf8 afbb 572c fc3c
000000c0: 4fa6 233e 9193 e03d 0234 123d 541b bd3d
000000d0: 9b87 993d 3b70 b23d 07c8 933d a35c d83d
000000e0: dc8b 133e 4a0a 8e3d d251 cf3d 77ba 65bc
000000f0: 373b 83bc 7d54 1cbd 0a71 dbbc 747d fbbd
00000100: ca7f 08be c0b8 09be 804a 28be 9fd7 f9bd
00000110: c986 28be 7353 e8bd 8a35 22bd 214c 98bd
00000120: 2407 883b af4d 30bd 9263 2ebd d494 afbc
00000130: e613 da3b e39f 22bc 7617 893d ad71 403d
00000140: 2e04 8bbc 64aa 29be 21ba 3cbe 03df 4cbd
00000150: 0e29 69be b2cc 48be 80e1 77bd 9d92 04be
00000160: 98d7 a3bd 25cf 16be ae24 973d 164d 3a3c
00000170: ff6b 8a3c fa76 d33d b532 bd3d 06a7 a73d
00000180: c796 3cbd 31a9 91bc e05c a4bd 58bc bc3d
00000190: 3d08 bbbb a773 87bb 3294 38bd ae44 96bd
000001a0: e6cc b5bc 26e0 aa3d 98c9 9f3c 1334 f73c
000001b0: 9005 863d 339a 6a3d 84b5 ecbd 6d1f 8bbe
000001c0: 9411 98be 9604 c3be 2838 1abe fdd5 91bd
000001d0: 5a3d 3dbe e544 cfbd 0653 4fbd 1c31 883d
000001e0: 6c23 45bc fac6 c0bc 3847 883d 5c34 d8bd
000001f0: 6cc5 94bc 6cbe 4abd 54db bebd a660 8fbc
00000200: 4f44 3a3d 1cb5 e4bd 6518 2abe c983 0bbe
00000210: 4a84 18be 4324 35bd 6a48 0ebe aee0 9ebd
00000220: 633e dbbd b8b8 78be bdcd ca3c 45e6 14bd
00000230: 66ae 5dbd dc8a 7dbc bbdd 9dbd 2913 5cbd
00000240: 7946 283e b715 f33d 7c6a abbd 53c6 9b3d
00000250: 6b14 c93d 560a 48bd a24d c13d 512f 173c
00000260: 54ef 5d3c 1ecb 94bb 01af a0be 6d83 56be
00000270: 0498 45bd 2e57 bbbe 5dae 46be 35c1 843d
00000280: c56e 83be dfb1 30bd 75ee 7ebd 0254 0b3d
00000290: 89c6 f43d 0072 863d 8cb8 a93c 88f3 c23d
000002a0: 16f0 0ebd cb83 0a3d 086a 783d a3e2 8abd
000002b0: d237 7abe 882f 89be a681 87bb 3f4a 52be
000002c0: 3971 80be 2a69 4bbd 64e7 1fbe 2aba 35be
000002d0: ef6f 23bc e5ef ecbd 105b 3a3d c55c a3bd
000002e0: 4035 d4bd c556 92bb ba5f 8cbd f784 423d
000002f0: 563b 77bd 804e a23d 1f1a ccbc 627c f6bd
00000300: 3702 153d 0965 943d 77a2 43be f45e f73d
00000310: 6aaa 20bd 4546 32bd c11f 063e 6edc 19bd
00000320: 5260 13be 095c 243e 6363 4c3d 09cf 39be
00000330: 2c2b 153e 5155 113d de8b 00be 175e 213d
00000340: 8cd1 9abc 3289 7e3c ab68 0e3d 0a48 58bd
00000350: b3b2 a5bc 0ab4 dc3c 9216 053d 79db 603c
00000360: 891c 333c 7084 a13c e24d 87bc 1ff5 08bd
00000370: 8df2 2bbd a301 c3bc dccc 473d 24e9 cbbc
00000380: 4268 22bb ceed f43d ef71 c63d 25bf edbc
00000390: 50c0 db3d 6586 9b3d 90be 0cbc 2f22 2e3e
000003a0: 5a36 f43d 9baf 763d 5658 153e 53de 04bd
000003b0: 13bb cabd 149d d23d b05f 49bc 1e99 05be
000003c0: 7421 023e 65b9 36bc 5e08 41bd ccf8 7d3d
000003d0: ad86 ab3d 21bd 353d 9a3f 623d 4c26 8a3d
000003e0: 6a92 e3bc b460 3b39 1773 103d b339 dfbc
000003f0: a1b2 89bd 1cac 42bd 1a66 ee3d 5c3f 9dbc

features.3.bias f4 [32]
0.06960409 0.07213341 0.09355297 0.05192515 0.09707383 0.020271163 -0.15008968 0.029924504
0.1312893 0.09020278 -0.09240394 0.048699245 0.051697925 0.041575547 0.029952262 -0.0093486635
0.06334663 -0.03930363 0.13876252 -0.01389495 0.15336789 0.020580595 -0.0048398813 0.068077624
0.0657696 -0.11106591 0.18456945 0.09830301 -0.06511668 0.03291517 -0.102272905 -0.051287543
00000000: 978c 8e3d aeba 933d b398 bf3d 77af 543d
00000010: a5ce c63d b60f a63c 1cb1 19be 3c24 f53c
00000020: b470 063e 3cbc b83d 473e bdbd dc78 473d
00000030: 34c1 533d 1f4b 2a3d 725e f53c 232b 19bc
00000040: e1bb 813d d8fc 20bd c317 0e3e a5a7 63bc
00000050: 790c 1d3e a398 a83c de97 9ebb 486c 8b3d
00000060: 36b2 863d 8676 e3bd c6ff 3c3e 1753 c93d
00000070: e55b 85bd 0fd2 063d 7574 d1bd e312 52bd

features.6.weight f4 [64, 32, 3, 3]
-0.026826013 0.014425279 -0.007485905 0.02052933 0.05318456 0.02761161 0.044372942 0.0908603
0.021430757 -0.09423736 -0.046310186 -0.08060694 0.0109981205 -0.0370881 -0.0086226 0.010803241
0.025669992 0.015378885 -0.14960314 -0.18860102 -0.20087956 -0.078679025 -0.042638395 -0.116797924
-0.090116605 -0.107221544 -0.022964997 -0.12249616 -0.060648263 -0.058316212 -0.04545632 -0.005619992
-0.00035379606 -0.05742044 -0.014509515 0.021345293 0.028070327 0.00035070075 -0.064768925 0.03626364
0.047270276 0.023626003 0.03878667 0.043683965 0.01588657 -0.047342606 -0.056957945 -0.044301417
-0.050499674 -0.012663254 0.015357892 0.016823072 0.028146258 0.005075988 0.055866886 0.10702983
0.08907134 -0.009426025 0.013015091 0.10983779 0.060615446 -0.030176826 0.051677164 -0.029235303
0.023800896 -0.011949692 -0.0034423538 -0.056929477 0.00072424905 -0.04845044 -0.023166688 -0.08535743
-0.002908837 0.0074456874 0.0053176675 -0.044300042 0.0077384915 0.01551797 0.068843976 -0.023050599
-0.023636004 0.003986162 0.00053126644 -0.012202682 -0.0023800763 0.023329575 0.012384773 -0.018262481
0.026189903 -0.04289823 0.045501657 -0.00089534966 0.07074475 0.084579654 0.020115014 0.050950725
-0.0328442 0.008269921 0.047289263 0.078169756 0.085998 0.04440746 0.08146522 0.04353955
0.042838458 0.039238475 0.069704115 0.009685646 0.066168524 0.018652616 -0.012870738 -0.019751748
-0.09178024 -0.08619094 -0.09992144 -0.050483957 -0.051396936 -0.27711704 -0.25667506 -0.16654441
-0.08753825 -0.08398799 -0.1629762 -0.07073269 -0.011776945 -0.024077486 0.05179238 -0.0027731112
0.05955197 -0.035319183 0.017224193 -0.025772661 -0.049742527 0.0024949326 -0.047318984 0.07438508
-0.016042925 -0.049494337 0.026833288 -0.056725487 -0.018834233 0.0012586837 0.013154081 -0.010869629
-0.15465684 -0.116220914 -0.13825147 -0.04347136 0.011792419 -0.055892516 -0.083101735 -0.07874592
0.002544768 0.1413887 0.093096055 0.13483925 0.10555381 0.102073245 0.108092725 0.10448899
-0.0010847115 0.1082597 0.044899352 0.048609257 -0.051910438 0.010009304 -0.043658216 0.060583934
-0.015280839 -0.0194299 0.020200823 0.018106483 -0.07379914 0.03693014 -0.04162183 -0.013740504
0.023440927 -0.012751454 0.04356355 0.014449773 -0.005429645 -0.027028767 0.04033382 0.027289582
-0.00082252023 -0.027004454 0.057169084 -0.046934996 0.056739833 0.040149312 0.0031627093 0.008931701
0.04114126 -0.013886062 0.054067403 -0.04148888 0.014272991 -0.028801732 -0.25316852 -0.17529406
-0.10266258 -0.09723984 -0.11684557 -0.03056272 -0.11455056 -0.07534487 -0.03360396 -0.039410517
-0.11194028 -0.10512504 -0.09498287 0.0029415407 -0.002278966 -0.053816784 -0.02484208 0.018234566
0.054358732 0.008024135 -0.0053661456 0.007954778 -0.030343799 -0.07480813 -0.052856002 -0.06702917
0.033897545 0.0061226743 0.0038490274 -0.0010579862 0.011039819 0.0014449308 0.030124381 -0.031016063
0.07271851 0.08022381 -0.02174556 -0.03983487 0.060683332 0.020093491 -0.027280215 0.024934206
0.007017535 -0.09993185 0.0011227243 -0.021338701 0.050549194 0.058447585 -0.036144752 0.06487874
-0.005504778 0.030015891 0.026707722 0.0626829 0.01658413 -0.017314658 -0.011263522 0.038334887
00000000: 3ac2 dbbc 0158 6c3c 534c f5bb 202d a83c
00000010: 0ed8 593d be31 e23c 67c0 353d f714 ba3d
00000020: 8e8f af3c 84ff c0bd c0af 3dbd 4015 a5bd
00000030: 7631 343c b1e9 17bd ce45 0dbc 1400 313c
00000040: e049 d23c b8f7 7b3c 9131 19be a020 41be
00000050: 5fb3 4dbe 7822 a1bd 99a5 2ebd c033 efbd
00000060: 0e8f b8bd f896 dbbd 1721 bcbc 44df fabd
00000070: 506a 78bd fbdc 6ebd 6830 3abd e927 b8bb
00000080: b47d b9b9 b231 6bbd 51b9 6dbc 53dc ae3c
00000090: bef3 e53c 42de b739 92a5 84bd 2f89 143d
000000a0: 7a9e 413d 528b c13c c5de 1e3d f5ed 323d
000000b0: 8d24 823c 52ea 41bd bc4c 69bd 6775 35bd
000000c0: bfd8 4ebd 8979 4fbc ab9f 7b3c 8ad0 893c
000000d0: fb92 e63c 7954 a63b add4 643d 7532 db3d
000000e0: 096b b63d 9d6f 1abc 403d 553c a3f2 e03d
000000f0: e747 783d 6435 f7bc 6fab 533d e07e efbc
00000100: 19fa c23c a4c8 43bc 1d99 61bb e22e 69bd
00000110: 88db 3d3a f873 46bd 11c8 bdbc e0cf aebd
00000120: 30a2 3ebb f4fa f33b d43f ae3b f673 35bd
00000130: 2c93 fd3b 153f 7e3c 12fe 8c3d 9cd4 bcbc
00000140: 4ba0 c1bc 5a9e 823b b044 0b3a c2ed 47bc
00000150: 0efb 1bbb aa1d bf3c 81e9 4a3c 339b 95bc
00000160: 358c d63c 0eb6 2fbd f25f 3a3d e6b5 6aba
00000170: a0e2 903d 1938 ad3d 3ec8 a43c b5b1 503d
00000180: a487 06bd 907e 073c 63b2 413d 7717 a03d
00000190: b81f b03d 99e4 353d 3dd7 a63d 8756 323d
000001a0: 6177 2f3d 86b8 203d 08c1 8e3d 8bb0 1e3c
000001b0: 5d83 873d 5fcd 983c cadf 52bc 6bce a1bc
000001c0: 47f7 bbbd e084 b0bd 9da3 ccbd 44c8 4ebd
000001d0: 9885 52bd 49e2 8dbe ea6a 83be 9e8a 2abe
000001e0: 4147 b3bd e501 acbd 3ce3 26be 4ddc 90bd
000001f0: 16f4 40bc 263e c5bc 3f24 543d 16bd 35bb
00000200: c4ec 733d d9aa 10bd c019 8d3c 3021 d3bc
00000210: d2be 4bbd 0682 233b 8dd1 41bd 3457 983d
00000220: 746c 83bc 93ba 4abd 7cd1 db3c fc58 68bd
00000230: 404a 9abc 6bfa a43a 3784 573c 8716 32bc
00000240: 5d5e 1ebe 3b05 eebd cb91 0dbe 060f 32bd
00000250: fd34 413c 8def 64bd 3e31 aabd 8a45 a1bd
00000260: 1fc6 263b 33c8 103e 25a9 be3d 4d13 0a3e
00000270: 992c d83d c70b d13d b85f dd3d 53fe d53d
00000280: e12c 8eba 43b7 dd3d 62e8 373d 801a 473d
00000290: 0aa0 54bd 10fe 233c f5d2 32bd dc26 783d
000002a0: 7c5c 7abc 742b 9fbc 327c a53c 0c54 943c
000002b0: 0124 97bd 0f44 173d a77b 2abd da1f 61bc
000002c0: 3007 c03c 79eb 50bc b16f 323d bebe 6c3c
000002d0: 2aeb b1bb 6f6b ddbc 1335 253d 678e df3c
000002e0: 669e 57ba 7238 ddbc 212a 6a3d e93e 40bd
000002f0: 0768 683d 9b73 243d 7545 4f3b 4556 123c
00000300: bd83 283d 5e82 63bc c875 5d3d 3ef0 29bd
00000310: 43d9 693c 9cf1 ebbc 4e9f 81be 4980 33be
00000320: c240 d2bd ae25 c7bd bb4c efbd ab5e fabc
00000330: 7c99 eabd 694e 9abd 4ea4 09bd ec6c 21bd
00000340: f240 e5bd cc4b d7bd 6186 c2bd ddc6 403b
00000350: b45a 15bb fd6e 5cbd 9e81 cbbc a860 953c
00000360: 43a7 5e3d a977 033c 7ed6 afbb c254 023c
00000370: 8f93 f8bc 0135 99bd 897f 58bd 9746 89bd
00000380: 27d8 0a3d b7a0 c83b f73f 7c3b 20ac 8aba
00000390: 5be0 343c d563 bd3a 68c7 f63c 6615 febc
000003a0: 71ed 943d 624c a43d bf23 b2bc e329 23bd
000003b0: 168f 783d 1b9b a43c c27a dfbc d242 cc3c
000003c0: 5af3 e53b 12a9 ccbd 6028 933a 80ce aebc
000003d0: ac0c 4f3d bc66 6f3d 850c 14bd 25df 843d
000003e0: 6d61 b4bb e3e3 f53c 27ca da3c e45f 803d
000003f0: 71db 873c 78d7 8dbc a38a 38bc 0b05 1d3d

features.6.bias f4 [64]
0.045479275 0.05385254 -0.06259208 -0.1022586 -0.040930927 0.02141666 -0.017045347 -0.016791407
0.0013511534 -0.040101178 -0.078053854 -0.05505784 -0.023536254 -0.035772372 0.0102977 -0.075272694
0.028719444 -0.058702216 0.06155577 0.13118882 -0.14473541 0.047208045 -0.05198295 0.02114997
0.058323596 -0.012042824 0.13055754 0.008805038 0.024498954 0.025828034 -0.0035641647 -0.10153842
0.04742974 0.04047502 0.06581287 -0.040809132 -0.07528526 0.023671154 -0.050411005 -0.05412443
0.025640378 0.00943118 0.027686857 0.034150615 -0.039896242 0.055908415 -0.0061625987 0.038455393
-0.121120065 -0.04315154 -0.054430556 -0.15769711 -0.016519763 -0.04972853 -0.09161699 0.079856694
0.04923014 0.07012862 -0.0084439535 -0.022905324 0.052622933 0.017088756 0.049210563 -0.13593277
00000000: 7a48 3a3d 7b94 5c3d 4730 80bd f56c d1bd
00000010: 30a7 27bd fe71 af3c afa2 8bbc 228e 89bc
00000020: 2f19 b13a 2241 24bd b3da 9fbd 5484 61bd
00000030: 1acf c0bc 0d86 12bd afb7 283c 9228 9abd
00000040: 0a45 eb3c bc71 70bd e721 7c3d 5d56 063e
00000050: 8535 14be 395d 413d 13ec 54bd b442 ad3c
00000060: b9e4 6e3d 444f 45bc e0b0 053e 0243 103c
00000070: 08b2 c83c 5095 d33c c394 69bb 60f3 cfbd
00000080: b045 423d 22c9 253d e6c8 863d 7a27 27bd
00000090: 292f 9abd 02ea c13c c57b 4ebd 94b1 5dbd
000000a0: c50b d23c 3c85 1a3c 8ccf e23c 84e1 0b3d
000000b0: 3e6a 23bd 3900 653d a0ef c9bb 6783 1d3d
000000c0: cc0d f8bd abbf 30bd 93f2 5ebd 5a7b 21be
000000d0: 7454 87bc 25b0 4bbd b0a1 bbbd e88b a33d
000000e0: 8ba5 493d 989f 8f3d 8258 0abc f2a3 bbbc
000000f0: 258b 573d b8fd 8b3c 0491 493d f631 0bbe

classifier.weight f4 [206, 64]
-0.009661062 -0.0047307624 -0.12703507 -0.6323501 -0.12134366 -0.17604212 -0.013647592 0.08047681
0.06547594 -0.4994565 -0.01689548 -0.17884226 -0.24938992 -0.6768442 -0.005585787 -0.18282714
-0.1193564 -0.1889397 -0.052516825 -0.031397916 -0.2691049 -0.22719197 0.044881605 -0.003116343
-0.07409766 -0.10339318 -0.10315801 0.10510826 0.036390077 -0.07346415 0.0032894525 -0.28293148
-0.0091766985 -0.40288687 -0.64571756 -0.21444246 -0.64196306 -0.068077706 -0.5045939 -0.0416375
-0.098249696 -0.2969701 -0.10108647 -0.13456461 -0.05185191 -0.076171875 0.053444862 -0.14717175
-0.736615 -0.05031679 -0.5306118 -0.38081527 0.08594998 -0.18574952 0.017313214 -0.0663638
0.030991048 0.033652637 -0.42241183 0.004293511 -0.051895376 0.03175634 0.02290965 -0.10749655
0.04568671 -0.039729726 -0.27227995 -0.5016077 0.016605536 -0.225506 -0.079713196 0.08764774
-0.04915133 -0.5550774 0.023700587 -0.032621205 0.010685358 -0.58358514 -0.0717744 -0.056532282
-0.148979 -0.15675128 -0.0864705 0.034131624 0.013573438 -0.1753466 -0.046670116 0.055194944
-0.054218847 -0.09398509 0.058512617 -0.07523357 -0.107126564 -0.095321104 -0.021870354 -0.68637604
0.112253025 -0.63436973 -0.17807935 0.017322956 -0.01965362 0.017932363 -0.54355896 -0.08197348
0.051855426 -0.15797023 0.098579094 -0.120193295 -0.09412266 -0.10159711 -0.08731098 -0.29606247
-0.7001345 0.060314313 -0.22667876 -0.17675076 0.116349176 -0.2509962 0.024158943 0.06351088
-0.07306722 0.03301214 -0.69284797 -0.008660949 -0.005155113 -0.042430684 0.06394182 0.03648021
-0.04352863 0.032545745 -0.14198866 -0.95281035 -0.045485076 0.023653153 -0.14057802 -0.017735217
0.058135692 -0.45974314 -0.045012705 -0.056971293 -0.24363317 -0.21847261 -0.009318861 -0.32082313
-0.19143474 0.013656996 -0.19125962 -0.25739175 -0.039789256 -0.08606824 0.004253976 -0.12570086
0.024084916 -0.021463612 0.06403604 0.008589343 -0.02286065 -0.07535357 -0.024396762 -0.23812287
-0.089926325 -0.31781298 -0.9399596 0.00033801823 -0.23775938 0.0008847129 -0.34020588 -0.30487406
0.012566897 -0.079011604 -0.04926654 -0.17617609 0.0019143078 -0.012854528 -0.062568925 -0.2824151
-0.79878277 -0.17244141 -0.2882676 -0.5927867 -0.11257702 -0.051589884 -0.13889334 -0.103114784
-0.09231173 -0.14708103 -0.51917833 -0.06041953 -0.08894792 -0.08539384 -0.01323739 -0.13893163
0.032208275 -0.03715464 -0.15009357 -0.28158632 -0.004405176 -0.13693196 -0.15495166 0.0099134
-0.12167862 -0.35140836 0.096777834 -0.15551244 0.057891577 -0.060997296 -0.012801725 -0.076924935
0.02384812 -0.09742946 -0.34078285 0.010434494 -0.082869686 -0.019128736 -0.10242118 -0.0026854281
-0.010251265 0.004182217 -0.19130257 0.05207299 -0.18315342 -0.04600635 -0.21351516 0.037748374
-0.017061684 -0.4282197 -0.3727263 0.011054279 -0.05760676 -0.17604525 -0.24632773 0.1202898
-0.18643683 0.05198062 -0.0055030454 -0.01191735 -0.096584894 0.037134748 -0.0031120968 -0.3354229
-0.22312377 -0.031063797 -0.29858705 -0.41108948 -0.0052240337 -0.012150863 -0.106432185 -0.13812667
-0.034342844 -0.071856126 -0.15177508 -0.054439113 -0.06585845 -0.03401234 -0.18298225 -0.06122666
00000000: 6e49 1ebc 8304 9bbb 7b15 02be b2e1 21bf
00000010: 0683 f8bd 6344 34be 269a 5fbc 07d1 a43d
00000020: 4018 863d c3b8 ffbe 6468 8abc 6d22 37be
00000030: 1260 7fbe a945 2dbf fa08 b7bb 0a37 3bbe
00000040: 2171 f4bd 6979 41be e21b 57bd 1a9b 00bd
00000050: 1ec8 89be 03a5 68be c6d5 373d 8f3b 4cbb
00000060: 84c0 97bd cebf d3bd 8244 d3bd 0043 d73d
00000070: c30d 153d 5f74 96bd db93 573b 65dc 90be
00000080: dd59 16bc 3047 cebe bf4d 25bf ce96 5bbe
00000090: b157 24bf 536c 8bbd 112d 01bf 158c 2abd
000000a0: 2337 c9bd 770c 98be 6c06 cfbd 4ecb 09be
000000b0: ab62 54bd 0000 9cbd 00e9 5a3d 31b4 16be
000000c0: cd92 3cbf fa18 4ebd 2dd6 07bf 38fa c2be
000000d0: 8b06 b03d 1f35 3ebe 71d4 8d3c bee9 87bd
000000e0: f0e0 fd3c 59d7 093d 5d46 d8be 95b0 8c3b
000000f0: 3f90 54bd f012 023d 05ad bb3c 2727 dcbd
00000100: fd21 3b3d a3bb 22bd 4768 8bbe 5d69 00bf
00000110: 5508 883c 0beb 66be ac40 a3bd a980 b33d
00000120: e852 49bd 8d19 0ebf bc27 c23c d09d 05bd
00000130: a411 2f3c d665 15bf 75fe 92bd 658e 67bd
00000140: f38d 18be 6883 20be 7217 b1bd 9acd 0b3d
00000150: 2063 5e3c 0f8e 33be 2a29 3fbd 1814 623d
00000160: 9514 5ebd 417b c0bd edaa 6f3d 0f14 9abd
00000170: 2c65 dbbd b637 c3bd 7529 b3bc 57b6 2fbf
00000180: eae4 e53d 0e66 22bf 6f5a 36be dfe8 8d3c
00000190: a100 a1bc e4e6 923c ae26 0bbf b6e1 a7bd
000001a0: 5b66 543d f3c2 21be d6e3 c93d e727 f6bd
000001b0: 62c3 c0bd 2512 d0bd 19d0 b2bd 8095 97be
000001c0: 043c 33bf 240c 773d 7a1e 68be 27fe 34be
000001d0: 7a48 ee3d 9382 80be fae8 c53c fe11 823d
000001e0: 44a4 95bd bd37 073d 7c5e 31bf a7e6 0dbc
000001f0: 39ec a8bb cccb 2dbd eef3 823d 466c 153d
00000200: 144b 32bd b04e 053d 7a65 11be 61eb 73bf
00000210: 8f4e 3abd 42c4 c13c aff3 0fbe 7249 91bc
00000220: b11f 6e3d 7463 ebbe 3e5f 38bd bb5a 69bd
00000230: f97a 79be 49b7 5fbe 23ae 18bc ee42 a4be
00000240: 7807 44be 98c1 5f3c 90d9 43be dac8 83be
00000250: 0ffa 22bd 8c44 b0bd f064 8b3b bab7 00be
00000260: bb4d c53c 75d4 afbc 5425 833d 51ba 0c3c
00000270: 4246 bbbc f952 9abd b8db c7bc 7bd6 73be
00000280: 4b2b b8bd 62b8 a2be 31a1 70bf 0a38 b139
00000290: 3277 73be 14ec 673a 772f aebe 7418 9cbe
000002a0: 63e5 4d3c d6d0 a1bd b6cb 49bd 8167 34be
000002b0: 83e9 fa3a cc9b 52bc 2324 80bd b698 90be
000002c0: 077d 4cbf 7b94 30be d097 93be dfc0 17bf
000002d0: c88e e6bd ea4f 53bd 0e3a 0ebe d82d d3bd
000002e0: ef0d bdbd 699c 16be dfe8 04bf 787a 77bd
000002f0: 542a b6bd f7e2 aebd a3e1 58bc 1844 0ebe
00000300: d3ec 033d 772f 18bd 21b2 19be 152c 90be
00000310: 4b59 90bb e437 0cbe a6ab 1ebe d06b 223c
00000320: a432 f9bd cceb b3be 7533 c63d a73e 1fbe
00000330: b81f 6d3d 4dd8 79bd 54be 51bc d28a 9dbd
00000340: 225d c33c 1989 c7bd 177b aebe 71f5 2a3c
00000350: 95b7 a9bd deb3 9cbc 32c2 d1bd 02fe 2fbb
00000360: ecf4 27bc fb0a 893b d2e4 43be 7d4a 553d
00000370: 928c 3bbe 2871 3cbd b8a3 5abe 0a9e 1a3d
00000380: f2c4 8bbc 9d3f dbbe fbd5 bebe 021d 353c
00000390: 11f5 6bbd 3545 34be 563d 7cbe 805a f63d
000003a0: 4ce9 3ebe a1e9 543d e452 b4bb fd40 43bc
000003b0: 4dce c5bd 9b1a 183d 52f4 4bbb 8dbc abbe
000003c0: 8f7a 64be 8179 febc 67e0 98be 527a d2be
000003d0: 5f2e abbb 6a14 47bc 1ef9 d9bd 1471 0dbe
000003e0: 15ab 0cbd 4e29 93bd ed6a 1bbe 8cfb 5ebd
000003f0: cce0 86bd 8650 0bbd b35f 3bbe cec8 7abd

classifier.bias f4 [206]
0.0050883046 0.022146959 0.100223854 0.005693047 -0.03490121 0.035570778 0.085240625 0.09829009
-0.051538855 -0.03109008 -0.11896876 0.06579946 -0.07998872 -0.04296564 -0.066856 0.0024437662
0.077417105 0.0527443 -0.17805785 0.12713523 0.1044307 0.08885856 0.016060822 0.12814932
0.05532989 0.04848876 0.055192936 -0.014728359 -0.10031812 0.063838854 -0.0752782 0.00263533
0.1147819 -0.054667924 -0.09789517 0.12636912 0.057263184 0.005724466 -0.116342306 0.018101843
-0.004243312 0.07302352 0.024111869 0.0539073 -0.08205479 -0.07357937 -0.115201294 0.010669264
0.08427295 -0.054595776 0.0038690446 -0.027560115 -0.0064312504 0.061654877 0.06440126 -0.018681979
0.052369457 0.016027164 0.13911107 0.05796628 -0.068594925 0.05433582 -0.0032911175 0.047366697
-0.027119275 -0.04347476 0.00422491 -0.041307148 0.1487523 -0.056958463 0.06565618 -0.017227167
-0.0016541502 -0.08511423 -0.075373806 0.044945255 -0.2055425 -0.06845711 -0.052477416 0.065720856
0.16002534 0.073145844 -0.048863202 -0.0064680865 -0.10183701 0.054929134 0.078243345 -0.021200625
-0.058438685 0.08228519 -0.11803599 0.11797586 -0.09808642 -0.030000508 -0.044328306 -0.1849496
0.10086464 0.03424829 -0.0070896274 -0.13380194 -0.004842872 -0.0252193 0.064954154 -0.11548872
0.034995954 -0.025802458 0.07775286 0.055473316 -0.008694592 -0.14270164 -0.006874101 0.07484805
-0.0051082973 0.006498797 -0.09519137 0.0522433 -0.076404646 0.066277914 -0.120819874 0.11046362
-0.062112942 -0.083748594 -0.0048784628 0.06905748 0.07259699 -0.08762491 -0.0860288 -0.09746863
-0.03906751 0.16491035 -0.113809 -0.006299493 -0.090744056 -0.043643042 0.017293405 -0.017522862
0.0053631123 -0.05529085 0.060424656 0.0491666 0.0881852 -0.083489105 -0.038075995 0.045778215
0.124120325 -0.059248354 0.037613288 -0.09183383 -0.1049701 -0.039022796 -0.095094815 -0.037969816
0.070893995 -0.032073986 -0.14074382 -0.050990388 -0.06453138 0.07165719 -0.040607344 0.057095367
-0.028789539 -0.012900762 -0.088967755 -0.08495866 -0.002441757 -0.028637802 0.04049976 0.09389292
-0.07222522 -0.091723286 -0.07870391 -0.003584778 0.04907727 -0.0072096344 0.11121469 0.03033491
-0.14482929 0.04667262 -0.16371232 0.037941247 -0.013096037 0.07026112 0.014146986 0.077218644
-0.06916461 -0.081593506 -0.17046034 0.025938502 -0.015063356 -0.13251868 -0.030069906 -0.14586341
-0.13675204 0.084084116 0.050550327 0.008502911 -0.010782523 -0.06421565 -0.020475868 -0.033447463
-0.0014584536 0.09425832 0.028413787 0.008704205 0.006964948 0.04525107
00000000: cbbb a63b 8a6d b53c 2a42 cd3d bd8c ba3b
00000010: 92f4 0ebd aab2 113d a392 ae3d 514c c93d
00000020: 681a 53bd a0b0 febc e5a5 f3bd dec1 863d
00000030: 20d1 a3bd bdfc 2fbd cceb 88bd 9827 203b
00000040: dc8c 9e3d 680a 583d cc54 36be bd2f 023e
00000050: c3df d53d 7afb b53d fc91 833c 9339 033e
00000060: 98a1 623d 269c 463d fd11 623d 374f 71bc
00000070: 9673 cdbd f2bd 823d 752b 9abd 80b5 2c3b
00000080: c612 eb3d 79eb 5fbd 437d c8bd e866 013e
00000090: cd8c 6a3d 4d94 bb3b e044 eebd 514a 943c
000000a0: 7b0b 8bbb 5b8d 953d 4186 c53c e7cd 5c3d
000000b0: 570c a8bd c8b0 96bd a8ee ebbd 23ce 2e3c
000000c0: 4c97 ac3d d29f 5fbd cc8f 7d3b c0c5 e1bc
000000d0: 3dbd d2bb d389 7c3d cfe4 833d f30a 99bc
000000e0: 5b81 563d 664b 833c 2273 0e3e 0d6e 6d3d
000000f0: 7f7b 8cbd 3d8f 5e3d caaf 57bb 9503 423d
00000100: 3e29 debc 9712 32bd 1d71 8a3b af31 29bd
00000110: 8652 183e 474d 69bd bf76 863d fd1f 8dbc
00000120: 12d0 d8ba 5f50 aebd 955d 9abd 8418 383d
00000130: bc79 52be 3e33 8cbd 8ff2 56bd a898 863d
00000140: afdd 233e 7dcd 953d c824 48bd 3ef2 d3bb
00000150: ec8f d0bd 5ffd 603d 0c3e a03d efac adbc
00000160: 675d 6fbd 2385 a83d dabc f1bd 549d f13d
00000170: 88e1 c8bd a0c3 f5bc 9991 35bd 6e63 3dbe
00000180: 1f92 ce3d ef47 0c3d 1b50 e8bb 6003 09be
00000190: f4b0 9ebb b598 cebc af06 853d 5a85 ecbd
000001a0: eb57 0f3d ad5f d3bc e43c 9f3d fd37 633d
000001b0: c373 0ebc 6120 12be 2340 e1bb ef49 993d
000001c0: 8163 a7bb dcf3 d43b b1f3 c2bd 12fd 553d
000001d0: 0a7a 9cbd b7bc 873d 6970 f7bd c03a e23d
000001e0: 246a 7ebd 6284 abbd 83db 9fbb 026e 8d3d
000001f0: bbad 943d b074 b3bd de2f b0bd a29d c7bd
00000200: 4105 20bd 42de 283e b114 e9bd fa6b cebb
00000210: 05d8 b9bd 0cc3 32bd e6aa 8d3c 1b8c 8fbc
00000220: 0cbd af3b a978 62bd d87f 773d eb62 493d
00000230: 719a b43d 56fc aabd 93f5 1bbd f081 3b3d
00000240: cc32 fe3d 67ae 72bd 6410 1a3d 6013 bcbd
00000250: 90fa d6bd 5ed6 1fbd 12c1 c2bd 3d86 1bbd
00000260: df30 913d 0360 03bd 261f 10be 4cdb 50bd
00000270: 0729 84bd 01c1 923d e353 26bd d5dc 693d
00000280: 0ad8 ebbc b85d 53bc ba34 b6bd cefe adbd
00000290: e205 20bb d399 eabc 14e3 253d ee4a c03d
000002a0: d1ea 93bd 6bd9 bbbd 842f a1bd 98ee 6abb
000002b0: 3f05 493d cc3e ecbb 87c4 e33d eb80 f83c
000002c0: 214e 14be ca2b 3f3d 34a4 27be 4868 1b3d
000002d0: c390 56bc 10e5 8f3d c3c8 673c cf24 9e3d
000002e0: 2da6 8dbd 7f1a a7bd 288d 2ebe fb7c d43c
000002f0: 4bcc 76bc fab2 07be 2a55 f6bc 385d 15be
00000300: ba08 0cbe 4b34 ac3d dc0d 4f3d cb4f 0b3c
00000310: 2ea9 30bc 7f83 83bd 02bd a7bc 3500 09bd
00000320: 9529 bfba 820a c13d 08c4 e83c 159c 0e3c
00000330: 383a e43b 3059 393d
