notebooks/checkpoint_epoch_20.pth (torch, 150288 bytes, 8 tensors)

features.0.weight f4 [16, 1, 3, 3]
0.6789728 0.56392384 0.31351015 0.30335188 0.25553864 0.10921795 0.7328609 0.36685476
0.0017614678 -0.3984352 0.032009218 0.29352215 -0.4075017 -0.049746487 0.36925566 -0.3064989
0.28138623 0.20994021 0.121054344 0.3514189 0.22308736 -0.12799728 -0.254866 0.022477966
-0.066762894 -0.14523837 -0.2459224 0.018759662 -0.064157024 -0.10184915 -0.46437046 -0.031905737
0.44131073 0.34086877 -0.16010131 0.38810056 -0.48605838 -0.17730686 -0.49718937 0.33066475
0.13441305 0.38026208 0.13872126 0.0077038216 0.12827912 0.6260639 0.4814447 0.15510146
0.40710714 0.11870345 0.4224927 -0.3967933 0.11845802 -0.20742008 0.4355191 0.6904659
0.40834922 0.29725626 0.4287212 0.75283873 0.42229858 0.5568419 0.4571646 0.37721813
-0.22670296 -0.32316953 0.052977502 0.082084015 -0.38420224 0.018776294 0.42089164 -0.26972905
-0.21956563 0.20728615 -0.028691428 -0.026993187 -0.0115014305 0.07895199 0.28093332 -0.31749815
-0.053827554 0.40685287 -0.19039224 -0.24084213 0.37828064 -0.1078902 -0.35461175 0.22192502
0.22329076 -0.32006434 0.30233464 0.13267417 -0.13587804 0.33965915 0.49335402 -0.06505327
0.61079735 0.042828865 0.020856196 0.108198404 -0.17039555 0.12488963 0.14075483 -0.21051846
0.044244736 0.039594695 -0.020869065 -0.214528 -0.35563308 -0.5130013 -0.4769763 -0.098351866
-0.3055227 -0.26552603 0.0021010118 -0.25968954 -0.35954192 -0.44555688 0.54509896 0.06071605
0.054662343 0.10761097 -0.0407185 0.25364223 -0.4277861 -0.050628405 0.051995646 -0.22710103
0.03324532 0.18343392 -0.41266948 0.25058955 0.33705384 -0.50325716 0.40875065 0.39905408
0.3235484 0.39540872 0.07492914 -0.31146297 -0.37257951 -0.12646577 -0.22016378 -0.4299641
00000000: 29d1 2d3f 505d 103f 6784 a03e f050 9b3e
00000010: f6d5 823e a9ad df3d c69c 3b3f 63d4 bb3e
00000020: 0de1 e63a b3ff cbbe 191c 033d 8948 963e
00000030: 10a4 d0be f9c2 4bbd 140f bd3e 6ced 9cbe
00000040: db11 903e 91fa 563e 57eb f73d 2eed b33e
00000050: 0371 643e b811 03be cc7d 82be b623 b83c
00000060: fcba 88bd 5eb9 14be 15d3 7bbe ddad 993c
00000070: c264 83bd 4a96 d0bd f7c1 edbe 97af 02bd
00000080: 7bf3 e13e 5a86 ae3e 99f1 23be 1eb5 c63e
00000090: a5dc f8be ee8f 35be 9b8f febe e44c a93e
000000a0: 93a3 093e b6b1 c23e f20c 0e3e 5770 fc3b
000000b0: 9a5b 033e b945 203f eb7f f63e ebd2 1e3e
000000c0: 5970 d03e cb1a f33d f750 d83e 7e28 cbbe
000000d0: 1e9a f23d ee65 54be 5cfc de3e 60c2 303f
000000e0: 2613 d13e f931 983e 5881 db3e 0aba 403f
000000f0: 8537 d83e 318d 0e3f 7a11 ea3e bc22 c13e
00000100: d224 68be 7a76 a5be f0fe 583d aa1b a83d
00000110: 28b6 c4be bed0 993c 1c7f d73e ed19 8abe
00000120: d0d5 60be d242 543e 490a ebbc d120 ddbc
00000130: 7f70 3cbc 95b1 a13d 7ed6 8f3e 1e8f a2be
00000140: 487a 5cbd 054f d03e 2ff6 42be 529f 76be
00000150: 00ae c13e 8af5 dcbd ac8f b5be 5040 633e
00000160: 55a6 643e 79df a3be 9bcb 9a3e bddb 073e
00000170: 9d23 0bbe cee7 ad3e e698 fc3e a63a 85bd
00000180: 375d 1c3f 526d 2f3d 9dda aa3c 2097 dd3d
00000190: 2c7c 2ebe 22c6 ff3d 0922 103e 2792 57be
000001a0: f839 353d 0c2e 223d 9af5 aabc 3aad 5bbe
000001b0: 8a15 b6be 0e54 03bf 3d36 f4be b46c c9bd
000001c0: 796d 9cbe 07f3 87be 21b1 093b 07f6 84be
000001d0: e115 b8be 0820 e4be 9b8b 0b3f 65b1 783d
000001e0: 9fe5 5f3d 2463 dc3d 71c8 26bd 65dd 813e
000001f0: c806 dbbe bb5f 4fbd 63f9 543d 2c8d 68be
00000200: 3f2c 083d 1ad6 3b3e 6a49 d3be 464d 803e
00000210: 5292 ac3e 76d5 00bf c447 d13e d150 cc3e
00000220: 23a8 a53e 0373 ca3e 7374 993d 1378 9fbe
00000230: bec2 bebe 3e80 01be 9d72 61be 4124 dcbe

features.0.bias f4 [16]
0.20902336 -0.046104733 0.498722 -0.11663087 0.17857367 -0.2582427 -0.021087013 0.38161942
0.25620228 0.04624928 0.07022258 0.56808406 -0.1750899 -0.05330691 0.010899606 -0.27332103
00000000: 380a 563e 51d8 3cbd 7d58 ff3e 2adc eebd
00000010: 04dc 363e 6338 84be acbe acbc 9f63 c33e
00000020: f22c 833e e36f 3d3d dbd0 8f3d f56d 113f
00000030: c44a 33be 5958 5abd 4394 323c bcf0 8bbe

features.3.weight f4 [32, 16, 3, 3]
0.10382974 0.107352875 0.020274978 0.050274182 0.08336537 0.10604186 0.110871576 0.087549835
0.04848983 -0.21423219 -0.080182046 -0.14241187 -0.32479373 -0.2821474 -0.33502972 -0.21838507
-0.37482572 -0.2275963 0.0851947 0.021032041 0.036843132 0.1259121 0.1518524 0.030711887
-0.021856243 0.11794745 0.11764703 0.043857172 0.078699574 0.1492025 -0.0043162387 -0.09496401
-0.0030786358 -0.10269341 -0.08404429 0.021578696 0.29900107 0.16631907 0.24619567 0.14189772
0.011640353 0.003841351 -0.03745957 -0.043337375 0.059650972 -0.0037317316 -0.0037771107 0.04227083
0.16713542 0.12000423 0.050997596 0.09489075 0.075128146 0.08865168 0.06848514 0.108487606
0.15266915 0.07241966 0.10663073 -0.006107319 -0.016375707 -0.03933762 -0.025149262 -0.15050736
-0.16753814 -0.152697 -0.21086682 -0.16411303 -0.186497 -0.14815405 -0.06646204 -0.088580936
0.017614655 -0.030704368 -0.026482476 -0.010052826 0.01760607 0.0029984964 0.079213634 0.05728677
-0.003651201 -0.24897483 -0.26311144 -0.09632632 -0.3262983 -0.27216604 -0.10759123 -0.19918102
-0.13945436 -0.19187762 0.06629643 0.007751186 0.020464346 0.10207808 0.09060506 0.08345481
-0.04794933 -0.02526859 -0.084096104 0.08656378 -0.014198606 -0.008043564 -0.05118564 -0.07958852
-0.02319518 0.08278689 0.017542299 0.031604026 0.22827232 0.16089442 -0.024728442 -0.19719248
-0.31408426 -0.37150976 -0.10534277 -0.03919346 -0.13623722 -0.091846675 -0.026340311 0.10303888
0.0010456023 -0.0010964191 0.09261346 -0.096467406 -0.0078292955 -0.032123547 -0.12951922 -0.056217983
0.01633258 -0.15794364 -0.22134268 -0.17408437 -0.19294062 -0.08998915 -0.16703425 -0.072710976
-0.10348811 -0.22859877 0.034292497 -0.028403284 -0.039651938 -0.02591932 -0.09840592 -0.06547486
0.19132875 0.119812645 -0.09830219 0.09979273 0.0972875 -0.06787762 0.111655846 0.0120389545
-0.0008668349 -0.0061244876 -0.4488846 -0.31107754 -0.0448919 -0.50610346 -0.29973692 0.10027913
-0.35419622 -0.13579305 -0.057287738 0.039974105 0.12873985 0.064121634 0.016768211 0.09517032
-0.029442843 0.025770592 0.051018048 -0.079756394 -0.2977025 -0.3389953 -0.016812215 -0.25482506
-0.31987596 -0.04617627 -0.19671196 -0.22752628 -0.017467523 -0.13132581 0.026015606 -0.07798858
-0.105808735 -0.015328214 -0.07556278 0.04946667 -0.058895502 0.1070185 -0.025047595 -0.13869819
0.0652204 0.06551545 -0.21951385 0.14667 -0.03968999 -0.07208897 0.15171991 -0.042540073
-0.16450845 0.1790115 0.04259062 -0.20789167 0.16228198 0.03464251 -0.14464289 0.063242614
-0.02421359 0.009548119 0.06250673 -0.057193093 -0.022028856 0.04218382 0.029136686 0.009200057
0.011154996 0.009586182 -0.027761785 -0.03638333 -0.050383277 -0.033869192 0.041693483 -0.036751583
-0.017141566 0.191947 0.093505874 -0.05309223 0.1850789 0.07779418 -0.02131179 0.22304113
0.12618752 0.046280794 0.17620642 -0.031805463 -0.11773406 0.13081709 -0.012687309 -0.1502103
0.14641945 -0.005392126 -0.059579503 0.06818892 0.08256656 0.043217417 0.062084813 0.06722195
-0.028468939 0.0021981483 0.031342693 -0.033471003 -0.056502126 -0.038038157 0.123691455 -0.021561278
00000000: b0a4 d43d d3db db3d b617 a63c 4dec 4d3d
00000010: 77bb aa3d 7a2c d93d a310 e33d 544d b33d
00000020: 469d 463d af5f 5bbe 7c36 a4bd 6bd4 11be
00000030: 5d4b a6be a075 90be 0489 abbe 56a0 5fbe
00000040: 28e9 bfbe 010f 69be 8f7a ae3d 634b ac3c
00000050: d3e8 163d 1aef 003e 327f 1b3e 7f97 fb3c
00000060: dd0b b3bc 6f8e f13d edf0 f03d 94a3 333d
00000070: 3e2d a13d 8ac8 183e 3c6f 8dbb 7e7c c2bd
00000080: f0c2 49bb ec50 d2bd 6a1f acbd cec5 b03c
00000090: ab16 993e 8c4f 2a3e b81a 7c3e a34d 113e
000000a0: 2eb7 3e3c 2dbf 7b3b 356f 19bd 8882 31bd
000000b0: 9454 743d 1190 74bb 6789 77bb 2e24 2d3d
000000c0: 8c25 2b3e c7c4 f53d dbe2 503d 1556 c23d
000000d0: c9dc 993d 038f b53d f041 8c3d c02e de3d
000000e0: 4d55 1c3e c250 943d 3661 da3d e81f c8bb
000000f0: 5926 86bc 7c20 21bd d305 cebc 9a1e 1abe
00000100: 1e8f 2bbe 9a5c 1cbe 79ed 57be 3f0d 28be
00000110: 12f9 3ebe b2b5 17be 401d 88bd ec69 b5bd
00000120: 9c4c 903c ba87 fbbc c7f1 d8bc 9cb4 24bc
00000130: 9b3a 903c 6c82 443b c23a a23d 88a5 6a3d
00000140: fd48 6fbb 42f3 7ebe 8bb6 86be bc46 c5bd
00000150: 9210 a7be 5959 8bbe ca58 dcbd 1cf6 4bbe
00000160: 20cd 0ebe 917b 44be 6cc6 873d a9fd fd3b
00000170: d8a4 a73c 500e d13d 258f b93d 5bea aa3d
00000180: 8466 44bd 1300 cfbc 943a acbd 5a48 b13d
00000190: 45a1 68bc 27c9 03bc 09a8 51bd 4eff a2bd
000001a0: d103 bebc 2c8c a93d deb4 8f3c 3973 013d
000001b0: 38c0 693e 82c1 243e 4d93 cabc d3ec 49be
000001c0: a7cf a0be 8736 bebe f3bd d7bd 5289 20bd
000001d0: c581 0bbe 1c1a bcbd a3c7 d7bc 0c06 d33d
000001e0: 970c 893a b8b5 8fba 20ac bd3d b490 c5bd
000001f0: 7246 00bc fb93 03bd b0a0 04be d444 66bd
00000200: e7cb 853c fabb 21be a8a7 62be 2c43 32be
00000210: 3a92 45be 3b4c b8bd 070b 2bbe 7ee9 94bd
00000220: 93f1 d3bd cc15 6abe 4a76 0c3d 01ae e8bc
00000230: 126a 22bd c154 d4bc 0b89 c9bd af17 86bd
00000240: afeb 433e 5560 f53d a952 c9bd 2160 cc3d
00000250: ab3e c73d 6c03 8bbd d2ab e43d 093f 453c
00000260: 4e3c 63ba edaf c8bb 34d4 e5be 8e45 9fbe
00000270: 92e0 37bd ff8f 01bf 1e77 99be 255f cd3d
00000280: 3559 b5be 550d 0bbe 8ca6 6abd e3bb 233d
00000290: 61d4 033e 3452 833d 7d5d 893c a8e8 c23d
000002a0: 1e32 f1bc d91c d33c 4df8 503d 5257 a3bd
000002b0: 766c 98be cb90 adbe c5b9 89bc 6e78 82be
000002c0: c8c6 a3be 5423 3dbd dc6e 49be a6fc 68be
000002d0: 0d18 8fbc 467a 06be ae1e d53c 7ab8 9fbd
000002e0: 40b2 d8bd 3023 7bbc a9c0 9abd 909d 4a3d
000002f0: 693c 71bd 842c db3d 9d30 cdbc e606 0ebe
00000300: 4692 853d f72c 863d 3dc8 60be a930 163e
00000310: f991 22bd 62a3 93bd 775c 1b3e 803e 2ebd
00000320: e774 28be ca4e 373e 8173 2e3d 8ee1 54be
00000330: 3f2d 263e 4ee5 0d3d 441d 14be 5885 813d
00000340: 945b c6bc b76f 1c3c 8703 803d 4e43 6abd
00000350: dc75 b4bc f1c8 2c3d 0fb0 ee3c d6bb 163c
00000360: 72c3 363c 5d0f 1d3c af6c e3bc b006 15bd
00000370: b25e 4ebd 6cba 0abd c9c6 2a3d d488 16bd
00000380: 786c 8cbc c18d 443e 0280 bf3d 3d77 59bd
00000390: 5385 3d3e 8e52 9f3d 1096 aebc e564 643e
000003a0: 4d37 013e ee90 3d3d 756f 343e 7246 02bd
000003b0: 8e1e f1bd eaf4 053e 6ede 4fbc bbd0 19be
000003c0: fbee 153e 6eb0 b0bb a309 74bd a2a6 8b3d
000003d0: a818 a93d bf04 313d a54c 7e3d a9ab 893d
000003e0: b137 e9bc cf0e 103b 3261 003d e418 09bd
000003f0: c66e 67bd e6cd 1bbd f251 fd3d 47a1 b0bc

features.3.bias f4 [32]
0.076439194 0.07540802 0.10108429 0.047911048 0.08466193 0.008781099 -0.16268705 0.047279634
0.13857985 0.09610238 -0.10164177 0.048927266 0.07117444 0.042970244 0.030019399 -0.0015803773
0.04938572 -0.04349936 0.16268888 -0.025747892 0.15998033 0.0063347556 -0.026592217 0.071205616
0.076807044 -0.1560194 0.21376105 0.11993593 -0.11537136 0.027460078 -0.106085196 -0.048397735
00000000: 278c 9c3d 856f 9a3d 4805 cf3d 603e 443d
00000010: 3c63 ad3d 99de 0f3c 6f97 26be 4aa8 413d
00000020: e0e7 0d3e 53d1 c43d 8f29 d0bd f567 483d
00000030: e8c3 913d 9101 303d 3eeb f53c aa24 cfba
00000040: ae48 4a3d 632c 32bd ea97 263e 3eed d2bc
00000050: e2d1 233e c893 cf3b ecd7 d9bc 40d4 913d
00000060: 034d 9d3d 8dc3 1fbe 2de4 5a3e f8a0 f53d
00000070: d247 ecbd f5f3 e03c 3243 d9bd b43c 46bd

features.6.weight f4 [64, 32, 3, 3]
-0.03110445 0.013601337 -0.002991048 0.030733602 0.06543843 0.042850148 0.05449416 0.10272035
0.03650202 -0.14541519 -0.09791756 -0.12247379 -0.016256336 -0.059360273 -0.015820546 0.022546338
0.04146408 0.046615366 -0.2184641 -0.2627002 -0.25962383 -0.09518081 -0.06877067 -0.12720822
-0.060644493 -0.07073374 0.03737231 -0.17261752 -0.10571744 -0.09858035 -0.063409135 -0.018564625
-0.009227343 -0.053724412 -0.005906765 0.03423733 0.0050155683 -0.020154173 -0.08308658 0.03208072
0.044563893 0.020766802 0.041254383 0.047351234 0.01957676 -0.0875866 -0.09297602 -0.07620419
-0.059798297 -0.018657211 0.012432186 0.024161924 0.039284103 0.019388353 0.06978188 0.09924769
0.10001595 0.0002958033 0.018279897 0.138147 0.076997206 -0.011755673 0.0933702 -0.035618614
0.008426814 -0.022511462 -0.022734245 -0.08735224 -0.022954434 -0.07857584 -0.06461459 -0.11725185
-0.02490816 -0.009607039 -0.008174818 -0.046266727 0.0093312245 0.018913811 0.07498663 -0.014052254
-0.013159932 -0.0032246797 -0.0061049387 -0.01985544 -0.0034057545 0.023029245 0.010262027 -0.015021505
0.029181218 -0.041395064 0.06360669 0.01496209 0.0889202 0.11090007 0.045218885 0.081442356
-0.0059155114 0.03474387 0.07958889 0.10855487 0.115054995 0.080016084 0.11448239 0.07361278
0.07865167 0.059579693 0.08835602 0.03426286 0.06482596 0.010477241 -0.019020265 -0.04304116
-0.122316584 -0.1145235 -0.15033244 -0.113778956 -0.10838017 -0.3563296 -0.34875172 -0.24343258
-0.10701509 -0.118476436 -0.181784 -0.048693903 0.006224266 0.0142074255 0.060348604 0.0010214869
0.08230724 -0.017572561 0.028215203 0.0009105689 -0.049240492 -0.0009786567 -0.039783984 0.06501777
-0.026687667 -0.061143596 0.01933449 -0.064701 -0.027612811 -0.002110794 0.0090159895 -0.015411059
-0.22717929 -0.1866292 -0.20064484 -0.071994394 -0.01391319 -0.07475231 -0.08395528 -0.07631081
0.012552527 0.18124545 0.12877329 0.17389841 0.14565887 0.13803533 0.15026043 0.14749017
0.03906853 0.15395974 0.034112092 0.03922943 -0.0607172 0.008645368 -0.04401197 0.059654124
-0.013403562 -0.017355366 0.021538703 0.003205126 -0.08339996 0.034166418 -0.035237156 -0.0032899268
0.03773246 -0.0038056013 0.05502407 0.029317094 -0.012791984 -0.03585574 0.030318074 0.01930882
-0.0093557425 -0.036248453 0.050869714 -0.053778745 0.049136527 0.050139677 0.007676317 0.03488297
0.057966784 -0.0034227117 0.08361131 -0.0324991 0.02006487 -0.009892699 -0.35453713 -0.2766127
-0.18233575 -0.14805244 -0.15963048 -0.050635494 -0.11466344 -0.06868917 -0.0044335774 -0.12977242
-0.2037846 -0.1834256 -0.15016279 -0.04639509 -0.026788522 -0.04523001 -0.010624662 0.05476819
0.06598803 0.013505518 -0.0030409289 0.0032229603 -0.04083069 -0.08815115 -0.0945381 -0.11890147
-0.027927553 -0.012450427 -0.011274423 -0.009938064 0.013165982 0.005402657 0.038763832 -0.015492934
0.09117022 0.10213745 0.00083868403 -0.0127211 0.09867268 0.031506646 -0.014897942 0.04685432
-0.0054566404 -0.11401296 -0.0076571624 -0.00193028 0.067534156 0.07439582 -0.013882791 0.084946096
0.016005952 0.059944965 0.05730385 0.0943706 -0.007986191 -0.035887107 -0.023860414 0.0360301
00000000: c2ce febc 24d8 5e3c 7505 44bb 09c5 fb3c
00000010: 9504 863d a383 2f3d 4535 5f3d 0c5f d23d
00000020: 2483 153d b8e7 14be 0089 c8bd 8ad3 fabd
00000030: 022c 85bc c223 73bd 179a 81bc 19b3 b83c
00000040: 3dd6 293d c1ef 3e3d 0eb5 5fbe a480 86be
00000050: 6aed 84be 28ee c2bd a3d7 8cbd df42 02be
00000060: 5c66 78bd dadc 90bd b513 193d a6c2 30be
00000070: 6382 d8bd 7fe4 c9bd a6dc 81bd d714 98bc
00000080: 482e 17bc 210e 5cbd 898d c1bb 713c 0c3d
00000090: a359 a43b 5d1a a5bc 4c29 aabd 1367 033d
000000a0: a188 363d 241f aa3c 5bfa 283d 5ef3 413d
000000b0: 715f a03c 9a60 b3bd 366a bebd f110 9cbd
000000c0: 0fef 74bd 02d7 98bc 5eb0 4b3c 3aef c53c
000000d0: 5ee8 203d 53d4 9e3c cde9 8e3d 5f42 cb3d
000000e0: 2ad5 cc3d 0c16 9b39 b9bf 953c 6876 0d3e
000000f0: b6b0 9d3d de9a 40bc e038 bf3d d3e4 11bd
00000100: 9f10 0a3c f569 b8bc 2b3d babc bbe5 b2bd
00000110: f00a bcbc 5fec a0bd a754 84bd bd21 f0bd
00000120: 330c ccbc d866 1dbc acef 05bc 2e82 3dbd
00000130: fee1 183c 23f1 9a3c 9792 993d 6d3b 66bc
00000140: c19c 57bc 2655 53bb f00b c8bb e0a7 a2bc
00000150: 1433 5fbb d4a7 bc3c 1022 283c c21c 76bc
00000160: 730d ef3c df8d 29bd 3944 823d 8e23 753c
00000170: cb1b b63d 931f e33d 7037 393d 40cb a63d
00000180: e8d6 c1bb 974f 0e3d 80ff a23d 0452 de3d
00000190: f4a1 eb3d 79df a33d be75 ea3d 4cc2 963d
000001a0: 2014 a13d d609 743d 00f4 b43d 3657 0c3d
000001b0: 79c3 843d bca8 2b3c 63d0 9bbc ed4b 30bd
000001c0: 1e81 fabd 4c8b eabd bff0 19be f104 e9bd
000001d0: 6cf6 ddbd d570 b6be 968f b2be 6446 79be
000001e0: ba2a dbbd c6a3 f2bd 9625 3abe 4273 47bd
000001f0: edf4 cb3b 43c6 683c 1930 773d 6ae3 853a
00000200: b390 a83d 55f4 8fbc 9223 e73c 3fb3 6e3a
00000210: 66b0 49bd 4546 80ba 88f4 22bd 0928 853d
00000220: 18a0 dabc b571 7abd 5d63 9e3c f581 84bd
00000230: 4334 e2bc 3f55 0abb cdb7 133c ab7e 7cbc
00000240: b0a1 68be ba1b 3fbe d775 4dbe cc71 93bd
00000250: 26f4 63bc bd17 99bd bff0 abbd d848 9cbd
00000260: 1da9 4d3c 6898 393e 25dd 033e 6d12 323e
00000270: 9927 153e 2259 0d3e dfdd 193e aa07 173e
00000280: 5306 203d 9fa7 1d3e 1fb9 0b3d 0aaf 203d
00000290: 99b2 78bd 4da5 0d3c e545 34bd e257 743d
000002a0: 9d9a 5bbc d72c 8ebc ef71 b03c 170d 523b
000002b0: 99cd aabd 16f2 0b3d d654 10bd d09b 57bb
000002c0: 5a8d 1a3d 6567 79bb eb60 613d 672a f03c
000002d0: 7895 51bc 78dd 12bd 9c5d f83c 882d 9e3c
000002e0: d448 19bc 4279 14bd c35c 503d 1a47 5cbd
000002f0: 6243 493d 435f 4d3d 9d89 fb3b 72e1 0e3d
00000300: 946e 6d3d 934f 60bb 683c ab3d c71d 05bd
00000310: 155f a43c fd14 22bc e485 b5be 2ea0 8dbe
00000320: 39b6 3abe 0f9b 17be 2c76 23be 2a67 4fbd
00000330: aad4 eabd e8ac 8cbd 8b47 91bb 10e3 04be
00000340: e9ac 50be ecd3 3bbe 46c4 19be c708 3ebd
00000350: 9a73 dbbc 1a43 39bd 1013 2ebc 9c54 603d
00000360: bb24 873d 4046 5d3c 524a 47bb 4d38 533b
00000370: 153e 27bd 9788 b4bd 319d c1bd 9d82 f3bd
00000380: 53c8 e4bc e0fc 4bbc 5cb8 38bc 43d3 22bc
00000390: 22b6 573c c608 b13b d3c6 1e3d 13d6 7dbc
000003a0: 74b7 ba3d 702d d13d 22db 5b3a 296c 50bc
000003b0: e714 ca3d 1d0d 013d 7f16 74bc 51ea 3f3d
000003c0: 9ecd b2bb a07f e9bd efe8 fabb 7301 fdba
000003d0: 594f 8a3d d65c 983d a574 63bc 38f8 ad3d
000003e0: ea1e 833c da88 753d 71b7 6a3d 6045 c13d
000003f0: 83d8 02bc 5cfe 12bd ea76 c3bc 4c94 133d

features.6.bias f4 [64]
0.048917033 0.04568877 -0.070461586 -0.10511139 -0.05016438 0.021053137 -0.016228473 -0.026126862
-0.015795961 -0.028631203 -0.078053854 -0.12037722 -0.015839456 0.0052163624 -0.015250793 -0.07400811
0.03514181 -0.08896752 0.069976404 0.13826932 -0.15200463 0.048307944 -0.082946315 -0.000253677
0.06443285 -0.012753862 0.13479604 -0.0006543848 0.0077648726 0.023482472 -0.002482997 -0.11892843
0.03581182 0.03476684 0.0690571 -0.051542226 -0.081084274 0.01776146 -0.045220494 -0.040156074
0.02363929 -0.0033130825 -0.0014987311 0.03557394 -0.042179354 0.047561936 -0.01985066 0.0057988716
-0.12703642 -0.04946137 -0.08232845 -0.18590441 -0.016519763 -0.057245392 -0.12360528 0.09222376
0.051070448 0.06848947 -0.021964092 -0.03268062 0.04929964 0.012417898 0.051484127 -0.15512662
00000000: 3a5d 483d 2624 3b3d 2a4e 90bd a444 d7bd
00000010: 2a79 4dbd a177 ac3c 93f1 84bc 0008 d6bc
00000020: 8866 81bc fc8b eabc b3da 9fbd 5588 f6bd
00000030: bfc1 81bc 05ee aa3b 76de 79bc 9091 97bd
00000040: dcf0 0f3d 9a34 b6bd ca4f 8f3d 7996 0d3e
00000050: 1aa7 1bbe 8dde 453d c2df a9bd f3ff 84b9
00000060: 5ff5 833d 93f5 50bc f907 0a3e 058b 2bba
00000070: 7970 fe3b 505e c03c c7b9 22bb c090 f3bd
00000080: 6aaf 123d ad67 0e3d cf6d 8d3d f11d 53bd
00000090: 830f a6bd 7b80 913c 2039 39bd b27a 24bd
000000a0: 2fa7 c13c 4d20 59bb 1271 c4ba fbb5 113d
000000b0: 42c4 2cbd 4ed0 423d da9d a2bc 7604 be3b
000000c0: d615 02be 0198 4abd d29b a8bd ba5d 3ebe
000000d0: 7454 87bc 257a 6abd c424 fdbd d0df bc3d
000000e0: 3f2f 513d 3544 8c3d 0aee b3bc 1ddc 05bd
000000f0: 6bee 493d 7074 4b3c 05e1 523d 83d9 1ebe

classifier.weight f4 [206, 64]
0.02256853 0.034529284 -0.10805256 -0.62348557 -0.08175425 -0.14915752 0.039243653 0.13202032
0.10209574 -0.6853342 -0.01689548 -0.1452268 -0.26214486 -0.9136697 0.01200248 -0.18061131
-0.13402815 -0.15596777 -0.0023480435 0.019954419 -0.23410988 -0.20562819 0.08804556 -0.01295003
-0.062536605 -0.09045719 -0.061719365 0.12041733 0.07179745 -0.049189612 0.032512527 -0.75179446
0.029252889 -0.3707098 -0.5924744 -0.18099071 -0.6128274 -0.039656054 -0.53989184 -0.027176332
-0.054059617 -0.27732015 -0.061840747 -0.09937009 -0.054750547 -0.06142284 0.08342253 -0.11247826
-0.8179331 -0.014973012 -0.520543 -0.33419013 0.08594998 -0.19759887 0.030918634 -0.027456166
0.068900935 0.051536426 -0.43924966 -0.03362461 -0.051478524 0.081358336 0.07175266 -0.0770504
0.055202685 -0.021697784 -0.2851018 -0.44995257 0.043388173 -0.23653753 -0.044975612 0.13694318
-0.018637147 -0.75939316 0.023700587 0.037318252 0.012791374 -0.68304527 -0.06275593 -0.023998048
-0.18546869 -0.11675707 -0.06550383 0.06989197 0.07603813 -0.16973057 0.0030590754 0.08219531
-0.0808138 -0.10112329 0.07569413 -0.081716396 -0.08375474 -0.08744708 -0.005717725 -0.876185
0.15688601 -0.6495713 -0.17330787 0.06318704 0.003983338 0.034179997 -0.5984363 -0.044380017
0.063565 -0.15984839 0.117981605 -0.09001541 -0.08554617 -0.08262895 -0.034484204 -0.27370682
-0.9886218 0.11193507 -0.20812063 -0.14849998 0.116349176 -0.32504112 0.06595524 0.079831295
-0.066274285 0.032630652 -0.7421641 -0.05916879 -0.005513196 -0.0038069359 0.10423955 0.052194484
-0.029760001 0.060741697 -0.10725261 -1.3843261 -0.009353089 0.05256473 -0.104114085 -0.016699849
0.0907167 -0.45305607 -0.045012705 -0.058998633 -0.22530112 -0.20393242 -0.019497782 -0.30030283
-0.22384979 -0.04376239 -0.15384616 -0.23656182 -0.06537034 -0.068785846 0.029955553 -0.11800386
0.036971003 0.0015334841 0.0934377 0.036219034 0.010323228 -0.046127837 0.0006015827 -0.40157312
-0.06279661 -0.28945833 -1.0257969 0.010826615 -0.23460136 0.010909567 -0.37086624 -0.29468682
0.046197955 -0.0533146 -0.031011945 -0.15433 0.032341983 0.0027773534 -0.036493514 -0.29397023
-0.85610586 -0.18194689 -0.291007 -0.6606551 -0.11257702 -0.03300762 -0.11221262 -0.066150494
-0.06166137 -0.12575074 -0.51514995 -0.048494246 -0.07424137 -0.047445107 0.022407182 -0.1122617
0.044178005 -0.03886577 -0.15348065 -0.28004217 0.0279193 -0.12292568 -0.19616193 0.0238491
-0.11640891 -0.34571156 0.096777834 -0.16275674 0.07554228 -0.18417244 -0.020319168 -0.04725621
0.008804239 -0.0732169 -0.43509704 0.027995333 -0.082293645 -0.0096770795 -0.12651056 0.027284672
0.0073822914 0.021579843 -0.21936515 0.055880155 -0.18746658 -0.020747589 -0.2293564 0.035381693
-0.0021000344 -0.5280809 -0.3999056 0.03359071 -0.05315918 -0.19078703 -0.23985855 0.14882438
-0.22694448 0.07795173 -0.023757217 0.01795039 -0.06920814 0.06757423 0.016479077 -0.33173183
-0.20996179 -0.052005325 -0.29639277 -0.41314116 -0.0052240337 0.0027522754 -0.09299547 -0.15018065
-0.019729977 -0.07302353 -0.15917951 -0.02452165 -0.045313243 -0.05433062 -0.19812195 -0.025698127
00000000: a3e1 b83c 946e 0d3d a94a ddbd c09c 1fbf
00000010: c66e a7bd c0bc 18be f4bd 203d 5630 073e
00000020: 9217 d13d 1072 2fbf 6468 8abc 56b6 14be
00000030: da37 86be 42e6 69bf 0da6 443c 2cf2 38be
00000040: ad3e 09be 04b6 1fbe a2e1 19bb 7377 a33c
00000050: 80ba 6fbe 3290 52be 3b51 b43d 5d2c 54bc
00000060: 3113 80bd 9f41 b9bd 72cd 7cbd 5c9d f63d
00000070: 8b0a 933d 0c7b 49bd db2b 053d 9a75 40bf
00000080: c1a3 ef3c adcd bdbe 67ac 17bf a155 39be
00000090: 42e2 1cbf 636e 22bd 5a36 0abf e6a0 debc
000000a0: 9e6d 5dbd e8fc 8dbe b94c 7dbd 8c82 cbbd
000000b0: 1c42 60bd 8496 7bbd 6ed9 aa3d 015b e6bd
000000c0: 1064 51bf 5d51 75bc 4e42 05bf f81a abbe
000000d0: 8b06 b03d 5c57 4abe 1349 fd3c c1eb e0bc
000000e0: ef1b 8d3d dc17 533d 55e5 e0be f6b9 09bd
000000f0: 25db 52bd 339f a63d 0ff3 923d 9acc 9dbd
00000100: 361c 623d 8dbf b1bc ddf8 91be 2f60 e6be
00000110: ccb7 313d e536 72be 5938 38bd d53a 0c3e
00000120: eeac 98bc 9767 42bf bc27 c23c 06db 183d
00000130: e992 513c 0edc 2ebf 2e86 80bd 8e97 c4bc
00000140: 81eb 3dbe 551e efbd df26 86bd 8523 8f3d
00000150: e1b9 9b3d dacd 2dbe c57a 483b 0456 a83d
00000160: b581 a5bd ba19 cfbd 8605 9b3d ed5a a7bd
00000170: 9b87 abbd 7417 b3bd c15b bbbb a94d 60bf
00000180: baa6 203e 4e4a 26bf 9e77 31be 3568 813d
00000190: a986 823b 5300 0c3d 1f33 19bf d2c7 35bd
000001a0: 5e2e 823d 4caf 23be 57a0 f13d 005a b8bd
000001b0: d532 afbd 5e39 a9bd 4f3f 0dbd 4d23 8cbe
000001c0: 5116 7dbf 373e e53d 931d 55be 6110 18be
000001d0: 7a48 ee3d ca6b a6be 8a13 873d 977e a33d
000001e0: d0ba 87bd b8a7 053d 77fe 3dbf f95a 72bd
000001f0: 0aa8 b4bb c97d 79bb 8c7b d53d e2c9 553d
00000200: 3fcb f3bc 49cc 783d 42a7 dbbd 9931 b1bf
00000210: b33d 19bc 1d4e 573d c439 d5bd 1fce 88bc
00000220: adc9 b93d f7f6 e7be 3e5f 38bd 8da8 71bd
00000230: 56b5 66be a9d3 50be d0b9 9fbc 4bc1 99be
00000240: e138 65be 3140 33bd d989 1dbe 433d 72be
00000250: e3e0 85bd 98df 8cbd 5965 f53c 02ac f1bd
00000260: e86e 173d 30ff c83a 445c bf3d 695a 143d
00000270: c222 293c 8bf0 3cbd 88b3 1d3a fe9a cdbe
00000280: 829b 80bd e233 94be 504d 83bf 1d62 313c
00000290: 573b 70be 0abe 323c 2ee2 bdbe 31e1 96be
000002a0: 113a 3d3d 6960 5abd c30c febc af08 1ebe
000002b0: 0779 043d 4204 363b 397a 15bd 4483 96be
000002c0: c129 5bbf 4950 3abe dffe 94be b120 29bf
000002d0: c88e e6bd 0033 07bd bbcf e5bd e979 87bd
000002e0: a290 7cbd cdc4 00be dee0 03bf e7a1 46bd
000002f0: dc0b 98bd cd55 42bd 448f b73c 76e9 e5bd
00000300: fff3 343d b731 1fbd 082a 1dbe b061 8fbe
00000310: 04b7 e43c 75c0 fbbd acde 48be 305f c33c
00000320: cb67 eebd 1b01 b1be 7533 c63d b4a9 26be
00000330: e9b5 9a3d b397 3cbe 6274 a6bc ba8f 41bd
00000340: a83f 103c bef2 95bd 0ac5 debe 7856 e53c
00000350: 9289 a8bd 9d8c 1ebc fc8b 01be 1b84 df3c
00000360: 26e7 f13b 36c8 b03c 42a1 60be 97e2 643d
00000370: 3df7 3fbe d9f6 a9bc 67dc 6abe 65ec 103d
00000380: bba0 09bb 4f30 07bf 6dc0 ccbe 6a96 093d
00000390: 71bd 59bd ad5d 43be 7b9d 75be 6b65 183e
000003a0: 2264 68be 28a5 9f3d 7f9e c2bc b20c 933c
000003b0: ffbc 8dbd 5c64 8a3d 21ff 863c c1d8 a9be
000003c0: 3900 57be 8903 55bd cbc0 97be 3d87 d3be
000003d0: 5f2e abbb 855f 343b 6974 bebd f5c8 19be
000003e0: c3a0 a1bc 5c8d 95bd f4ff 22be a1e1 c8bc
000003f0: 619a 39bd c989 5ebd 7be0 4abe e184 d2bc

classifier.bias f4 [206]
0.03982636 0.03823693 0.12729144 0.01951198 -0.018456483 0.065871194 0.09244444 0.1295047
-0.022659078 -0.023526326 -0.09676317 0.07970339 -0.08548864 -0.029622946 -0.07103704 -0.0072979243
0.08299642 0.066297375 -0.17794578 0.13935861 0.12275394 0.09772283 0.017020468 0.14044768
0.0805505 0.05948582 0.0751494 0.0011202174 -0.10001288 0.059826568 -0.087225184 0.017612925
0.1496374 -0.02524971 -0.1255943 0.15147957 0.06276585 0.014682752 -0.09636597 0.033230443
-0.0018701676 0.09216472 0.022911504 0.05030135 -0.06772706 -0.08289223 -0.11701955 0.01231157
0.11578624 -0.035344176 0.019939583 -0.013620062 0.01730639 0.05942777 0.063841105 -0.012859299
0.053884145 0.022717882 0.18883878 0.08205487 -0.056665465 0.07123953 -0.018214097 0.061261058
-0.038836256 -0.05233642 0.016637295 -0.04818187 0.1781409 -0.05598813 0.068530016 -0.027250351
-0.010942195 -0.09565143 -0.079881534 0.03272324 -0.22104348 -0.07867824 -0.042508315 0.07551056
0.16697417 0.08569209 -0.045434643 0.00031222394 -0.104637146 0.049503446 0.095758475 -0.029483499
-0.045359626 0.089628905 -0.1342854 0.120002046 -0.107173264 -0.03284241 -0.038715925 -0.17954081
0.108145915 0.026927939 -0.0015567173 -0.13785979 -0.016611319 -0.037303213 0.05658172 -0.10449339
0.02882705 -0.030275866 0.069789164 0.043289077 -0.008079453 -0.14084063 0.01360858 0.06476523
-0.014262753 0.016102282 -0.080712564 0.057328332 -0.07849758 0.08316017 -0.1329577 0.106871806
-0.05286171 -0.0904064 -0.013284096 0.059589434 0.062308036 -0.085184164 -0.067043625 -0.095776334
-0.033905674 0.19034654 -0.11777595 0.00982061 -0.087992474 -0.045115456 0.016625043 -0.016119536
0.0015798208 -0.044133645 0.058851276 0.06057991 0.077199444 -0.08959508 -0.027287379 0.06271202
0.11346387 -0.04667364 0.030205827 -0.10556819 -0.10339146 -0.03672803 -0.09445782 -0.052390035
0.064991996 -0.039636504 -0.12804292 -0.038304523 -0.051466435 0.07708608 -0.045939185 0.06543282
-0.03843325 -0.011494981 -0.088672 -0.08439385 -0.00793875 -0.0425627 0.03814257 0.114076406
-0.08019297 -0.10020651 -0.08340547 -0.009182897 0.043272976 -0.010202686 0.09198757 0.009202158
-0.14651361 0.029942907 -0.17840871 0.03239923 -0.020008719 0.06259228 0.023919322 0.06404203
-0.05383805 -0.10054387 -0.18467157 0.0025117756 -0.047532935 -0.1331331 -0.03436843 -0.15504818
-0.14106096 0.10884108 0.033277623 0.010822807 -0.024125371 -0.07573218 -0.017076395 -0.03317555
-0.0052296803 0.08631687 0.018122725 -0.010968577 -0.0018333687 0.060509335
00000000: f720 233d 549e 1c3d b058 023e 96d7 9f3c
00000010: 0d32 97bc 7ae7 863d 8353 bd3d e19c 043e
00000020: 889f b9bc 48ba c0bc c52b c6bd 883b a33d
00000030: ab14 afbd d2ab f2bc de7b 91bd 6d23 efbb
00000040: 07fa a93d ebc6 873d 6b37 36be 06b4 0e3e
00000050: 6b66 fb3d e822 c83d 826e 8b3c 84d1 0f3e
00000060: a9f7 a43d 67a7 733d eee7 993d 42d4 923a
00000070: 8ed3 ccbd b40c 753d 1ea3 b2bd fb48 903c
00000080: 8c3a 193e 7bd8 cebc cb9b 00be 761d 1b3e
00000090: 628b 803d ed8f 703c 865b c5bd a51c 083d
000000a0: 6920 f5ba dbc0 bc3d e8b0 bb3c ca08 4e3d
000000b0: 7cb4 8abd 67c3 a9bd f2a7 efbd 78b6 493c
000000c0: 5621 ed3d 0ec5 10bd 5658 a33c ae26 5fbc
000000d0: 21c6 8d3c 896a 733d 20bf 823d cfaf 52bc
000000e0: 9fb5 5c3d da1a ba3c f45e 413e 620c a83d
000000f0: 0c1a 68bd 08e6 913d bb35 95bc e0ec 7a3d
00000100: c412 1fbd b75e 56bd f04a 883c 5a5a 45bd
00000110: 916a 363e cf53 65bd 7759 8c3d 213c dfbc
00000120: e446 33bc e6e4 c3bd ee98 a3bd ce08 063d
00000130: 3959 62be 0f22 a1bd 331d 2ebd 48a5 9a3d
00000140: 47fb 2a3e 567f af3d ad19 3abd fdb1 a339
00000150: 004c d6bd 20c4 4a3d 051d c43d 6187 f1bc
00000160: 04cb 39bd 5c8f b73d 1d82 09be a2c3 f53d
00000170: a87d dbbd c385 06bd 9794 1ebd 8cd9 37be
00000180: 9b7b dd3d fb97 dc3c c40a ccba 1e2b 0dbe
00000190: 7614 88bc 41cb 18bd 3cc2 673d a100 d6bd
000001a0: b526 ec3c 1805 f8bc 9fed 8e3d e34f 313d
000001b0: af5f 04bc 8738 10be 86f6 5e3c a2a3 843d
000001c0: 52ae 69bc efe8 833c a14c a5bd 1dd1 6a3d
000001d0: 57c3 a0bd e14f aa3d 1026 08be 9bdf da3d
000001e0: 8585 58bd fe26 b9bd 89a5 59bc 0d14 743d
000001f0: b636 7f3d 0975 aebd 2b4e 89bd 6226 c4bd
00000200: ade0 0abd 34ea 423e 8434 f1bd a0e6 203c
00000210: 6635 b4bd fcca 38bd 3e31 883c 1e0d 84bc
00000220: fd11 cf3a 7bc5 34bd 090e 713d a422 783d
00000230: be1a 9e3d a07d b7bd c889 dfbc 296f 803d
00000240: bf5f e83d dc2c 3fbd 3672 f73c 2334 d8bd
00000250: e7be d3bd 2170 16bd 1a73 c1bd ef96 56bd
00000260: 861a 853d e359 22bd af1d 03be 34e5 1cbd
00000270: 78ce 52bd 4fdf 9d3d ba2a 3cbd a401 863d
00000280: 2f6c 1dbd 7255 3cbc aa99 b5bd afd6 acbd
00000290: 8811 02bc 3a56 2ebd 623b 1c3d e4a0 e93d
000002a0: 363c a4bd 1239 cdbd 7dd0 aabd dd73 16bc
000002b0: 013f 313d 2b29 27bc fb63 bc3d a6c4 163c
000002c0: aa07 16be d44a f53c c6b0 36be 0eb5 043d
000002d0: 53e9 a3bc 6230 803d 74f2 c33c 7828 833d
000002e0: 4a85 5cbd f2e9 cdbd 8b1a 3dbe 9a9c 243b
000002f0: e5b1 42bd 0b54 08be e9c5 0cbd f3c4 1ebe
00000300: 4972 10be 12e8 de3d 1e4e 083d 2552 313c
00000310: 92a2 c5bc 7919 9bbd cce3 8bbc 16e3 07bd
00000320: bd5d abbb e6c6 b03d 1c76 943c 8cb5 33bc
00000330: a54d f0ba a3d8 773d
