notebooks/checkpoint_epoch_0.pth (torch, 150276 bytes, 8 tensors)

features.0.weight f4 [16, 1, 3, 3]
00000000: 7949 a03e 0d82 3d3e cf14 bf3d 2dab 64be
00000010: 663c 25be 25e3 a0bd 1168 b03e 208e ed3d
00000020: cdcd afbd fec1 75be 5bdd 7ebd f9fc 953c
00000030: c748 6fbe 6939 15be 51f1 c63d f873 febd
00000040: 1b5a 5b3e a81a afbd 56e4 babd 3a5f 0c3e
00000050: c870 b53c c465 4bbe 6e7a 96be c79d 73bd
00000060: 30a0 d3bd 0d98 36be 5390 89be 275e 303e
00000070: fa53 7ebc b0ac 0cbe fe56 a5be b7a8 2b3c
00000080: 9779 553e e719 903e b4b4 c4bd 4708 cb3d
00000090: 1d34 a8be abd5 2fbe 38a3 a5be 32df 853e
000000a0: 5ad9 7b3c 71c8 983e d051 ec3c edef 1fbe
000000b0: d9fc 923c e4dd a73e 6995 2c3e f8bc 15be
000000c0: 7b81 383e c274 e0bd 209a 633e badf 94be
000000d0: 57a6 423e 8e35 43be ab31 e73d c5ea 903e
000000e0: 59fd 53bd 2a16 61be ab4e 3dbe 5431 af3e
000000f0: 0522 d4bc ba94 663d 7dd1 993d 0870 853e
00000100: 01f9 9cbe 356f 9ebe 0e43 24bd 2bbe 5dbc
00000110: a873 a9be 55ab 04be 8a54 8e3e 395b 86be
00000120: ec6c 1bbe f94a 143e a46f 51bc 8340 afbd
00000130: f587 07bd 135d 4a3c dcee 683e 9915 22be
00000140: 33ef 11be d3dd 873e 510f 63be efee adbd
00000150: ef70 493e 4836 23be 805b 73be dcdc ff3c
00000160: 140c 833e c263 1bbe c065 1a3d 0386 8dbd
00000170: fb82 46be 55f2 6bbc dbb7 a13e 523b e9bd
00000180: d180 913e 4e7a 52be 6775 2dbd b6b4 083d
00000190: 355e 0bbe da2c 36bc 39cd d13d bb86 39be
000001a0: de3c acbd bd81 c43c 9f53 abbd e777 8bbe
000001b0: 4b34 00be 0980 a4be 6eaa 93be c8d0 2b3e
000001c0: ab9c 34be 3150 18be c654 8a3e 5c28 f1bd
000001d0: 4942 84be 76e5 94be 3707 a13e ec89 efbb
000001e0: 8381 063d 163d 443c 481d bfbd 3e93 e63d
000001f0: a558 6bbe eb6f b6bd c887 e7bc 8eee 63be
00000200: 235b ebbd 2a58 333d af48 7dbe 4d84 863d
00000210: 6cb7 7a3e de5c 87be 2a2e 903e 9737 093e
00000220: 3431 4abd b0b4 9a3d 78cc a23d ddbd 8dbe
00000230: 1d82 98be daaa 403d beb4 8a3d 7777 90be
0.31306055 0.18506642 0.09330141 -0.22330923 -0.16136321 -0.078558244 0.34454396 0.11599374
-0.08584175 -0.23999783 -0.06222282 0.018309103 -0.23367606 -0.14572681 0.09713996 -0.12424463
0.21421091 -0.08550006 -0.09125583 0.13708201 0.022148505 -0.1986304 -0.2939028 -0.05947664
-0.10333288 -0.1783144 -0.26867923 0.17223416 -0.015522951 -0.1373775 -0.32292932 0.0104772365
0.20847164 0.28144762 -0.09604779 0.09913688 -0.3285226 -0.17171352 -0.3235109 0.26146847
0.015371645 0.29840425 0.028847605 -0.15618868 0.017942833 0.32786477 0.1685387 -0.14622867
0.18018143 -0.1095977 0.22226763 -0.2907694 0.19008766 -0.19063398 0.1128877 0.28304115
-0.051755283 -0.21981111 -0.1848704 0.34217322 -0.025895128 0.05629418 0.0751066 0.26062036
-0.30658725 -0.3094422 -0.04010301 -0.013534109 -0.3309605 -0.12955983 0.27798873 -0.26241472
-0.15178269 0.14481725 -0.012782965 -0.085572265 -0.033088643 0.012351292 0.22747368 -0.15828551
-0.14251404 0.26536426 -0.22173811 -0.084928386 0.19671987 -0.15938675 -0.23765373 0.031233244
0.25595152 -0.15174773 0.037694693 -0.06910326 -0.19385903 -0.014401038 0.31585583 -0.113882676
0.28418592 -0.20554468 -0.04234829 0.033375464 -0.13610156 -0.011119092 0.10244221 -0.18117802
-0.08410047 0.023987645 -0.08365559 -0.27239916 -0.12519948 -0.32128933 -0.28840965 0.16778862
-0.17637889 -0.1487434 0.27017802 -0.11775276 -0.25831822 -0.29081315 0.31450817 -0.0073101427
0.032838356 0.011977455 -0.09331757 0.11258553 -0.22983034 -0.089080654 -0.028262988 -0.2225897
-0.11491992 0.04378525 -0.24734758 0.06568203 0.24484032 -0.2643804 0.2816022 0.13400112
-0.04936333 0.07553995 0.079491556 -0.27683917 -0.2978677 0.047037937 0.06772755 -0.28216144

features.0.bias f4 [16]
00000000: bf3a 9b3e 24a1 59bd 49ba 893e ef57 00be
00000010: 21e8 103e 7e79 63be e5a9 e63d 0db0 d93d
00000020: 061f 393e 68ce 1e3e b73c 403e a443 913e
00000030: 4632 16be 7bdf 15be a732 9e3d 5dd0 4ebe
0.30318257 -0.05313219 0.26899937 -0.12533544 0.1415105 -0.22214314 0.112628736 0.10629282
0.18078241 0.15508425 0.18773161 0.28371918 -0.14667615 -0.14636032 0.07724505 -0.20196672

features.3.weight f4 [32, 16, 3, 3]
00000000: 4a24 b23d 4405 c33d 74e7 9ebc 368f 193c
00000010: eae6 6d3d 425a 853d 47ea b43d 010e bd3d
00000020: f46c 283d 9a30 cebc 8297 a03d 75ae 6b3d
00000030: 7b3b 43bd c407 5d3d 5dbe ca3b a8e9 a13d
00000040: 4e70 95bc c238 42bc 8e3e 623d ec05 79bc
00000050: 34a2 c53b 0d48 973d 9283 ae3d 1467 febc
00000060: 1e63 6ebd d372 a03d 6803 a83d c55a 0c3b
00000070: ad55 853c 45d2 ad3d 5b74 533d 8921 0abd
00000080: 8b14 0c3d 1fb4 adbb 8893 833b 98a5 3d3d
00000090: e8b2 a23d ef85 0ebd db84 8f3d 4481 153d
000000a0: dd2e 58bd 4b84 23bd b3b3 3dbd b5f0 0dbd
000000b0: afe5 683d 4f70 0bbd ba21 27bd 001e 22bd
000000c0: aa18 823d cebb cd3c bc2b 9fbd 4de3 113d
000000d0: 9929 2b3d 557f 3d3d 10cf 0d3d c19a 833d
000000e0: 48a4 b33d 6132 c23c 0425 7c3d 4ed3 88bd
000000f0: 8e8e c6bc ad66 06bd 5aa7 1ebd 8217 11bd
00000100: 3aa2 923b 00e2 0dbc 88c6 d0bc 4467 3b3d
00000110: da9f 91bc f382 25bc d93f 8e3d 7821 373d
00000120: dc14 b0bc 7a03 85bd c3f6 81bd f4b1 0dbd
00000130: 1459 09bc c896 8abc 4c1e 453d 8641 fe3c
00000140: c76e 04bd 4f01 3abd d629 57bc 6d0b 883d
00000150: f38b 8bbd c8b9 b1bc d9b3 853d 753e 91bc
00000160: d56f 3e3d d66d 53bc f7e2 1f3d deee bbbb
00000170: e669 a5bc efcc 8d3d 265b a83d f876 793d
00000180: bfbf 63bd 22d0 8c3b 0325 85bd ec6a c43d
00000190: 5084 973c 3c67 883c b4d7 2abd 5287 74bd
000001a0: 6bee 0cbc d2b0 9d3d 5a8a ae3c 99e5 153d
000001b0: bc93 1a3b e366 353d 9389 53bc ad6e 52bc
000001c0: 7d8f 5abd 5b76 4dbd e9d1 50bd bc01 373c
000001d0: 389e 50bd fb28 a4bd 7b97 7ebd dbd1 1b3d
000001e0: fd94 f6bb cc08 39bd 60f6 2f3d 286e b0bd
000001f0: 7853 26bb bcee 4fbd a713 9ebd e080 cb3b
00000200: 5f8c 813d 817e d9bc 2ac0 7bbd 50a4 7bbd
00000210: b3ee 4ebd b37a 323d e58d 93bd 64f8 94bc
00000220: 6237 033d e503 98bd ae4e e33c 41bc fc3c
00000230: 0b1e f23c 4784 5e3d c43f 223d 67c5 813d
00000240: 3c1f aa3d 42cc ca3d fe59 c2bc c935 a9bb
00000250: 0600 b83d 3950 b43c a3c0 563c 8fe0 2ebb
00000260: db58 913d ad97 8abd e9bf 2ebc fd7d 4abd
00000270: cccc 84bd 6e74 20bd 59c0 67bc 78e3 393d
00000280: 59d8 93bc 0895 b83d 5002 25bd bf6e 023d
00000290: e2ea cb3d 674b bc3d 5451 e83c 6cab af3d
000002a0: 93c2 d5bc 28e8 413d df4a 973d f6d7 1abd
000002b0: 7ac5 5fbd 1463 93bd 4fbd 643d 39c1 44bc
000002c0: e83f 5dbd 57f2 ebba 6b5c b5bb a8f7 41bd
000002d0: 4e4b 843d ff29 41bd 7ed2 be3d 938f a2bc
000002e0: 93cb 4fbd fc39 3f3d 7b05 20bd 79d8 653d
000002f0: 7083 8bbd c76a 083b 55ad 06bd 04e7 b1bb
00000300: abf9 79bd 4c85 b53d 40d8 91bd 9569 1f3c
00000310: d94b 3dbd d58d 9b3d f736 6f3d 6447 8cbc
00000320: 3ae7 1abd 633e bc3d 4a4b ae3d 9e47 84bd
00000330: f265 9b3d e0d9 643d 768b 0cbd d7cd 1e3d
00000340: 2098 0ebd 69b2 903b e2c7 493c 86d0 62bd
00000350: 2df1 dbbc 7d1c e13c 9d08 1e3d 8dfc cc3c
00000360: 6129 813c e957 0c3d 8873 703b b138 ccbc
00000370: 2737 dabc d179 973a 8b34 983d fe5a 3139
00000380: fea1 0c3d fe3c b83b a66f cb3c 8b8b 03bd
00000390: 45b9 4cbd 02da 883c 2c7c 28bc 3252 5d3d
000003a0: 8ff6 8c3d 3962 b03d 7c95 623d a78e 83bd
000003b0: 40d4 00bd d7bf 323b 454c d2bc f05d 5ebd
000003c0: 44ca 023d 5cfb fdbc 66ae 073c be4f 823d
000003d0: 5f65 793d 8dbf a63c 2c65 613d 2b92 3e3d
000003e0: f05f 3bbd f4f8 9e3b 3c74 c03c d199 d8bc
000003f0: 3b48 98bc 9178 77bd 240d ad3d 5c87 493d
0.08698328 0.09522489 -0.019397475 0.009372523 0.058081545 0.06511356 0.08833747 0.09231187
0.04111953 -0.02516966 0.07841398 0.057539422 -0.047664147 0.053962484 0.006187244 0.079058945
-0.018242028 -0.011854352 0.055235438 -0.015199166 0.006031299 0.073867895 0.08521189 -0.03105501
-0.058199994 0.07834401 0.08203775 0.0021416408 0.016276205 0.08487371 0.051624637 -0.033723388
0.03419928 -0.005301013 0.00401539 0.0463005 0.0794428 -0.034795698 0.07007762 0.03650023
-0.052779067 -0.039921086 -0.046313953 -0.034653384 0.05685967 -0.034042653 -0.04080365 -0.03957939
0.063523605 0.025113966 -0.077720135 0.03561716 0.041787717 0.04626401 0.0346213 0.06426001
0.087715685 0.023705663 0.06155874 -0.06680928 -0.024237897 -0.032812763 -0.038733818 -0.03542281
0.0044749053 -0.00865984 -0.025485292 0.04575278 -0.017776418 -0.0101020215 0.06945772 0.044709653
-0.021494322 -0.06494804 -0.06345894 -0.034593537 -0.008383054 -0.016917601 0.048124596 0.031037103
-0.032332208 -0.045411404 -0.013132533 0.06642804 -0.068138026 -0.021695033 0.06528444 -0.017729977
0.04649337 -0.012904605 0.03903481 -0.0057352623 -0.020192098 0.069238536 0.0822051 0.060904473
-0.055602785 0.0042972723 -0.065012 0.09590706 0.018495709 0.016650788 -0.041709617 -0.059699364
-0.008601765 0.076997414 0.021306206 0.036595915 0.0023586592 0.044287574 -0.012911218 -0.01284377
-0.053359497 -0.0501617 -0.050981436 0.011169847 -0.05093214 -0.08015629 -0.06215618 0.03804193
-0.007525085 -0.045174405 0.04295957 -0.08614761 -0.002537934 -0.050764784 -0.07718592 0.0062104315
0.06325602 -0.02654958 -0.06146256 -0.061435997 -0.05052061 0.043574046 -0.072047986 -0.018184848
0.03203524 -0.07422618 0.027747478 0.030851485 0.029555341 0.05432537 0.039611593 0.0633648
0.08306739 0.0990224 -0.023724552 -0.0051638824 0.089843795 0.02201091 0.013107452 -0.002668414
0.07097026 -0.06767211 -0.010665872 -0.049436558 -0.064843744 -0.039173536 -0.01414498 0.045382947
-0.018047499 0.090128005 -0.04028541 0.031843897 0.0995691 0.09194069 0.028359093 0.08577618
-0.026093757 0.047340542 0.073873274 -0.037803613 -0.054631688 -0.07196632 0.0558446 -0.0120089585
-0.054016024 -0.00180013 -0.0055346987 -0.047355324 0.06459676 -0.04715919 0.09317492 -0.019843852
-0.050731253 0.046686158 -0.039067727 0.056114648 -0.06812179 0.0020815597 -0.032880146 -0.0054291505
-0.061029118 0.08863315 -0.071213245 0.009729763 -0.046214912 0.07595412 0.058402028 -0.017123885
-0.03781817 0.09191587 0.08510454 -0.064589724 0.07587804 0.055871844 -0.034312688 0.038770523
-0.034813046 0.0044157994 0.012315722 -0.055374645 -0.0268484 0.027479405 0.038582433 0.02502277
0.015766801 0.034263525 0.0036689956 -0.024929376 -0.026637627 0.001155669 0.07431897 0.00016913933
0.034334175 0.005622505 0.024833512 -0.0321155 -0.049981374 0.016705517 -0.010283511 0.054033466
0.06882965 0.086124845 0.05531834 -0.06423693 -0.031452417 0.002727499 -0.025671134 -0.054288805
0.031931177 -0.031003647 0.008281326 0.06362866 0.06088769 0.02035501 0.055028126 0.046526115
-0.04574579 0.004851455 0.023492925 -0.026440533 -0.01858913 -0.060417715 0.08449772 0.049201354

features.3.bias f4 [32]
00000000: d65e 493d dbec 6c3d 4cfb 8f3d 114d cf3c
00000010: ddae ce3d fe75 e6bb 9ed3 3bbd 69e2 cebc
00000020: b73d ad3d 6781 333d 2ba6 15bd 80f1 e23c
00000030: eee9 86bc c82c 943d 3f24 e63c 9575 e0bc
00000040: d0ea 9c3d 76d4 00bd 4e3d 9b3d d3ba b5bc
00000050: 212c 9c3d 732e 293d 7f07 b03d 8bd8 bf3c
00000060: 2014 dd3c e078 163d d90b c23d 627d b13c
00000070: d05a 8d3d 17f2 ac3c 1e92 38bd f845 6cbd
0.04916271 0.05784307 0.07030353 0.025305303 0.10091946 -0.0070331087 -0.04585611 -0.025254445
0.08459037 0.04382458 -0.036535423 0.027703047 -0.016468968 0.07235104 0.028093455 -0.027399817
0.076619744 -0.03145262 0.07580052 -0.022183811 0.076256044 0.041304063 0.0859518 0.023418685
0.026987135 0.03673637 0.09474916 0.021666232 0.06902087 0.021111531 -0.045061223 -0.057683915

features.6.weight f4 [64, 32, 3, 3]
00000000: 168b 8bbb cdc0 cd3c ca05 1cbc a5b0 7b3c
00000010: 6bec 183d 2a89 cd3a 3b51 033d f40d 8d3d
00000020: 9260 0abc c099 cabc 9dbd 553c 1841 41bd
00000030: 8876 473d 0024 89bc e63c 96bc 97f6 363c
00000040: fc94 323c 04d2 dcbc 3e90 093d fd0c e2bc
00000050: 0628 b9bc 68b8 803c 7d85 6c3d dcb2 0c3a
00000060: b818 4cbd 9966 4ebd 3367 673d ec05 0cbd
00000070: dc45 9b3c 5956 093c 6004 21bb 66cd d23c
00000080: a2fa b13c 9fc7 fcbc bf93 b8ba 512e e03c
00000090: efdb 703d 5f3f ea3c f14f 1ebd cc58 593d
000000a0: 1a2f 7f3d 8d8e 193d e344 503d bc63 603d
000000b0: 481f d73c 563a dc3b cf20 5cbc 83b3 56bc
000000c0: 53c4 32bd f1fd 81bc 1356 4b3b cce2 313c
000000d0: 8418 4a3c 2294 98bc 75d4 0bbd 80ee 513c
000000e0: 7105 59bd 9039 50bd a18a 00bd ac95 803c
000000f0: debb 3a3d 8e9d d2bc 5cab 633d e3c8 aebc
00000100: 2919 0d3d 12ce d4bb d594 673d 178f 9a3b
00000110: c340 623d d722 fb3c 2a60 6d3d 951f 88bc
00000120: c954 da3c 52b7 fe3c 7b16 d43c 33c4 33bd
00000130: dfa7 5b3b 834d 143c 9afb 7a3d c6f1 0dbd
00000140: 9cd7 10bd f116 9eba c41e 753a 39e2 eabb
00000150: 9aed bcba 906f f03c eba5 b93c 7ef8 cdbc
00000160: e904 ca3c aeba 28bd d311 60ba 013c 3dbd
00000170: 772a d13c 15c0 5b3d f2f2 0cbc f089 a33c
00000180: 2dc5 2fbd a70b 013b aff9 1e3d 5c02 2d3d
00000190: 687b 143d a608 97bc b5b7 2c3d 0e22 b2bb
000001a0: af93 93bc c1d7 463c 5824 0a3d 9e4e 15bd
000001b0: c9fb 863d 0a69 a43c 1cd5 84bc 69eb d23c
000001c0: a608 38bd 9ef8 36bd d84c 13bd b65c 843c
000001d0: bb83 c23b 7bcf 5ebd 1a9d 64bd d471 bb3c
000001e0: 9076 f23c 3cb2 083d e5e3 58bd af81 b0bb
000001f0: f181 773d ea6a 633d 4197 193d 41ae c0bc
00000200: 5e02 cd3c 8dbe 02bd a6c8 2e3c 568d 55bd
00000210: 7505 95bb 25b9 323d 27c8 a0bc 30b5 8c3d
00000220: 44bd 89bc 7630 32bd 9318 0d3d 2ab3 33bd
00000230: 1e5c e839 4558 ed3b 2559 d13c 33b3 ef3b
00000240: 9f8d 35bd 70f1 7ebc a840 5fbd f56d 743c
00000250: 5a66 703d 3aa2 b5bc 1115 27bd 9f66 46bd
00000260: 17fb b93c 9b58 6e3d b782 883b 68a8 2e3d
00000270: 1d27 403d 0110 273d 2645 2b3d abf8 7f3d
00000280: c32d 35bd 18be 7d3d 4ce8 4f3d f721 703d
00000290: fdcf 21bd 5ad6 1b3c 025e 23bd ebaa 883d
000002a0: de49 ccbc 9295 cbbc ac09 943c 5b0e 603d
000002b0: b1b4 3bbd aece 5f3d 8986 14bd ba1a 88bc
000002c0: bd14 483c 7608 1cbc eca1 253d a211 b93b
000002d0: b5ce acbc 92bf 17bd 85d2 0d3d 0d1c e13c
000002e0: 5e15 9b3b 2fe6 92bc f436 573d 46e3 3cbd
000002f0: 9cda 743d 146e 563c 16f7 f9bc 4bea 23bd
00000300: 2aec bb3c 1c05 38bd f2a6 bbba da31 e23b
00000310: 5db3 6e3d c029 3abb 24e3 4bbd 4cd9 133c
00000320: 3eb0 303d 6d5d 573d f710 9f3b 87d4 653d
00000330: 385e c1bb c839 a33b 192c 8f3c 54a2 4a3d
00000340: 79e8 d0bc df24 2ebd 823b f2bc 79c9 6b3d
00000350: 12b0 893c 94ff 1ebd 7993 a2bc 11bc 5abc
00000360: f9ee 523d c7d0 1d3c d75a 84bb 5e98 133d
00000370: 04e6 f23a fca6 2fbd 494a c2bc 6c42 09bd
00000380: a538 8c3d 503a 823d 3535 223d 762f 953c
00000390: 6c57 ad3c 9ebb 9bbb 1a0b 463c 80f9 51bd
000003a0: 8484 1a3d 583a 1b3d b7a0 aabc 5b71 2abd
000003b0: 93bf 653d 8c54 053d a897 b3bc 8853 b53c
000003c0: 84fd 873d 717c 2fbd 0533 4c3d 655a 2fbd
000003d0: 3aee f43c 6dd0 1d3d 26e6 35bd 7e66 693d
000003e0: c257 63bc 30ad 993c 37ca 823c 71dd 4e3d
000003f0: a809 253d 04ad 25bc 82b6 9bbc c175 833c
-0.0042585237 0.025116349 -0.009522865 0.01536194 0.03733484 0.0015681137 0.03205989 0.06887427
-0.008445876 -0.024731517 0.013045696 -0.04718122 0.048697025 -0.016740799 -0.018339586 0.01116719
0.010899778 -0.026955612 0.033584826 -0.027594084 -0.022602092 0.015712932 0.05774449 0.00053672283
-0.04982826 -0.050390813 0.056494903 -0.034185335 0.01895421 0.008382403 -0.0024569258 0.025732707
0.021725956 -0.030856906 -0.0014082118 0.027365835 0.058803495 0.02859467 -0.038650457 0.0530632
0.06230078 0.037489463 0.050846945 0.054782614 0.026260033 0.0067208214 -0.013435557 -0.013104322
-0.04364426 -0.015868159 0.0031026646 0.010857295 0.012334947 -0.018625323 -0.03413816 0.0128132105
-0.052983705 -0.050836146 -0.031382207 0.01569637 0.04558932 -0.025709894 0.055583343 -0.021336025
0.034447823 -0.006494292 0.05653842 0.0047167647 0.055237543 0.030656261 0.057953037 -0.016616622
0.026651757 0.031093273 0.025889626 -0.043888282 0.0033516807 0.009051683 0.061275102 -0.0346544
-0.03536187 -0.001206128 0.0009350593 -0.007168081 -0.0014414073 0.029350072 0.022662124 -0.025142904
0.024660544 -0.041193657 -0.0008547578 -0.046199802 0.025532944 0.05364998 -0.008602845 0.019963235
-0.04291265 0.0019690783 0.038812336 0.04223858 0.036250502 -0.018436741 0.042167384 -0.0054361885
-0.018014757 0.012136401 0.033726066 -0.03645193 0.06590993 0.020069618 -0.0162149 0.025747018
-0.044930123 -0.044670694 -0.035961956 0.01615749 0.0059361137 -0.054397088 -0.055813886 0.022881426
0.02959755 0.033373103 -0.052951712 -0.0053865532 0.060426656 0.055521883 0.037497763 -0.02352059
0.025025543 -0.031920005 0.0106679555 -0.05213674 -0.0045477697 0.0436336 -0.01962669 0.06870496
-0.016813882 -0.043503247 0.034447264 -0.043872036 0.0004431912 0.0072431886 0.025555203 0.0073150634
-0.044324514 -0.015560493 -0.05450502 0.014918794 0.05869136 -0.022172082 -0.040791575 -0.04843771
0.022702737 0.05818997 0.004165973 0.042641073 0.0469123 0.040786747 0.041813992 0.062493008
-0.044233095 0.061948866 0.050758645 0.05862614 -0.039504994 0.009511555 -0.039884575 0.06673225
-0.024937566 -0.024851594 0.018071018 0.05470119 -0.045826618 0.054640464 -0.036261115 -0.016614307
0.012211976 -0.009523502 0.040437624 0.005647854 -0.02109466 -0.03704793 0.034624595 0.027479196
0.004732772 -0.017932026 0.05254264 -0.046115182 0.059778795 0.013087768 -0.030513328 -0.04001836
0.02293976 -0.044926748 -0.0014316721 0.0069029154 0.058276523 -0.0028406233 -0.049777165 0.009023976
0.043136828 0.052579332 0.0048543173 0.056110885 -0.0059011243 0.0049812533 0.017477082 0.049471214
-0.025501477 -0.04251563 -0.029569391 0.057565186 0.01680759 -0.038817957 -0.019845711 -0.013350503
0.051497433 0.009632296 -0.0040391493 0.03603398 0.0018531685 -0.042883858 -0.023717063 -0.03351061
0.068467416 0.063587785 0.039601523 0.018211108 0.02115985 -0.0047525903 0.012087608 -0.051263332
0.037724033 0.037897438 -0.020828588 -0.04161201 0.056090903 0.032551333 -0.021922901 0.022134557
0.06640151 -0.042843286 0.049853344 -0.042810816 0.029898752 0.03852885 -0.04440894 0.05698251
-0.013875904 0.01875934 0.015965564 0.05050415 0.040292412 -0.010112051 -0.019007925 0.01604736

features.6.bias f4 [64]
00000000: b358 bf3c cbb1 5d3d 9c28 e3bc 1a6c 263d
00000010: de64 e4bb b184 f63c 71c9 25bd 95ce 3abd
00000020: 095f 213d 210b 4bbd f157 71bd abc3 213d
00000030: 4f6d 68bd 6928 56bd a5bc 163d 5774 f9bc
00000040: 7c54 5c3d ff07 10bd e196 bc3c f72a 2d3d
00000050: 4e25 76bd 1e90 403d 7a11 a23a 269b 3f3d
00000060: 6fe1 eb3c 2831 98bc 2d14 7c3d fc47 67bd
00000070: ced7 1fba e2c5 98bc 519b c3bc 6c02 aaba
00000080: 204d 603d 3e1a 523c adb4 f03c fe25 a43a
00000090: 8518 37bd e298 2e3d d857 d03b bef0 3bbc
000000a0: a592 a33b 1ed6 de3c 6f2e 4a3d 7997 5e3d
000000b0: 2115 96bc 57ec 2e3d c6bc 7e3d 9ead 4c3d
000000c0: 226a 5ebd 12a1 dbbc 4ab6 b5bc 5078 6dbd
000000d0: f8db 9abb bc40 d6bc 6e5f 5fbc a699 3d3d
000000e0: 622d 943c 7c95 813d 0272 2a3d 34cb 62bc
000000f0: 0920 353d 6b11 0cbd a271 b23b 6d39 5dbd
0.023357725 0.054124635 -0.027729325 0.040630437 -0.006970032 0.030092569 -0.040475313 -0.04560717
0.039397273 -0.04957116 -0.058921758 0.039493244 -0.05674487 -0.052284632 0.036801 -0.030450983
0.053791508 -0.035163876 0.023021163 0.042277303 -0.06009417 0.04701244 0.0012364828 0.04677882
0.028794019 -0.018578127 0.06154268 -0.056465134 -0.0006097526 -0.018649045 -0.023877772 -0.0012970692
0.054761052 0.012823639 0.029383028 0.001252353 -0.044701118 0.04262627 0.006358128 -0.011470972
0.0049918466 0.027201708 0.04936069 0.054343674 -0.018320622 0.04270586 0.062191747 0.04997026
-0.054300435 -0.026810203 -0.022181649 -0.057976067 -0.0047259293 -0.026153915 -0.013633592 0.04628911
0.018088046 0.0632734 0.041612633 -0.013842393 0.044220004 -0.0341963 0.005445675 -0.054009844

classifier.weight f4 [206, 64]
00000000: b8f5 81bd 4ff2 81bd d70f f3bd c2ef 9f3d
00000010: 128a 34be fbf3 50be 80e4 d8bd 4fb9 ab3b
00000020: 772b 903c 155c 803d 4bf5 81bc 92d8 5fbe
00000030: d293 d1bc 188f 9bbd 9d26 3c3d 1644 a83d
00000040: 46bd 8bbd cc15 7f3d 6f07 05be ed95 bfbd
00000050: 79c9 c2bd dc8f 2abc 689f dfbb c866 dbbc
00000060: 2921 9ebc 83c1 b6bd f343 2abe 049f ab3d
00000070: 9689 9cbc 22f6 27bc 3514 0abd 2fb6 5c3d
00000080: 6ee4 98bd 1904 563d 3d49 06be 3c77 82be
00000090: a743 65bd 2fd8 6fbd 26f4 9c3c 8bfd c73d
000000a0: 384c 2ebe ceb8 74bd 3f6b 22be ecbb eabd
000000b0: 9ec9 c8bd a239 03be 0019 453c bb1c b1bc
000000c0: e578 6bbb a553 b2bd 603f 64bd 02a6 30be
000000d0: 42c8 b13d 7205 12be 3405 8dbc 20bb e6bd
000000e0: 27e9 00bd 0b58 a63c 91e9 dd3c 14d9 873d
000000f0: ad41 103b 3b9a 35bd d6a9 63bd d37b 09be
00000100: a4b7 28bd 6692 09be 0171 68be 1d9d 503d
00000110: 8b6c 98bd 2f4a 50be d561 34be 8693 a0bc
00000120: 6164 1dbe a306 e4bd 2f45 cc3c bb3f 15be
00000130: 963f cc3d 0fcd 253b 4a8b d5bd 7998 ba3c
00000140: 6375 b8bc 2918 463c 3598 11be dbc2 eebd
00000150: 2e48 b4bc 525c 7abc a71f 1ebe 7025 723a
00000160: 00f3 1dbd c43e e0bd f721 a53a 234d 07be
00000170: 1224 40be ab8e 27be 1490 a7bd ec51 25be
00000180: 4bf4 0ebc 59ab 7cbd bf47 13be 21a3 a8bd
00000190: c74d f23d 8340 7bbc ee84 ccbc a4c0 babd
000001a0: 1df5 0cbb 4d93 cebc 8465 efbb 8a5a 52be
000001b0: ffa5 46be 3fba 30be cf97 58be 15ef 13bd
000001c0: d6c5 9cbd 0ed9 52bd 62be 72bd 292b 803d
000001d0: 7dce f03d cbf4 2abe e5af b5bd c1b4 4d3c
000001e0: eb04 20be ed70 35bd fd90 b4bd 5b70 af3d
000001f0: c1fb 22bc 8a5a 15be 5154 ffbc 74b2 d23b
00000200: 8d7e cbbd e10c 16bd 4207 58be 4930 a4bd
00000210: 4b94 dfbd c280 4ebd d9cd 40be 6581 4cbd
00000220: 3f44 9dbb 648d 1f3d edc1 34bd 02e2 98bd
00000230: 57e1 4cbd d9de c93b d8ed 9fbc 5548 b5bd
00000240: 5c21 4abe 01f5 c63d 8307 36be ffbc 9dbd
00000250: f76f b43d 3839 5c3d 060e 2abd 970f 43be
00000260: a2c3 7e3d 966e b5bd d0d6 c7b9 6f64 a0bd
00000270: 0fcd babd fcb1 28bd 0f18 a7bd a2b0 00be
00000280: d10e 23be 3a46 00bd 1542 77bd 4026 42bd
00000290: 327b 91bd 85d7 b0bc c40a 89bd f3f7 c5bd
000002a0: 4ca9 6bbd 3fef 783d ae3c d1bd 41c0 3cbe
000002b0: 3022 56bd 0709 cebd 8794 edbd bd19 a83d
000002c0: ffe3 17be 05e0 4cbe 3105 efbd 86b3 c4bd
000002d0: 3122 e5bd f33e a9bd d4ad 45be df21 36be
000002e0: 40cd 35be e963 41be 2c7d 2dbd 6a0f b4bd
000002f0: 501f d7bd 9435 0bbe a030 a0bd 7157 01be
00000300: 5182 d53c 45e7 fcbc aedc 2bbe 5167 133d
00000310: f153 4abd 6510 11be e955 88bd 467f 373c
00000320: 4bbe 03be 1c01 1fbe 2b0f ca3d 6fcd 3fbe
00000330: 1210 a43d aca5 d43d 2294 03bb 3c56 8f3c
00000340: 6b69 0c3d 2830 373c 075f dfbd 70df d53d
00000350: 015c 86bd b0d7 1abd c8a7 ebbd fc9c 29bd
00000360: 4090 003d 16cb d7bc 1cf8 12bd 44e0 5c3d
00000370: ecb6 20be 9e9e e2bb cb8e 3fbe 3f71 b03d
00000380: d9f9 c9bc 39a5 d43c 3ffc c6bd 768b 88bc
00000390: 89e6 c43d 457b 28be 5915 3b3d c6c3 d53d
000003a0: 29f1 a2bd 000f db3d 9bea 82bb 1676 a7bd
000003b0: e20c 23be a147 af3c 10cd 50bd bad5 08be
000003c0: 872c 193d 4c14 e4bc 49d4 92bd 88b4 18be
000003d0: c723 f3ba c689 69bd 7d18 10be c4cc 9dbd
000003e0: 2f0c 18bc 8c84 00be c73c 933c 47b7 9dbd
000003f0: 6539 f8bd 9b61 443a 3e16 0abe 2c29 e6bd
-0.06345695 -0.06345045 -0.118682556 0.07809402 -0.17630795 -0.20405571 -0.10590458 0.0052405964
0.01759885 0.06267563 -0.015864035 -0.21859959 -0.025583182 -0.07595652 0.045935262 0.08216111
-0.068232104 0.062276646 -0.12991117 -0.09354768 -0.09511084 -0.010410275 -0.0068244226 -0.026782408
-0.019302921 -0.08923628 -0.16627483 0.08379939 -0.019108575 -0.010251554 -0.033710677 0.05388468
-0.074654445 0.05225 -0.13113876 -0.25481594 -0.05597272 -0.058555778 0.019159388 0.09765156
-0.17021263 -0.059746556 -0.15861224 -0.114616245 -0.098040804 -0.12814954 0.012029886 -0.021620145
-0.0035930213 -0.0870736 -0.0557245 -0.17250827 0.08680774 -0.1425989 -0.017214395 -0.1126616
-0.03147235 0.020305654 0.027088912 0.06633201 0.0022011802 -0.04433654 -0.05558189 -0.13426141
-0.04119076 -0.13434753 -0.22699358 0.050931085 -0.07442578 -0.20340799 -0.17615445 -0.019601595
-0.15370323 -0.11134078 0.024935333 -0.14575092 0.099730656 0.0025299226 -0.10426958 0.022777783
-0.022516912 0.012090721 -0.14218219 -0.116582595 -0.022007074 -0.0152808 -0.15441762 0.0009237146
-0.03856182 -0.109494716 0.0012598623 -0.13213019 -0.1876376 -0.16363017 -0.081817776 -0.16144532
-0.008725236 -0.061686847 -0.14382838 -0.08234239 0.11831241 -0.015335205 -0.02496573 -0.091187745
-0.0021508404 -0.025216723 -0.007305803 -0.2054235 -0.1939926 -0.17258547 -0.2115166 -0.03611668
-0.07654922 -0.05147653 -0.059263594 0.06258232 0.117581345 -0.16694944 -0.0887144 0.012555302
-0.15626876 -0.044297148 -0.08816717 0.08566352 -0.009947718 -0.14585319 -0.031168135 0.0064299647
-0.09936247 -0.036633376 -0.21096519 -0.08017022 -0.109169565 -0.05041576 -0.18828525 -0.049928088
-0.0047993953 0.0389532 -0.044130255 -0.074649826 -0.05001959 0.0061605987 -0.019522592 -0.08851687
-0.19739288 0.097146995 -0.17776303 -0.07702064 0.08810418 0.053765506 -0.04151728 -0.19048916
0.06219829 -0.08858983 -0.00038116286 -0.07831656 -0.09121143 -0.041185364 -0.08158886 -0.1256738
-0.15923621 -0.031316973 -0.060365755 -0.04739976 -0.07103576 -0.021587143 -0.066915065 -0.09666433
-0.0575345 0.060775038 -0.10216652 -0.18432714 -0.052278697 -0.100603156 -0.11600595 0.08208034
-0.14833067 -0.20007332 -0.11670912 -0.09604554 -0.11188162 -0.0826396 -0.19304591 -0.17786358
-0.17754078 -0.18885769 -0.0423557 -0.087920025 -0.10504019 -0.13594657 -0.078217745 -0.12631012
0.026063116 -0.030871997 -0.16783401 0.035987202 -0.04939646 -0.1416641 -0.06657011 0.011199778
-0.1286556 -0.15527767 0.09866174 -0.1873071 0.08010878 0.10383162 -0.0020077308 0.017497174
0.034280222 0.011180915 -0.10906797 0.10443008 -0.06560517 -0.037803352 -0.11506611 -0.041409478
0.031387568 -0.026341956 -0.035881147 0.053924814 -0.15694779 -0.0069158813 -0.18706815 0.0861535
-0.02465527 0.02595769 -0.09716081 -0.016668063 0.096142836 -0.16453274 0.045674656 0.104377314
-0.07956154 0.106962204 -0.0039952523 -0.0817682 -0.15922883 0.02139646 -0.050976813 -0.1336278
0.03739598 -0.02784171 -0.071693964 -0.14912617 -0.0018550091 -0.057016157 -0.14071842 -0.077050716
-0.009280249 -0.12550563 0.017973317 -0.07700973 -0.12120322 0.0007491351 -0.13485047 -0.11238322

classifier.bias f4 [206]
00000000: 67dc 31bd 4e8c 47bd e896 ff3c b237 80bc
00000010: 06e8 d9bd 1039 453c 0281 363d a4d8 113d
00000020: ca1d 18be 4f0a 10be 4506 01be 332b cf3c
00000030: 7892 b5bd 7e42 0ebd 434c 82bc ec01 423d
00000040: 900e 303d 33df 0d3c 6773 2abe fc9e c73d
00000050: f745 a03d c32a 953c b451 e23b 8d34 623d
00000060: 2f44 10b9 2622 89b7 bb96 463d be7b b1bd
00000070: cc71 08be 6b8a e53c 64ff 58bd 7875 d2bc
00000080: 4e12 ea3c 7eb7 e7bd 1135 bebd 311b 013d
00000090: f6f7 833d 874a 053c 4a8b 25be 36a0 c6bc
000000a0: 9f97 cb3b 910e 443d b6c8 e43c 93b3 393d
000000b0: da09 e0bd eae3 02bd 5a6f 03be c207 c73c
000000c0: bcda 833c fc96 c0bd d1aa 64bd de42 2ebd
000000d0: b5bc 58bd c53e 6f3d 0913 7fbc c14f b8bd
000000e0: d681 c438 add2 8fbc e0bf 233d 9337 0fbd
000000f0: 10aa ddbd 6b10 87bc ea13 1d3d d167 1f3c
00000100: dc9f 00bd ecb6 7dbd 2f66 49bd d3c3 22bd
00000110: 33a7 743d 74e4 a9bc 91fb e53d da4e 293d
00000120: 8a4c b93b 8a67 90bc 5b22 1bbd f6b5 113d
00000130: 968c 0abe ec12 15bd 0234 27bd fe29 fe3c
00000140: f915 ef3d bd2f a43d 7b9b 4abd 7807 c4bc
00000150: f689 c4bc c41d a23d 64c0 883d 776e ea3c
00000160: a131 d8bd 628d c73d 5cc2 18bd 4872 d73d
00000170: 42cc a9bd a3fb 9ebc e136 41bd 0a2e 00be
00000180: 8336 bf3d f377 293d 60f3 8abd 7bc5 e6bd
00000190: 310a 9e3b 0129 92b9 c8ab 3b3d 8f86 afbd
000001a0: df43 133d 68d7 70bd 4187 953d bf10 853d
000001b0: 037d 073c e5ed e0bd e92d 51bc ff47 513d
000001c0: 3fe0 f73b a202 b5bc 72bd c2bd 7655 9f3d
000001d0: 0ccf 9bbd 3efa 983d 93d2 ebbd c37c c93d
000001e0: af95 983b 9407 28bd a6de 813c dd8e 563d
000001f0: aad1 f03d e091 71bd f458 fbbd 47c9 86bd
00000200: 0e1e 82bd 4418 e43d c9cb 8abd 5a4e 3abd
00000210: 0e7c b9bd e741 8b3c f76e 9b3b f624 cb3b
00000220: 4c29 083d ffec 6ebd 44a4 313d da43 373d
00000230: 0770 773d b181 8fbd ea8f 76bd 9ff7 2f3d
00000240: 224e 033e 64dc b2bd 08c8 9a3d b261 5dbd
00000250: 1279 95bd ae44 a7bc 9118 aabd 7f5c bf3c
00000260: d4cc 9b3d d968 463d 9099 03be de3c 42bd
00000270: f70b 8abd 36fa 933d 17be 9cbd 4fa4 a93d
00000280: 244a 07bd e8a8 1e3c 552a f0bd 3bfd d5bd
00000290: c7b4 4a3c 460d 37bd 2935 1b3d 20c7 ad3d
000002a0: 306f 8cbd a899 87bd 2867 c5bd 364c 823c
000002b0: 3a83 bd3d fed5 163d 93e4 e23d 4242 9a3d
000002c0: ec94 9fbd 6eb3 9c3d 86da b1bd 8865 e0bb
000002d0: 75e4 08bd 8fc4 093d 1d55 1fbd 8900 643d
000002e0: 79d8 6dbd c00e 2a3b 13da f7bd d86e bb3d
000002f0: 495a df3d 8ad0 16be 5343 36bd a130 d2bd
00000300: d567 d4bd 3f53 0c3c e0bd 963d b8b0 dbbc
00000310: 3605 783c 99fe 66bc 1440 65bd 45c8 23bd
00000320: 8ba1 eaba 6596 e33d afec 823d fc0c 893d
00000330: 02ca 173d ab9d f63c
-0.043423083 -0.04871779 0.031199887 -0.015651558 -0.10639958 0.012037531 0.044556625 0.035606995
-0.14855114 -0.14066432 -0.12600048 0.025289154 -0.08865827 -0.03473138 -0.015905505 0.047365114
0.042982638 0.008659172 -0.16645585 0.09747121 0.07825845 0.018208867 0.0069067124 0.055225898
-0.0001375831 -1.6347574e-05 0.04848359 -0.0866618 -0.1332466 0.028020104 -0.052977934 -0.02569078
0.028573181 -0.11314295 -0.09287465 0.031520072 0.06443779 0.0081354445 -0.16166416 -0.024246316
0.006213143 0.047865454 0.027927738 0.04533727 -0.10939379 -0.031955637 -0.12835446 0.024295691
0.016095512 -0.09403798 -0.055826966 -0.04254424 -0.05291434 0.05840947 -0.015568503 -0.08999587
9.370192e-05 -0.017556513 0.039977908 -0.03496511 -0.108234525 -0.01648732 0.03834907 0.009729342
-0.031402454 -0.061942026 -0.049169715 -0.039737534 0.059729766 -0.020738818 0.11229623 0.041334964
0.005654876 -0.017627496 -0.03787456 0.035573922 -0.13530192 -0.036395 -0.040821083 0.031025883
0.11674113 0.08016918 -0.049464684 -0.023929343 -0.023991566 0.079158336 0.066773206 0.028617127
-0.10556341 0.097437635 -0.03729473 0.10519844 -0.08290912 -0.0194071 -0.047171477 -0.12517563
0.09336569 0.041374158 -0.06784701 -0.11268135 0.0048229923 -0.0002787784 0.04581812 -0.08570587
0.0359534 -0.058799177 0.07301188 0.06497335 0.008269551 -0.10982875 -0.0127672935 0.05109405
0.007564574 -0.022095982 -0.0950879 0.07779972 -0.076078504 0.07469605 -0.11514773 0.098382495
0.0046565155 -0.041022852 0.015853237 0.05238234 0.1175874 -0.058977008 -0.12272826 -0.06581359
-0.06353389 0.11137441 -0.0677715 -0.045484878 -0.09056865 0.016999198 0.0047434526 0.0061994744
0.03324251 -0.058331486 0.043369547 0.044742443 0.060409572 -0.070071585 -0.06019584 0.04296076
0.12822774 -0.087334424 0.07557684 -0.054048248 -0.07298483 -0.020418491 -0.08305467 0.023359535
0.07607427 0.048439834 -0.12851548 -0.04742133 -0.06740563 0.07225458 -0.07653444 0.082832925
-0.03302969 0.009683825 -0.11726824 -0.104486905 0.012372202 -0.044690393 0.037892494 0.08485246
-0.06857145 -0.066211045 -0.09638816 0.01590548 0.09253545 0.036825173 0.11078753 0.07532169
-0.077920765 0.07651411 -0.08684258 -0.006848041 -0.033421 0.03363472 -0.03889953 0.055664573
-0.058067773 0.0025948733 -0.12102141 0.09152001 0.109058924 -0.14727989 -0.0444978 -0.102631815
-0.10371367 0.008564769 0.073604345 -0.026817665 0.015137961 -0.014098787 -0.055969313 -0.039985914
-0.0017900927 0.1111267 0.063928 0.0669193 0.037057884 0.030104479
