notebooks/checkpoint_epoch_45.pth (torch, 150288 bytes, 8 tensors)

features.0.weight f4 [16, 1, 3, 3]
000000 4d bf 93 3f 2d d0 86 3f 3e d3 13 3f cb 39 5d 3f
       1.1542755 1.053228 0.57744205 0.8641631
000010 ca 8f 39 3f 8a 86 96 3e 15 85 96 3f 7b e6 33 3f
       0.7248503 0.2939952 1.1759363 0.7027356
000020 a3 39 0e 3e 81 41 0a bf b7 6b 21 3d ff c7 de 3e
       0.13889174 -0.540062 0.039409366 0.4351196
000030 ef 7c 13 bf b5 17 81 bc 1c 1c 08 3f 83 49 e9 be
       -0.5761251 -0.015758375 0.5316789 -0.45563897
000040 42 d1 9a 3e 88 ec c2 3e 5a 27 4c 3e 00 c3 f1 3e
       0.30237776 0.38071084 0.19936886 0.47219086
000050 ef 67 99 3e da 44 28 be f0 b8 9f be ad 5c f8 3c
       0.29962108 -0.16432515 -0.31195784 0.030317629
000060 2b 3f ce bd 74 5b 35 be 32 1a 9d be bf 55 2f be
       -0.10070642 -0.17710668 -0.30684048 -0.17122553
000070 7b 1f 12 be 83 ba 82 bb b8 96 0f bf 26 38 30 bd
       -0.14269821 -0.003989519 -0.56089354 -0.043022297
000080 be d8 28 3f 28 42 a3 3e 08 39 83 bd 02 1a 2c 3f
       0.6595572 0.3188641 -0.06407362 0.67227185
000090 91 64 27 bf 54 60 a1 be 88 3a 1c bf 69 de c6 3e
       -0.6538783 -0.31518805 -0.6102681 0.3884156
0000a0 b6 42 4f 3e 84 02 f9 3e 62 d6 4f 3e 9e 43 f8 3d
       0.20240292 0.48634732 0.20296624 0.12122272
0000b0 d6 74 55 3e 0f aa 55 3f 08 c6 36 3f 37 cb 91 3e
       0.2084535 0.83462614 0.7139592 0.28475353
0000c0 01 40 0c 3f 1f 4b 9d 3e 65 2e 05 3f b2 0c d7 be
       0.5478516 0.30721375 0.5202392 -0.42001873
0000d0 a8 e9 fe 3d f6 bd 20 be 1c 1c 1f 3f 94 04 83 3f
       0.1244691 -0.15697464 0.62152267 1.0235772
0000e0 7d d6 2b 3f b0 53 11 3f f5 48 59 3f a7 9f 81 3f
       0.6712416 0.5676832 0.8487695 1.0126847
0000f0 a7 44 2b 3f f8 b6 6d 3f 7f 6a 3b 3f 92 20 de 3e
       0.6690163 0.92857313 0.73209375 0.43384224
000100 7d f8 57 be 38 a1 b3 be 95 a1 ba 3d 58 cd e3 3d
       -0.21090885 -0.35083938 0.091128506 0.111231506
000110 6b a4 e0 be 21 5b ba 3d ba 7b f9 3e 2b a3 90 be
       -0.4387544 0.09099413 0.48727208 -0.28249487
000120 e9 7c 89 be 79 6f 8f 3e 8c fe 1a bd b0 2f 8a bc
       -0.2685311 0.28014734 -0.03784041 -0.016868442
000130 52 29 8b 3c 83 98 cd 3d 24 e6 97 3e 6e 3a d2 be
       0.016987476 0.10038855 0.2966777 -0.41060203
000140 0a 18 d0 bc 91 41 f8 3e e3 79 5e be 16 2b ac be
       -0.025402088 0.48487523 -0.21726184 -0.33626622
000150 a4 f6 f7 3e 2b 42 d9 bd ff 5a d5 be 89 85 b7 3e
       0.4843036 -0.10608324 -0.41670987 0.35844067
000160 84 d1 6a 3e 85 2e b6 be 65 cb 05 3f 0f 9e 72 3e
       0.22931486 -0.35582367 0.5226348 0.23693107
000170 34 f0 1d be e6 a3 26 3f 55 fa 1f 3f 5b bd 7c bd
       -0.15423661 0.6509384 0.6249135 -0.06170402
000180 d2 4f 60 3f 99 ef 64 3e 14 09 41 3d de 84 22 3e
       0.87621796 0.22357024 0.0471278 0.15870997
000190 b9 24 58 be a1 54 35 3e f2 f1 2a 3e 9e 9b 7e be
       -0.21107759 0.17708065 0.16693857 -0.24864051
0001a0 05 41 bb 3d 6b 1f 95 3c d2 2a b2 bc 18 b9 82 be
       0.09143261 0.018203458 -0.021748934 -0.2553184
0001b0 a2 09 04 bf f6 b5 34 bf d3 d4 1c bf 3b 96 3b be
       -0.515772 -0.7059015 -0.61262244 -0.18319027
0001c0 7e 28 c9 be be a6 9c be b8 bc c8 bd b0 5b b9 be
       -0.39288706 -0.30595964 -0.0980162 -0.36202765
0001d0 39 f3 cf be 24 fb ff be da 1f 24 3f ea ef c1 3d
       -0.40615252 -0.49996293 0.641111 0.09469588
0001e0 03 8f 4f 3d a6 c8 14 3e 97 c8 31 3a 31 81 91 3e
       0.050673496 0.14529666 0.00067819044 0.28418878
0001f0 b3 a7 0d bf 2c 3a bf bc c3 9d cc 3d 74 d2 a0 be
       -0.55334014 -0.023343168 0.09991028 -0.31410563
000200 80 c4 bc 3d bf 1e 86 3e 86 98 0e bf 6a e7 9f 3e
       0.09217167 0.26195332 -0.5570148 0.31231242
000210 7b 49 b9 3e e5 7d 2b bf 00 c3 d5 3e 49 7f 0c 3f
       0.36188874 -0.66988975 0.41750336 0.5488172
000220 1b 73 0d 3f fa 87 11 3f b5 15 83 3d 48 6f ac be
       0.5525376 0.5684811 0.06400625 -0.3367865
000230 f7 f9 bf be 6b c9 5a be c1 0a bf be eb 38 ee be
       -0.37495396 -0.21365897 -0.37312892 -0.465278

features.0.bias f4 [16]
000000 69 97 39 bd 19 7e ea bc 62 fc 1c 3f 5f 65 0c be
       -0.04531041 -0.028624581 0.61322606 -0.13710545
000010 70 d1 5e 3e 17 9f ac be 0a 77 0f be a1 de 03 3f
       0.21759582 -0.33715126 -0.14010254 0.5151158
000020 39 79 a3 3e ea 89 01 3d 63 dd 91 bd cb a5 30 3f
       0.31928423 0.031625666 -0.07122304 0.6900298
000030 a6 20 9e be 36 05 60 bd c1 a1 c9 bc 1a ff 62 be
       -0.30884284 -0.05469247 -0.024613263 -0.22167626

features.3.weight f4 [32, 16, 3, 3]
000000 1c 4e 7e 3d 91 cb b6 3d cf 41 e0 3c dc a9 3e 3d
       0.06208621 0.08925546 0.02737513 0.04654871
000010 1b 78 b2 3d b8 76 e7 3d 8d f1 e6 3d 53 28 a4 3d
       0.087143146 0.11301941 0.11276541 0.08015504
000020 03 9f 1b 3d 34 b9 87 be 5d a7 d5 bd 9e 4a 5e be
       0.037993442 -0.26508486 -0.10432313 -0.21708152
000030 f1 3e cf be d4 a1 e2 be 5c 4e 14 bf 1a d8 ac be
       -0.40477708 -0.4426409 -0.57932067 -0.33758622
000040 2a ae 0e bf e2 43 c0 be 6d 4e 06 3e 05 e7 96 3d
       -0.55734503 -0.3755179 0.13115855 0.07368282
000050 13 d8 e3 3d 7d e5 0a 3e 61 2d 35 3e e8 a5 81 3d
       0.11125197 0.13564105 0.17693092 0.06330472
000060 74 45 a7 3c 18 21 20 3e fe e8 18 3e dd 17 84 3d
       0.02041886 0.15637624 0.1493263 0.06449864
000070 36 1d 0a 3e 77 8a 30 3e ff 02 5c 3b 40 e4 d9 bd
       0.13487706 0.1724032 0.0033571122 -0.10639238
000080 42 1c 5b bd 4e e4 1e be 79 71 10 be 5b 7f ea bc
       -0.053493746 -0.15516779 -0.14105786 -0.028625181
000090 2b 0c fe 3e 68 c0 b7 3e 68 a6 cb 3e 17 dd b6 3e
       0.49618658 0.35888982 0.39775395 0.35715553
0000a0 9d a5 2a 3e ab 8d b6 3d 16 3c 88 bc cc 38 b7 bd
       0.16664739 0.0891374 -0.016630214 -0.0894638
0000b0 dd ef 83 3c 0a 0d 21 bd 22 5d b6 bb c7 a9 9a 3d
       0.016105587 -0.039319076 -0.0055653015 0.07551914
0000c0 0c a5 2c 3e c0 c6 0b 3e 19 56 97 3d 78 e1 df 3d
       0.16859835 0.13650036 0.07389469 0.109316766
0000d0 76 48 ad 3d a4 dc b0 3d 6c 0f 0c 3d ec b8 d2 3d
       0.084610865 0.08635834 0.034194395 0.10289177
0000e0 de 4d 27 3e 91 2c 91 3d ad 4c ef 3d 18 b6 00 ba
       0.16338298 0.070885785 0.116845466 -0.00049099466
0000f0 18 39 a1 bc 1b f5 31 bd 9c a8 17 bd b7 e8 7a be
       -0.019680545 -0.04344664 -0.037026033 -0.24502836
000100 2c e6 87 be 30 4b 23 be 05 b1 ae be d4 c7 84 be
       -0.26542795 -0.1594665 -0.3411943 -0.25933707
000110 dc 63 38 be c0 4a 80 be 5b cd 07 be ce 08 89 bd
       -0.18006843 -0.2505703 -0.1326193 -0.066911325
000120 2b 83 85 3d 74 c8 3f 3c 2e a4 0b 3d b7 0f da 3c
       0.06519159 0.011705507 0.03409212 0.026618822
000130 2a cb 49 3d 68 3d 34 3d d4 d5 01 3e 89 fa b8 3d
       0.049266018 0.044003874 0.12679225 0.09032161
000140 71 c8 1c 3d 1e ab f4 be aa e6 f8 be 8f 79 10 be
       0.038277093 -0.47786802 -0.48613483 -0.14108871
000150 8b ce 15 bf 49 ed eb be f4 51 07 be 1d 05 be be
       -0.58518285 -0.46079472 -0.13214856 -0.37113276
000160 75 07 8f be 1b 94 49 be 03 cf aa 3c 64 18 96 bc
       -0.27935377 -0.19685404 0.020850664 -0.018322177
000170 32 0a c5 3c 1d 7d c0 3d e6 42 af 3d ba 0e b0 3d
       0.024052713 0.093988635 0.08557682 0.08596559
000180 0e 55 54 bd cb 2c 33 bd d5 2b c5 bd 10 7b 68 3d
       -0.051838927 -0.04374389 -0.09627501 0.056757987
000190 32 4b 77 bd 2b 3d 96 bc eb 96 c2 bd 33 c1 05 be
       -0.060374446 -0.018339714 -0.095014416 -0.13061981
0001a0 32 4e 07 bd fc 32 96 3d 9e b9 a9 ba a1 7b 26 3d
       -0.033033557 0.07333943 -0.0012948995 0.040645245
0001b0 0b d0 f8 3e b1 be 83 3e 4c 7a dd bb f5 72 ff bc
       0.48596224 0.25731423 -0.0067589637 -0.031182745
0001c0 94 26 b9 be f8 95 df be 8b 44 56 3d 77 6f 62 3c
       -0.36162245 -0.43669105 0.05231146 0.013820521
0001d0 0f 4e 89 bd e3 49 8a ba a2 f1 ed 3d 22 c0 96 3e
       -0.067043416 -0.0010550584 0.116183534 0.2944346
0001e0 8e 22 95 3d f7 8f c7 3d 8f f0 47 3e 14 69 33 bc
       0.072819814 0.09744256 0.1952536 -0.010950346
0001f0 42 60 8e 3d 5c 8c 53 3d f3 ca 8b be e0 0b 80 be
       0.069519535 0.05164753 -0.27303275 -0.2500906
000200 69 4e be bd c7 f5 9e be a5 14 e9 be 32 dd 8e be
       -0.09292299 -0.31046888 -0.45523563 -0.27903134
000210 91 90 ac be a3 63 8a be 10 d5 6d be a2 bd 12 3c
       -0.33704045 -0.27029142 -0.23225808 0.008956345
000220 6b 27 c8 bc fe 77 ff bc f9 d7 cb 3c 78 4b 45 bd
       -0.024432858 -0.031185146 0.024883257 -0.048167676
000230 be 5f 5f bc 53 35 5f bd 07 1d 32 be d5 db f2 bd
       -0.013633667 -0.054494213 -0.17393886 -0.11858336
000240 52 9c 8a 3e 9a 7d db 3d 78 fb 16 be c4 63 2a 3e
       0.27072388 0.10717316 -0.14744365 0.1663962
000250 26 74 b7 3d 76 d1 00 be e7 2b 1c 3e 10 cb 0b 3d
       0.089577004 -0.12579903 0.15251122 0.034129202
000260 97 e2 03 bd ba 66 03 be 06 0b 78 bf 6e 2f 28 bf
       -0.032198515 -0.12832156 -0.9689182 -0.6569737
000270 f3 cc c3 bd c0 66 85 bf de 28 33 bf 05 99 8d 3e
       -0.09560575 -1.0421982 -0.69984233 0.27655807
000280 81 f0 2a bf 0a e4 09 bf 94 ef 6b bd 47 a6 39 3d
       -0.6677323 -0.53863585 -0.057601526 0.04532459
000290 f6 79 22 3e ce 29 8f 3d 51 dd 9a 3b c0 56 e7 3d
       0.15866837 0.069903955 0.00472609 0.11295843
0002a0 1e 14 3b 3c 06 ec c3 bb 4d 7a 03 3d 9d 16 0d be
       0.0114183705 -0.005979064 0.032099057 -0.13778158
0002b0 40 9a ee be 32 10 10 bf 17 dc 84 bd fa fb d0 be
       -0.46602058 -0.5627471 -0.06487291 -0.40817243
0002c0 aa a3 0f bf d1 95 9f 3c ec 1a 94 be 65 7f d0 be
       -0.56109107 0.019480618 -0.2892679 -0.40722194
0002d0 50 1d 46 bb 72 de 18 be ab e7 37 bb 51 cd 7f bd
       -0.0030229874 -0.14928606 -0.002806167 -0.062451664
0002e0 0a 79 af bd f8 19 b2 bc b1 7a 8a bd 5c 61 01 3e
       -0.08568008 -0.021740898 -0.06761683 0.12634796
0002f0 d9 59 05 3c 92 19 44 3e 54 f5 23 bd 2e 16 46 be
       0.008139097 0.1915038 -0.040028885 -0.19344398
000300 13 91 21 3e ab d3 2f 3d 38 dd 98 be 04 53 68 3e
       0.15777998 0.04292647 -0.29856277 0.22687918
000310 d4 70 a5 bc 6e 8f 0f be d7 bb 57 3e c1 e0 8b bd
       -0.020195402 -0.14019558 0.21067749 -0.06829978
000320 97 f8 6b be 0b 5b 6d 3e 54 3f ab 3c 90 07 95 be
       -0.23044048 0.23179261 0.02090422 -0.29107332
000330 3e 6e 56 3e 44 b7 53 3d 20 6e 4a be 19 12 26 3e
       0.20940492 0.051688448 -0.19768572 0.16217841
000340 ec 65 1b bd f5 40 8c 3c 3a 41 2f 3e 73 25 59 bd
       -0.037938997 0.017120818 0.17114726 -0.05301423
000350 61 5d 21 3c 4f 46 bd 3d 4d c6 69 3d 1a e6 41 3d
       0.009848923 0.09241926 0.05707388 0.047338583
000360 65 e9 a3 3c ef ce 86 bc f6 0f 35 bd 77 8e 4d bd
       0.020008752 -0.016456096 -0.044204675 -0.050184693
000370 03 d8 94 bd ed cf 50 bd 4d c1 07 3d 3f e2 94 bd
       -0.072677635 -0.050979543 0.03314333 -0.072697155
000380 98 78 3f bd 38 ba e7 3e bd c1 a1 3d 47 62 ab bd
       -0.046745867 0.4525926 0.07898281 -0.08368354
000390 e2 92 e2 3e 13 72 d1 3d 03 57 14 3c aa 81 b9 3e
       0.44252688 0.10226836 0.009053948 0.36231738
0003a0 6c 7d 4c 3e c1 6e e2 3d 9c a1 8c 3e 6c 64 2a bd
       0.1996972 0.11056281 0.27467048 -0.041599676
0003b0 38 2b 2d be 9e 73 5b 3e ac 73 58 bc a8 e2 4b be
       -0.16911018 0.21430823 -0.013211172 -0.19910681
0003c0 eb d7 44 3e d9 9a 07 3d 3f a8 92 bd 72 2b ad 3d
       0.19222991 0.03310666 -0.07160997 0.08455552
0003d0 ff 28 92 3d 4c 3b 37 3d d7 4c 9d 3d c2 cf 6d 3d
       0.07136726 0.044734284 0.07680672 0.05805946
0003e0 0f c0 d8 bc 5e 09 eb ba 54 b9 36 3c 7d b9 3c bd
       -0.026458768 -0.0017931869 0.011152584 -0.046075333
0003f0 68 4f 03 bd f6 a7 c4 bc d9 07 f9 3d 56 2b cf bc
       -0.03205815 -0.024005871 0.121597 -0.025289219

features.3.bias f4 [32]
000000 94 46 90 3d 6c bf 92 3d c8 ae 0a 3e cd 3e 03 3d
       0.07044712 0.07165417 0.13543236 0.032042313
000010 df 91 80 3c 7c fa 36 bd 72 fb 30 be f6 f9 eb ba
       0.015694557 -0.044672474 -0.17283419 -0.0018003571
000020 58 e1 fd 3d 6a 59 65 3d 11 c1 04 be da 51 18 3d
       0.123964965 0.055993475 -0.12964274 0.037187435
000030 75 57 03 3e 23 13 e2 3c 08 9a 79 3d 38 c5 88 bc
       0.12826331 0.027597016 0.06093791 -0.016695604
000040 5d e5 4e bb 87 f2 28 bd 92 d4 54 3e cd 5c 9e bd
       -0.0031569817 -0.041246917 0.20784214 -0.07732544
000050 d4 e8 06 3e ac 5f bd bc a0 7c 9d bd 99 ed 81 3d
       0.13174754 -0.023116909 -0.07689786 0.06344146
000060 67 32 e0 3d 46 3a 9b be 42 ad 91 3e 7a 5a 28 3e
       0.109471135 -0.30317897 0.28452498 0.16440764
000070 73 b1 a5 be 01 33 35 bc 63 68 e8 bd 75 0c 4b bd
       -0.32361946 -0.011059524 -0.11348035 -0.049572427

features.6.weight f4 [64, 32, 3, 3]
000000 11 2a 85 bc 26 e8 3a 3d cd 67 44 3d cf 83 4e 3d
       -0.01625541 0.04563155 0.047950555 0.05041867
000010 55 70 d3 3d 60 d2 c1 3d fc f8 58 3d d7 41 e2 3d
       0.1032416 0.09463954 0.052971825 0.11047714
000020 ef 1e 56 3d 1f ad db be ff a7 b9 be 05 d2 a8 be
       0.052275594 -0.42905518 -0.36260983 -0.32972732
000030 90 47 37 be d0 2e 1f be 32 b9 7b bc 2d 5c 05 3e
       -0.17898393 -0.15545201 -0.015363978 0.13023444
000040 83 35 58 3e b3 63 88 3e 63 96 a1 be ac 84 e0 be
       0.21114163 0.26638564 -0.31560048 -0.4385122
000050 8a 5b a6 be d9 05 cf 3b e3 0d 34 bd fe 62 71 bc
       -0.32491714 0.0063178358 -0.043958556 -0.014733074
000060 01 fa 51 3e fa c4 14 3e 7b 40 b1 3e ac 1c b5 be
       0.20505525 0.14528266 0.34619507 -0.35373437
000070 32 8d 82 be 3a 00 64 be a9 02 37 be fa b1 ce bd
       -0.25498348 -0.22265711 -0.17872109 -0.1009254
000080 af c2 81 bd b0 6f 6c bd 6e c7 8e 3c 60 c5 8d 3d
       -0.06335961 -0.0577237 0.01742908 0.06922412
000090 c5 e6 98 bd 0c 21 e6 bd 48 fd 18 be 20 d9 c3 bb
       -0.07465891 -0.11236772 -0.14940369 -0.005976811
0000a0 22 02 93 ba 21 90 e4 3a 16 2c 2a 3d 0f 26 3e 3d
       -0.0011215846 0.0017437973 0.04154595 0.046423014
0000b0 6c bd 41 3d 8f 5f 43 be bd fc 3c be de ac 0d be
       0.047299787 -0.19079421 -0.18455787 -0.13835475
0000c0 ad 03 db bd 0a 10 57 bd 11 c9 5b 3b 91 a1 87 3d
       -0.106940605 -0.05250553 0.0033536593 0.06622613
0000d0 39 55 bd 3d 6b 6f ac 3d b4 87 aa 3d b5 8d 8b 3d
       0.092447706 0.08419689 0.083266646 0.06814138
0000e0 dc 89 3b 3e 56 8e d0 3d f2 6a e7 3d 80 5a a7 3e
       0.18314308 0.101833984 0.11299695 0.32686234
0000f0 0a de 6b 3e 20 09 ee 3d 36 c5 a3 3e eb 82 08 be
       0.2303392 0.11622834 0.31986398 -0.13331191
000100 53 e7 f5 bd 04 e5 fa bd 89 6e 82 bd 6e 99 1b be
       -0.12007012 -0.122507125 -0.06368739 -0.15195248
000110 0a b6 2a bd 83 77 dc bd 46 cf d3 bd f9 2c af bd
       -0.041677512 -0.107649826 -0.10342269 -0.085535
000120 1e 7e a9 bc cb 42 6e bb 10 9a 4e 3c 38 57 3c bd
       -0.02069002 -0.003635573 0.012609974 -0.045981616
000130 68 a9 4d 3c a2 ce 1e 3d 19 a2 a9 3d 5b 87 13 bc
       0.012552597 0.03877128 0.08282871 -0.009004439
000140 78 cf d5 3b 18 09 01 bd e0 d1 10 bd fb bf 2d bd
       0.0065249763 -0.031502813 -0.035356402 -0.042419415
000150 94 ef 5b bc 84 23 5f 3c 25 47 2b 3c 14 e6 4b 3b
       -0.013423819 0.013619307 0.010453974 0.003111248
000160 ba 32 4f 3d 9d 9e a7 bb b1 bc 07 bc 49 f5 0b bd
       0.050585486 -0.0051153437 -0.008284734 -0.03416947
000170 00 68 9f 3d 7c f9 c2 3d d9 d4 1e 3d a2 18 e0 3d
       0.07783508 0.095202416 0.038777206 0.10942198
000180 fc 0b 49 3d 01 e6 c8 3d cd dc 28 3e 9e 16 60 3e
       0.049083695 0.09809495 0.16490479 0.21883628
000190 78 37 60 3e 69 3e 5e 3e 1c 9f 6a 3e f0 ff 30 3e
       0.2189616 0.21703495 0.22912258 0.17285132
0001a0 af 72 4e 3e c4 5a 28 3e c8 6d 2b 3e cc 88 08 3e
       0.20160936 0.16440874 0.16741097 0.13333434
0001b0 3f 67 a0 bc 42 2f b9 bd c3 28 c7 bd 62 1c d1 bd
       -0.019580482 -0.09042217 -0.097245716 -0.10210492
0001c0 3c b8 3f be 40 db 1c be 75 44 34 be a6 37 0f be
       -0.18722624 -0.15318012 -0.1760424 -0.13986072
0001d0 19 a7 99 bd 76 81 ec be 55 7f 10 bf 68 cf d0 be
       -0.075025745 -0.4619252 -0.56444293 -0.40783238
0001e0 75 6b 38 bc e0 14 03 be 61 bb 17 be 67 b9 5f 3e
       -0.0112560885 -0.12800932 -0.14817573 0.21848069
0001f0 98 d0 41 3e b2 da 79 3e 34 a2 de 3c 74 f5 73 bd
       0.18927228 0.24399832 0.027176954 -0.059560254
000200 2a bb bc 3d ca 2d 05 3d 05 56 52 3d f0 8d c1 3d
       0.09215386 0.03251437 0.051351566 0.094509006
000210 79 cc 0e bd 80 7d 2e 3c 2f 6a 30 3d 21 c9 ac bb
       -0.03486297 0.010650039 0.043070015 -0.005273
000220 ad 99 dd bd 3c d2 07 be 6a 2d bc bc a4 a5 eb bd
       -0.10820327 -0.13263792 -0.022970874 -0.11506203
000230 7d a0 80 bd 70 fd 23 bc 8b 41 84 3b 57 f5 6e 3b
       -0.06280611 -0.010009155 0.0040361336 0.0036462152
000240 e2 3e ea be a6 33 d9 be 41 ac cc be 65 16 40 be
       -0.457511 -0.42422217 -0.3997517 -0.18758543
000250 78 c5 fb bd 5f 05 13 be 92 f4 6c bd 7d d8 1e bd
       -0.122935236 -0.14357518 -0.057850428 -0.038780678
000260 6b 70 9a 3d 03 6a 76 3e db 9c 3e 3e 99 11 8a 3e
       0.07540973 0.24063878 0.18614523 0.2696655
000270 65 e1 78 3e 55 37 59 3e a0 07 7c 3e 15 3b 94 3e
       0.24304731 0.21212514 0.24612284 0.28951326
000280 e1 78 18 3e 02 ec 89 3e 10 0b 91 3d 77 76 91 3d
       0.14889862 0.26937872 0.07082188 0.071026735
000290 18 a7 da bc 11 b6 0c 3d 5f 8f ad bc 7d a2 b2 3d
       -0.026691005 0.03435332 -0.021186529 0.087223984
0002a0 9e b7 0f 3c aa 48 1f ba 73 3e 36 3d 20 6e c3 bb
       0.008771805 -0.00060761964 0.04449315 -0.0059640557
0002b0 75 74 ab bd 6a e6 7c 3d 09 6e 02 bd 48 71 98 3c
       -0.08371822 0.061743177 -0.03184322 0.018608704
0002c0 16 29 b6 3d 2c 97 c8 bc 6e 7b 46 3d 32 47 4a 3d
       0.08894555 -0.024486147 0.048457555 0.049384303
0002d0 be 18 99 bd 45 a6 db bd 5e 8f 08 bd 35 92 a8 bc
       -0.07475422 -0.10725073 -0.03333985 -0.02057753
0002e0 35 ae 6b bd 54 bf 93 bd d6 9d 1d 3d 46 e4 85 bd
       -0.057539184 -0.07214227 0.038480602 -0.0653768
0002f0 04 6c 66 3d d1 29 83 3b be 46 82 bd a8 2a 53 3d
       0.056255355 0.0040027876 -0.06361149 0.051554352
000300 8d 3d d4 3d 6d 33 96 3c 93 06 46 3e ff cb 31 3c
       0.103633024 0.018335069 0.19338445 0.010851859
000310 8c 48 99 3d cc 17 03 3e fa 78 59 bf 08 93 3b bf
       0.0748454 0.12802047 -0.8495022 -0.73271227
000320 7a 53 f8 be 7b e0 ce be 70 2c a7 be 1c 2a 96 bd
       -0.48501188 -0.4040564 -0.3265109 -0.073322505
000330 8b 3d 8b bc c7 84 c7 3d 0d 1e 71 3e ba ff 04 bf
       -0.01699712 0.09742122 0.2354662 -0.5195271
000340 29 c4 10 bf 45 54 ec be a9 12 b6 be a3 9a 3b be
       -0.56549317 -0.46158043 -0.35561112 -0.18320708
000350 30 25 3f bd a1 e3 e5 3d a9 38 53 3e f7 dc a2 3e
       -0.046666324 0.112250574 0.20627083 0.31809208
000360 a7 8b 4e 3c 87 a1 cd bd 3e aa 02 be dc 14 ac bb
       0.012606538 -0.100405745 -0.12760255 -0.00525151
000370 c9 a0 e0 bd 53 25 17 be bf 4f 00 be 87 c7 3e be
       -0.10968167 -0.14760332 -0.1253042 -0.18630801
000380 66 20 9f bd 8e 4e 45 bd bc eb e2 bc f8 82 54 3c
       -0.077698514 -0.04817062 -0.027700298 0.0129706785
000390 7c 8a 1d 3c 27 bb 70 3c fa 62 8a 3d a1 86 05 3d
       0.009615537 0.014693058 0.067571595 0.032599095
0003a0 e0 72 0c 3e 82 20 15 3e f4 16 2c 3d 58 64 5b 3d
       0.13715696 0.14563182 0.042014077 0.053562492
0003b0 d7 28 4f 3e 91 19 87 3d 1f a7 02 3d 69 26 00 3e
       0.20230423 0.06596673 0.03189766 0.12514652
0003c0 81 bb 52 bd e1 5f 16 be 97 a1 f6 3b a0 03 74 bd
       -0.05144835 -0.14685012 0.007526587 -0.05957377
0003d0 a7 71 b5 3c 55 e6 51 3d 40 1a 81 bc 62 6b a8 3d
       0.02214892 0.051245052 -0.015759587 0.08223607
0003e0 f8 75 c5 3c 66 01 d4 3d aa 98 c4 3d fd b0 04 3e
       0.024104103 0.10351829 0.09599431 0.1295814
0003f0 34 a7 c8 bd 40 7b 9b bd 5d e8 ba bc 0f df c0 bc
       -0.097975165 -0.075918674 -0.022815878 -0.023543863

features.6.bias f4 [64]
000000 c3 ce 7e 3d 65 88 6b 3d 65 95 e7 bd 36 5b 25 bd
       0.062208902 0.057503123 -0.113077916 -0.04037019
000010 86 8c 2a bd 49 ce 41 3c da e9 c2 bc a2 ca a0 bc
       -0.04163792 0.011828967 -0.02379315 -0.019627873
000020 80 57 49 bd 3d 59 4e bb b3 da 9f bd af 90 8c be
       -0.049155712 -0.0031486296 -0.078053854 -0.27454135
000030 5d 72 64 3b e8 8f 87 3d 7c 35 7f bd 6b 51 bb bd
       0.0034858205 0.06619245 -0.062306866 -0.091463886
000040 7f 46 cf 3d c6 2d 20 be c3 d8 ae 3d d1 27 38 3e
       0.10120868 -0.15642461 0.08537438 0.17983939
000050 07 b5 07 be 33 12 86 3d c4 db 28 be e0 eb 6f bd
       -0.1325265 0.0654644 -0.16490084 -0.058574557
000060 d7 29 a8 3d e7 e9 64 3b f1 61 39 3e 5e 38 93 ba
       0.08211105 0.0034929456 0.18103768 -0.0011232009
000070 28 2c 89 bc 56 01 0d 3b b1 30 16 b9 b9 77 2f be
       -0.016744688 0.002151569 -0.00014323254 -0.17135514
000080 8e e0 f3 b9 6b ae 8d 3c f0 91 c6 3d ed 02 0e bd
       -0.00046515878 0.017295083 0.09695804 -0.03467076
000090 65 b1 96 bd d3 6f b4 ba 12 69 52 bd b6 bd 28 3b
       -0.07358054 -0.0013766236 -0.051369734 0.0025747842
0000a0 89 8f 28 3d 47 7b bc bc 4b 9e 64 bd 52 1d 7a ba
       0.04115251 -0.023008002 -0.055815022 -0.0009541112
0000b0 a1 95 55 bd da c1 b9 3b 45 08 66 bc fd b9 eb bd
       -0.05214465 0.005668861 -0.014040058 -0.11510084
0000c0 fe 6f cc bd 38 8c fe bd 1d a5 a3 bd d8 52 6c be
       -0.09982298 -0.12429088 -0.07990477 -0.23078477
0000d0 74 54 87 bc 46 1e ba bd 79 77 5f be 6c 20 da 3d
       -0.016519763 -0.090878054 -0.21822919 0.10650715
0000e0 49 2a ad 3d 63 a8 5a 3c c3 8c bc bc ac 43 88 bd
       0.08455331 0.013345811 -0.02301634 -0.066535324
0000f0 c3 cf 27 3d 4b 64 0d bb 04 2a a4 3d d7 14 4a be
       0.04096962 -0.0021574672 0.08015826 -0.19734512

classifier.weight f4 [206, 64]
000000 65 0f 57 3d ab 71 e9 3d ce 51 95 be c1 3f 09 bf
       0.052504916 0.113986336 -0.29163975 -0.53612906
000010 63 83 d2 3c c3 04 83 be a3 89 82 3d d2 59 92 3e
       0.025697416 -0.2558957 0.06373908 0.28584152
000020 20 73 52 3e 50 32 04 c0 64 68 8a bc b2 33 a7 bc
       0.20551729 -2.0655708 -0.01689548 -0.020410392
000030 9e 15 bf be d7 df 4b bf 82 f1 80 3d 7d 34 4f be
       -0.3732118 -0.7963843 0.06296064 -0.20234866
000040 1c c4 c0 be cf 33 90 bd b2 b6 ea 3d 50 a0 00 3e
       -0.3764962 -0.07041132 0.114606276 0.12561154
000050 34 e2 c1 bd e1 3e 22 be c2 ec 6e 3e c3 81 c2 bd
       -0.09466973 -0.15844299 0.23332503 -0.09497406
000060 01 59 f1 3c 97 26 fd bc 22 82 d5 3d b0 3b d5 3d
       0.029461386 -0.03090219 0.104252115 0.10411775
000070 52 1e 61 3e a2 59 63 bc 12 75 07 3e ca b0 2e c0
       0.21984223 -0.013876351 0.13228253 -2.7295403
000080 66 37 c5 3d 60 64 d0 be a5 e9 e7 be 98 5e 04 bd
       0.09629707 -0.4070158 -0.45295444 -0.032316774
000090 bb 11 05 bf 8c 5b 23 3d 6a 12 2e bf 72 1a 44 3d
       -0.5198018 0.039882228 -0.6799685 0.047876783
0000a0 47 f6 24 3a 5a a9 d9 be 9d ad 7e ba e7 81 14 bb
       0.00062928017 -0.42512017 -0.00097152014 -0.0022660436
0000b0 5f 94 e0 be e6 07 1b bd 38 35 a1 3d f5 5f 36 3d
       -0.43863198 -0.03784933 0.07871479 0.044525106
0000c0 c1 a9 88 bf 1f e7 9a 3d 02 2c 30 bf 4c c7 3a be
       -1.0676805 0.07563614 -0.6881715 -0.18240088
0000d0 8b 06 b0 3d 1c 4f b1 be aa be 14 be 9e 86 00 3e
       0.08594998 -0.34630668 -0.14525858 0.12551352
0000e0 11 eb 1d 3e ed 7b 52 3d 62 07 16 bf a3 09 c3 be
       0.15421702 0.051387716 -0.58605015 -0.3809329
0000f0 8f 49 f5 bd 38 5c 39 3e 23 37 49 3e 05 b1 89 bc
       -0.11976921 0.18101585 0.19649939 -0.016808042
000100 21 96 5b 3d d2 d8 5b bd 56 cc d5 be 4a 96 9f be
       0.05360997 -0.053673573 -0.41757458 -0.3116935
000110 0c 9e 9c 3d d3 96 ac be 89 c2 92 bd a0 0d 70 3e
       0.076473325 -0.3370882 -0.07166011 0.23442698
000120 24 7b 18 3d 57 9b c9 bf bc 27 c2 3c a3 a0 75 3e
       0.03722681 -1.5750531 0.023700587 0.2398706
000130 04 64 28 3d 3f 83 28 bf 56 45 6e bd cd 1e 17 3d
       0.041111007 -0.65825266 -0.058171593 0.03689461
000140 08 ee 33 be b4 cf 5c bd 6c c2 c7 3c cf 6d 69 3b
       -0.1757127 -0.05390902 0.0243847 0.003561843
000150 60 14 8b 3e 4d 4d 89 be be 12 92 3d 4a 1c 46 3e
       0.27163982 -0.26816788 0.07132481 0.19346729
000160 8e 06 6c bd 8f b9 d0 bd 8d 7a 5a 3e f8 c1 25 be
       -0.05762344 -0.101916425 0.21335812 -0.16187274
000170 b7 45 3b 3d 9a 0f de bd a3 31 84 3d 5d 45 c6 bf
       0.045720782 -0.108428195 0.0645478 -1.5489918
000180 be cb 2b 3e 70 12 57 bf 0c ec e9 be 3a 23 59 3e
       0.1677694 -0.8401251 -0.45687902 0.21204844
000190 cf 0b 84 bd c1 5e 81 3d 9e cc 68 bf f1 53 a7 3d
       -0.06447565 0.06316901 -0.9093722 0.081703074
0001a0 07 26 45 bd 7f a4 a5 be 8e 69 65 3c 9a dd 01 bd
       -0.04813197 -0.32352063 0.014002217 -0.031705476
0001b0 9e fa 8d be da 80 11 3d c6 07 b2 3d b4 cc 60 be
       -0.27730268 0.035523273 0.08692889 -0.21953088
0001c0 57 89 e0 bf e1 9f 87 3e ae 05 9e be 83 0c 30 bd
       -1.7541913 0.26489165 -0.30863708 -0.042980682
0001d0 7a 48 ee 3d b7 dd f9 be 1b ff 12 3e 2e df 3a 3e
       0.116349176 -0.48801968 0.14355128 0.18249199
0001e0 68 f2 aa bd 9f f9 38 be af a1 63 bf 49 c1 2f be
       -0.083470166 -0.18063973 -0.88918585 -0.17163576
0001f0 5a 5f 83 bc e8 3e e1 3d af 2b 5b 3e 90 71 f8 3c
       -0.016036678 0.109983265 0.21403383 0.030327588
000200 cf 5b 62 3c 0a f6 0b 3e fc 08 6f bc 98 a9 ea bf
       0.013815834 0.13668075 -0.014589544 -1.8333006
000210 eb 8e 02 3e 81 f0 1a 3e fd 8e a1 bd f4 c0 04 be
       0.12749831 0.15130807 -0.07888601 -0.12964231
000220 16 a9 31 3e 4f 9b 00 bf 3e 5f 38 bd 28 04 09 bf
       0.17349657 -0.5023698 -0.045012705 -0.53521967
000230 8b 8b 53 be 11 ae 84 be 2b c3 71 be 91 fb 78 be
       -0.206587 -0.25914052 -0.23609607 -0.24314715
000240 c5 7c 19 bf 38 f0 7f be 32 f6 72 bd af 3b 47 be
       -0.5995601 -0.2499398 -0.05931682 -0.19456361
000250 df f5 d4 bd ae 39 46 bd 9f 84 31 3e 26 8e 07 be
       -0.10398459 -0.04839485 0.17335747 -0.13237819
000260 ef 61 33 3d 08 4a 80 3d f9 5e 0f 3e 41 1b c9 3d
       0.04379457 0.0626412 0.14001073 0.098196514
000270 62 70 ef 3d 33 18 b4 3c 44 4d 0f 3d 13 93 46 bf
       0.11691357 0.021984195 0.034985796 -0.7756817
000280 f2 c7 a7 3c b1 32 6f be a6 28 b7 bf b7 22 52 3d
       0.020481084 -0.23359181 -1.430928 0.051302638
000290 3b dc 6c be 2a 41 48 bb ce ca 00 bf 81 f5 8e be
       -0.23130886 -0.003055642 -0.50309455 -0.2792168
0002a0 4b 92 f9 3d 8b ac 1e 3c 07 a8 21 3b 84 9e b5 bd
       0.12186106 0.009684692 0.0024666802 -0.08868125
0002b0 2e 6e d5 3d b0 34 7e bc ae 0e c2 3c 57 c5 0b bf
       0.10421406 -0.015515491 0.02368864 -0.5459799
0002c0 20 d8 80 bf bc 89 95 be 13 19 b3 be 17 b5 32 bf
       -1.0065956 -0.29206645 -0.34980068 -0.6980757
0002d0 c8 8e e6 bd 66 b5 f2 bd cd 94 17 be b7 17 74 3d
       -0.11257702 -0.11851005 -0.14802857 0.05959293
0002e0 b5 da c3 3b 38 b7 6a bd 81 4f 11 bf 2d b9 8a bd
       0.0059769996 -0.057303637 -0.5676194 -0.06773601
0002f0 cc 5b c5 bd 6c 9c 73 3d d6 ff 9a 3d 8c 3d 5b bd
       -0.096366495 0.059475347 0.07568328 -0.053525493
000300 00 7b 86 3d 99 3b fc bc 91 03 74 be 86 67 c8 be
       0.06566429 -0.030790137 -0.23829485 -0.39141482
000310 69 76 23 3e a5 a3 b5 bc 8e 86 71 be 57 b9 bf 3d
       0.15963139 -0.022172758 -0.23586485 0.09361523
000320 33 19 ef bd 72 a9 b1 be 75 33 c6 3d 46 ce 77 be
       -0.11674728 -0.3469959 0.096777834 -0.24199781
000330 ad 0f 06 3e 0a a2 7a be ac de 0e be 51 53 34 3c
       0.13091917 -0.24475875 -0.1395213 0.011006192
000340 75 f7 5a bd f6 35 64 bc 6d b4 2f bf a3 b6 ad 3d
       -0.05345865 -0.013928881 -0.6863468 0.08482101
000350 f2 a0 0e be bf be a8 bd de e9 61 be 3b f6 ea 3d
       -0.13928583 -0.08239507 -0.2206187 0.11472746
000360 20 70 59 3d 28 32 19 3d 76 c0 8d be f5 2a 12 3d
       0.053085446 0.03740135 -0.276859 0.0356855
000370 15 9d 78 be dc 91 9b 3d 3a 52 8b be 5d 0f 74 bd
       -0.24278672 0.0759618 -0.2721117 -0.059584964
000380 b8 42 f7 3d 61 49 89 bf c9 e1 e7 be 81 dd a2 3d
       0.120732725 -1.0725518 -0.45289448 0.07952405
000390 74 3e dc bd eb b6 ad be 1d de 9f be 96 4f 29 3e
       -0.107540995 -0.33928618 -0.31224146 0.16534266
0003a0 e4 c5 bb be 96 f5 41 3e 26 74 bd bd ec 98 17 3e
       -0.36674416 0.1894134 -0.09250669 0.14804429
0003b0 84 29 ae bc 01 f6 99 3d 17 3e 9c 3c 0b d9 ca be
       -0.02126003 0.07517625 0.019072575 -0.39618716
0003c0 7e a8 a1 be 15 b6 8b be eb 58 aa be a0 1b dd be
       -0.31573862 -0.27287355 -0.33270964 -0.4318514
0003d0 5f 2e ab bb 2f cd a2 3c ae 38 ca bd 07 7c 30 be
       -0.0052240337 0.01987323 -0.09874092 -0.17234813
0003e0 be 55 a4 3d 02 be 18 be 10 82 12 be 23 06 68 bc
       0.080241665 -0.14916232 -0.14307427 -0.014161619
0003f0 3e 29 50 3d 6b 3c 47 be 4f cc 42 be 96 ad c1 3d
       0.05082058 -0.19456641 -0.1902325 0.09456937

classifier.bias f4 [206]
000000 39 46 02 3e e7 44 ae 3d 5d d0 43 3e 74 76 8c 3d
       0.127221 0.08509236 0.19122453 0.06858531
000010 b3 05 59 3b e2 65 17 3e 0d 34 f6 3d 60 39 48 3e
       0.003311497 0.14784959 0.12021647 0.19553137
000020 7b d7 24 3d db 67 ac bc 9d da a3 bd a6 ef 9e 3d
       0.04024456 -0.021045616 -0.080006815 0.07760553
000030 dd ab 24 be aa 23 5d 39 a0 fd 2a bd db 69 13 bd
       -0.16081186 0.00021089488 -0.041745782 -0.035989624
000040 16 91 ac 3d 98 ea 8e 3d 67 be 60 be 2b 50 3f 3e
       0.084261104 0.06978339 -0.21947633 0.18682925
000050 7a e0 f7 3d 48 a5 15 3e 26 41 6a 3d 1d 48 f5 3d
       0.121033624 0.14613831 0.057191037 0.11976645
000060 9a 24 f4 3d 31 53 0a 3e 44 fe c6 3d f5 d0 c6 3c
       0.11921044 0.13508298 0.09716466 0.02426956
000070 c3 ca c5 bd 05 72 50 3d cb ad 10 be a2 53 35 3d
       -0.09657814 0.050889987 -0.14128797 0.04426921
000080 17 7e 83 3e be 69 c5 3c 08 2d 69 be e6 9c 51 3e
       0.25682136 0.024098273 -0.22771084 0.20470008
000090 b1 5d 4f 3d b7 d4 33 3c b5 55 1c bc ba f4 1e 3d
       0.05062646 0.010976008 -0.0095419185 0.03880761
0000a0 14 9c 18 3b 77 6f 29 3e ca df 85 bc 28 38 99 3d
       0.002328639 0.16546427 -0.016342063 0.07481414
0000b0 ff d4 6c bd 69 a7 88 bd db 60 d8 bd b9 9a 84 3c
       -0.057820316 -0.06672556 -0.10565349 0.016187059
0000c0 47 e1 2d 3e 79 d6 18 bc 93 61 f0 bb 74 93 cf bb
       0.16980468 -0.009328478 -0.0073358505 -0.0063347165
0000d0 4d ec ab 3d df cf 58 ba 62 07 bd 3b f5 52 42 3d
       0.0839468 -0.00082707213 0.0057687024 0.047442395
0000e0 e7 3c 7d 3d 64 0e 4a bc 75 b2 af 3e 24 ad 03 3e
       0.06182566 -0.012332533 0.3431584 0.12859017
0000f0 69 0d f4 bc d8 c9 6d 3d e2 d4 82 bd 83 ec b5 3d
       -0.02979155 0.05805382 -0.063882604 0.08883002
000100 00 79 52 bd 50 3f 9a bd 75 d2 60 3d 62 ea b8 bd
       -0.051384926 -0.07531607 0.054888207 -0.0902908
000110 cd 88 8c 3e 8c 6d 55 bd 2f 8c 89 3c 5c 32 92 bd
       0.2744812 -0.052106425 0.016790478 -0.071385115
000120 57 74 80 bc 8a 22 2b be cf 1c eb bd c6 d0 d2 bb
       -0.015680475 -0.16712394 -0.11480104 -0.006433579
000130 b9 54 89 be f4 b4 c7 bd 2c 3c 05 bc 68 0e 0c 3e
       -0.2682245 -0.09751311 -0.008132022 0.1367737
000140 45 e0 15 3e 76 f9 07 3e 80 b6 0a bd 0e b4 99 bb
       0.14636333 0.13278756 -0.03386545 -0.0046906536
000150 f1 fe a1 bd 4f ed 5c 3d c5 03 db 3d a8 d2 85 bd
       -0.07909954 0.053937253 0.10694078 -0.0653432
000160 21 d3 0c 3b 5e d0 e0 3d cb c2 65 be 76 1a f6 3d
       0.0021488147 0.10977243 -0.22437589 0.12016766
000170 b6 bc 27 be 6b ae 2f bd 95 5c b8 bd 01 c2 5b be
       -0.16380581 -0.042890947 -0.090020336 -0.21460725
000180 04 74 16 3e a1 a0 24 3d 71 96 15 3c 98 7d 2b be
       0.14692694 0.04019225 0.009130106 -0.16747129
000190 3d 33 32 bd ff 79 89 bd ff ca c1 3c 7d 62 dc bd
       -0.043505896 -0.06712722 0.023656366 -0.10760973
0001a0 49 8f b1 3c 5b 4d 31 bd d9 b5 38 3d 83 99 bb 3c
       0.021674769 -0.043286663 0.0450953 0.022900349
0001b0 9f 33 28 bb 40 44 01 be e1 6d 85 3d d2 f0 83 3d
       -0.0025665534 -0.12623692 0.06515098 0.06442417
0001c0 b1 18 84 bc 11 74 91 3d 4d 1f b0 bd 60 8e 97 3d
       -0.016125055 0.07102216 -0.0859972 0.07400203
0001d0 4e 4d 52 bd 12 5e d1 3d bc 1c 26 be 1c 1a aa 3d
       -0.051343255 0.102230206 -0.16221899 0.08305761
0001e0 b6 04 6d bd d6 6e e1 bd 09 d5 34 bd ca 57 85 3c
       -0.05786582 -0.110074684 -0.04414848 0.016277213
0001f0 29 d0 5f 3d 1a ca f2 bd 60 98 6e bd 1f 2e db bd
       0.054641876 -0.11854954 -0.058250785 -0.10702156
000200 bd e1 41 bd 63 25 8c 3e f4 c5 f0 bd 7b 76 1b 3d
       -0.04733442 0.27372274 -0.117565066 0.03795479
000210 1a 2c 6f bd bf e8 a8 bd 1a 99 0e 3d 92 ab 5d bd
       -0.058391668 -0.08247518 0.034813978 -0.0541187
000220 a1 52 9a bc ea df 27 bd 59 38 42 3d 99 61 af 3d
       -0.018838229 -0.040985025 0.04741702 0.08563537
000230 bf c4 83 3d 32 5d 12 be fc cd 61 bd f0 5b 02 3e
       0.06434011 -0.14293364 -0.055128083 0.12730384
000240 b0 81 8b 3d 2b fe ac 3b b4 fb 8f bc 74 b6 e7 bd
       0.06811845 0.0052793226 -0.017576076 -0.11314097
000250 32 11 fc bd 14 f8 0f bd 61 07 9a bd c2 e7 ca bd
       -0.12307967 -0.035148695 -0.07520939 -0.099074855
000260 4d a7 3e 3d 2c 0f 49 bd 60 49 e6 bd 70 9d b0 3c
       0.04654627 -0.049086735 -0.11244464 0.021559447
000270 68 73 01 bd ca 4b c3 3d ef a4 b4 bd 81 96 e9 3d
       -0.0316042 0.0953594 -0.08820521 0.114056595
000280 e4 1c 85 bd 40 57 58 bb f6 8a e1 bd 35 bb 79 bd
       -0.06499651 -0.003301099 -0.11012833 -0.06096955
000290 71 f5 99 bb 8d 1e 49 bd 52 77 8b 3c 2d d2 12 3e
       -0.0046984483 -0.0491014 0.01702467 0.14337988
0002a0 53 b5 e7 bd 44 bb 04 be 8a fa ca bd 1a a5 29 bb
       -0.11313882 -0.12962061 -0.09911068 -0.0025885762
0002b0 27 f5 3f 3d ed ea 5b 3d f6 03 4d 3d 66 6d a0 bd
       0.046864655 0.05369084 0.050052606 -0.07833366
0002c0 a5 55 2e be b8 13 1d 3b 7c 73 80 be f7 e4 ba 3c
       -0.17024858 0.0023968052 -0.25088108 0.022814257
0002d0 74 3a b9 bc c8 e1 d3 3c 90 46 80 3d 10 40 be 3c
       -0.02261088 0.025864497 0.06263459 0.023223907
0002e0 d1 25 88 bd b1 de 1b be 70 4e 61 be 03 1b 4b bd
       -0.06647838 -0.15221669 -0.22002578 -0.049586307
0002f0 0b 66 f6 bd b7 61 28 be c4 38 94 bc e4 84 5c be
       -0.12031182 -0.16443525 -0.018093474 -0.21535069
000300 4c 09 2b be 38 80 4a 3e 33 8a 8f bc 5f a8 af bb
       -0.16702765 0.19775474 -0.017521953 -0.0053606476
000310 23 d6 38 bd 3f 8d ab bd 6c 44 8a 3c 5d 4f f9 bc
       -0.04512609 -0.0837655 0.01687833 -0.030433351
000320 80 61 2a bd 71 6c 16 3d 30 a7 bd bc d9 69 2c 3c
       -0.04159689 0.03672451 -0.02315101 0.010523283
000330 5c a4 22 bd 61 86 ae 3c
       -0.039707527 0.021304311
