notebooks/checkpoint_epoch_35.pth (torch, 150288 bytes, 8 tensors)

features.0.weight f4 [16, 1, 3, 3]
0.97143084 0.87407523 0.48719242 0.6627495 0.5610232 0.23835215 1.0173115 0.5813331
0.09483322 -0.49018204 0.037081223 0.38177282 -0.5145255 -0.026314626 0.4707059 -0.40319508
0.29475847 0.3155836 0.17655477 0.4325555 0.2762449 -0.14713347 -0.28548262 0.028927317
-0.09143173 -0.16591579 -0.28596035 -0.10548402 -0.11346752 -0.04157016 -0.52165467 -0.038947776
0.5819131 0.32807943 -0.102231465 0.5731793 -0.59310025 -0.25867665 -0.56943524 0.3641436
0.17912742 0.4454087 0.18096176 0.08295451 0.18389654 0.75496626 0.62574077 0.23654288
0.4970313 0.23721889 0.4838391 -0.40728727 0.12004146 -0.17598881 0.5472026 0.8955054
0.576374 0.47698674 0.6972352 0.9205613 0.59338546 0.7929238 0.6290927 0.41644284
-0.21286155 -0.3395924 0.08031883 0.105259076 -0.419928 0.072025664 0.4699546 -0.27745765
-0.24989122 0.25251663 -0.03060769 -0.024436964 0.002397945 0.09541238 0.28407258 -0.38183102
-0.02989675 0.4575709 -0.20980471 -0.30911678 0.44804552 -0.105613776 -0.39901963 0.3123238
0.22767353 -0.3489962 0.43948734 0.20064555 -0.14541668 0.53628236 0.5780966 -0.05947134
0.7765943 0.15850201 0.039030444 0.138957 -0.19980039 0.15991963 0.15466273 -0.23799682
0.07778628 0.022130564 -0.024439618 -0.23728561 -0.45964018 -0.6393233 -0.56882197 -0.15431952
-0.36152855 -0.29253167 -0.059710935 -0.3201839 -0.38518444 -0.4785542 0.6080309 0.08389048
0.050738685 0.1336595 -0.009805726 0.27104816 -0.5067019 -0.029860785 0.07852842 -0.2856328
0.069630355 0.23065077 -0.5089113 0.28723893 0.35399288 -0.61226773 0.41360477 0.48431626
0.46259117 0.50113183 0.057985984 -0.33954254 -0.3818911 -0.19768348 -0.33688396 -0.46265766
00000000: b1af 783f 65c3 5f3f 4971 f93e f4a9 293f
00000010: 379f 0f3f 9612 743e 4337 823f 3fd2 143f
00000020: eb37 c23d 24f9 fabe 7be2 173d ba77 c33e
00000030: f1b7 03bf c591 d7bc 5d00 f13e 966f cebe
00000040: 95ea 963e 2c94 a13e c6ca 343e ea77 dd3e
00000050: f96f 8d3e 28aa 16be c72a 92be fbf8 ec3c
00000060: 8f40 bbbd d4e5 29be 6569 92be 0208 d8bd
00000070: a961 e8bd 7945 2abd 298b 05bf b487 1fbd
00000080: 42f8 143f 07fa a73e bb5e d1bd e1bb 123f
00000090: 6bd5 17bf 4471 84be 82c6 11bf 0871 ba3e
000000a0: 2e6d 373e 9c0c e43e 0a4e 393e 0ee4 a93d
000000b0: 604f 3c3e 7845 413f 8c30 203f 4c38 723e
000000c0: e37a fe3e 82e9 723e c2b9 f73e f587 d0be
000000d0: 4cd8 f53d 6936 34be 7815 0c3f d83f 653f
000000e0: 3f8d 133f 9b37 f43e 027e 323f e8a9 6b3f
000000f0: 1ce8 173f 0efd 4a3f 380c 213f ff37 d53e
00000100: 61f8 59be 0edf adbe 337e a43d 1292 d73d
00000110: ce00 d7be 3182 933d e49d f03e ee0e 8ebe
00000120: 7ce3 7fbe dc49 813e fabc fabc 0730 c8bc
00000130: d726 1d3b 9167 c33d f671 913e 5b7f c3be
00000140: 07ea f4bc bc46 ea3e 0cd7 56be 8e44 9ebe
00000150: 3966 e53e 094c d8bd 4d4c ccbe e8e8 9f3e
00000160: 4023 693e a1af b2be 7c04 e13e 0776 4d3e
00000170: 1ce8 14be cd49 093f 24fe 133f 3898 73bd
00000180: e2ce 463f 5a4e 223e 63de 1f3d be4a 0e3e
00000190: 7998 4cbe f9c1 233e e85f 1e3e 70b5 73be
000001a0: 6a4e 9f3d 284b b53c 9835 c8bc 00fb 72be
000001b0: f555 ebbe b1aa 23bf 519e 11bf f005 1ebe
000001c0: 451a b9be b6c6 95be 7493 74bd 25ef a3be
000001d0: e536 c5be 0e05 f5be eaa7 1b3f c6ce ab3d
000001e0: 5ed3 4f3d 09de 083e 32a8 20bc d3c6 8a3e
000001f0: 37b7 01bf 9b9e f4bc 82d3 a03d 763e 92be
00000200: 5c9a 8e3d b72f 6c3e 0348 02bf fb10 933e
00000210: 8e3e b53e 94bd 1cbf 01c4 d33e 4df8 f73e
00000220: c0d8 ec3e 2d4a 003f b682 6d3d 85d8 adbe
00000230: 3b87 c3be 8a6d 4abe 0e7c acbe 77e1 ecbe

features.0.bias f4 [16]
0.04588888 -0.040041 0.57931566 -0.13454999 0.20448928 -0.30163717 -0.096575186 0.47503182
0.30212745 0.038988177 -0.024734361 0.6553509 -0.26615468 -0.053518854 -0.019350555 -0.25174913
00000000: faf5 3b3d 0802 24bd 084e 143f 79c7 09be
00000010: a365 513e 3070 9abe 36c9 c5bd 5f37 f33e
00000020: 73b0 9a3e 11b2 1f3d b79f cabc 14c5 273f
00000030: 6d45 88be 9636 5bbd 0e85 9ebc 43e5 80be

features.3.weight f4 [32, 16, 3, 3]
0.0764312 0.09823371 0.028337289 0.045894947 0.08590798 0.111962035 0.10926203 0.0807316
0.041002914 -0.25348067 -0.10522414 -0.20918483 -0.39155573 -0.40333962 -0.51959586 -0.31460893
-0.51105046 -0.34311342 0.122994564 0.06335477 0.09293712 0.14499332 0.18202603 0.066760935
0.007928999 0.14594698 0.14276385 0.06069083 0.11778985 0.1680176 -0.0056477594 -0.10823145
-0.040943954 -0.14068586 -0.12182888 -0.0077991793 0.43788284 0.30171928 0.35730433 0.2787244
0.10839475 0.059137605 -0.013612493 -0.05688781 0.052059986 -0.02684379 -0.0010116491 0.06867969
0.1679133 0.1336758 0.070234984 0.099197805 0.077887684 0.08505881 0.04722896 0.1085053
0.16392319 0.06998853 0.11396468 -0.00085886236 -0.0210858 -0.043481726 -0.03287205 -0.21457347
-0.23173684 -0.16043621 -0.30000505 -0.22950302 -0.18722823 -0.21414164 -0.10922723 -0.07655858
0.054488264 0.002189122 0.017942894 0.020588338 0.04503714 0.03699875 0.11342924 0.08229789
0.028056486 -0.4176046 -0.41960818 -0.13781105 -0.51607597 -0.41012588 -0.13764189 -0.3242243
-0.24352112 -0.21055964 0.035963006 -0.0068140053 0.026027212 0.09341079 0.08587981 0.08497019
-0.05382253 -0.04019208 -0.09363598 0.07273582 -0.038456846 -0.009840856 -0.07170581 -0.104320325
-0.022074498 0.0810464 0.009165523 0.041792218 0.4212577 0.2462806 0.026762271 -0.05411361
-0.3230338 -0.36326566 0.009733661 0.013880383 -0.05313319 -0.03130125 0.069450565 0.22890878
0.051802322 0.070623524 0.16673204 -0.047332067 0.038618367 0.018058997 -0.22131896 -0.1741167
-0.056662336 -0.25875425 -0.3689345 -0.2506702 -0.28785563 -0.20839797 -0.21679541 -0.04387413
-0.07244741 -0.12201903 0.025932109 -0.038992926 -0.016213797 -0.065763064 -0.16679992 -0.113839425
0.24413948 0.11198807 -0.13249737 0.14771612 0.0946499 -0.10758244 0.14328848 0.027919209
-0.022364313 -0.07420117 -0.772168 -0.5290208 -0.07006297 -0.84554094 -0.54715824 0.21562983
-0.551483 -0.37761298 -0.05816555 0.044174273 0.14719668 0.06554617 0.0081478385 0.10311498
-0.0039502615 0.00503505 0.034119334 -0.11538071 -0.40934125 -0.4897821 -0.04435633 -0.35646692
-0.4766154 -0.0044830516 -0.25986156 -0.33975708 -0.007440803 -0.1459362 -0.0011185603 -0.06470586
-0.094667055 -0.026455713 -0.07727417 0.09160358 -0.021824596 0.16169178 -0.03578698 -0.17765313
0.12973377 0.051301375 -0.2751821 0.20445941 -0.025933944 -0.12018973 0.19119307 -0.059953827
-0.2103951 0.21797346 0.029471673 -0.26450956 0.19774522 0.046423517 -0.17982285 0.12813224
-0.033040933 0.006325366 0.13638556 -0.05307919 -0.008001341 0.07935616 0.047522753 0.027374128
0.013524484 -0.008667383 -0.042107437 -0.047050808 -0.06526522 -0.04679584 0.03338946 -0.061539497
-0.039144393 0.3680946 0.0879587 -0.08171216 0.36396486 0.10051067 -0.009231408 0.3281125
0.17795382 0.07868591 0.24105461 -0.037845086 -0.1547591 0.18974158 -0.010383413 -0.1850986
0.1814301 0.021378592 -0.069062375 0.07683145 0.07464737 0.040676728 0.070974566 0.062185444
-0.029115159 -0.00019679382 0.018307373 -0.04439197 -0.04491587 -0.033166163 0.11797253 -0.029805006
00000000: f687 9c3d c12e c93d 9a23 e83c 57fc 3b3d
00000010: 86f0 af3d 5a4c e53d c5c4 df3d 9c56 a53d
00000020: acf2 273d 38c8 81be c17f d7bd 8c34 56be
00000030: fe79 c8be 8882 cebe 3c04 05bf 6c14 a1be
00000040: 34d4 02bf 90ac afbe 93e4 fb3d 25c0 813d
00000050: d155 be3d 2179 143e 0865 3a3e f5b9 883d
00000060: a2e8 013c 2073 153e b030 123e f396 783d
00000070: ce3b f13d ce0c 2c3e d710 b9bb 73a8 ddbd
00000080: d9b4 27bd f40f 10be 6b81 f9bd 4290 ffbb
00000090: 2e32 e03e f37a 9a3e 98f0 b63e f7b4 8e3e
000000a0: 11fe dd3d 463a 723d ef06 5fbc 3103 69bd
000000b0: da3c 553d 82e7 dbbc 5099 84ba f0a7 8c3d
000000c0: 77f1 2b3e 4fe2 083e 5cd7 8f3d 3828 cb3d
000000d0: 9483 9f3d 5033 ae3d 2773 413d 0738 de3d
000000e0: 7bdb 273e 2556 8f3d 5066 e93d 4725 61ba
000000f0: 21bc acbc e519 32bd d8a4 06bd 26b9 5bbe
00000100: 6c4c 6dbe 6449 24be 439a 99be d702 6bbe
00000110: c2b8 3fbe f247 5bbe 87b2 dfbd bfca 9cbd
00000120: 162f 5f3d 5f77 0f3b fafc 923c e0a8 a83c
00000130: dd78 383d 008c 173d 974d e83d cc8b a83d
00000140: b7d6 e53c 45d0 d5be e2d6 d6be 571e 0dbe
00000150: 8e1d 04bf 05fc d1be fff1 0cbe ba00 a6be
00000160: 9a5d 79be f29c 57be f24d 133d 0548 dfbb
00000170: 0537 d53c 284e bf3d c1e1 af3d da04 ae3d
00000180: 0375 5cbd 73a0 24bd 38c4 bfbd 85f6 943d
00000190: ed84 1dbd 8b3b 21bc 7fda 92bd e5a5 d5bd
000001a0: 94d5 b4bc a8fb a53d fd2a 163c 512e 2b3d
000001b0: 17af d73e fb30 7c3e 8d3c db3c 3ca6 5dbd
000001c0: b064 a5be f5fd b9be ef79 1f3c 8c6a 633c
000001d0: 30a2 59bd bd35 00bd 193c 8e3d 1067 6a3e
000001e0: ac2e 543d 11a3 903d cebb 2a3e 45df 41bd
000001f0: 4b2e 1e3d 76f0 933c 70a1 62be a64b 32be
00000200: c416 68bd 707b 84be fce4 bcbe d857 80be
00000210: d061 93be 4766 55be 9eff 5dbe 5cb5 33bd
00000220: 4f5f 94bd 1de5 f9bd 936f d43c 0cb7 1fbd
00000230: ccd2 84bc c9ae 86bd 99cd 2abe a524 e9bd
00000240: b3ff 793e 005a e53d 64ad 07be e542 173e
00000250: cfd7 c13d 2f54 dcbd 37ba 123e d3b6 e43c
00000260: 5d35 b7bc c8f6 97bd cdac 45bf e86d 07bf
00000270: 2d7d 8fbd 5f75 58bf 9012 0cbf 11ce 5c3e
00000280: fd2d 0dbf 7d56 c1be 003f 6ebd 15f0 343d
00000290: baba 163e 123d 863d 837e 053c f22d d33d
000002a0: 3271 81bb 10fd a43b b7c0 0b3d b94c ecbd
000002b0: 2d95 d1be b8c4 fabe fcae 35bd d582 b6be
000002c0: ef06 f4be 90e6 92bb 930c 85be a4f4 adbe
000002d0: fbd1 f3bb 4d70 15be a89c 92ba 8284 84bd
000002e0: cde0 c1bd a7b9 d8bc ec41 9ebd a89a bb3d
000002f0: 7fc9 b2bc 8892 253e 5e95 12bd b4ea 35be
00000300: eed8 043e 6421 523d abe4 8cbe cf5d 513e
00000310: 6c73 d4bc 0826 f6bd 1ec8 433e 2592 75bd
00000320: d071 57be 6f34 5f3e 946e f13c cc6d 87be
00000330: b97d 4a3e 9626 3e3d 7b23 38be 1935 033e
00000340: ee55 07bd 0445 cf3b a8a8 0b3e 9169 59bd
00000350: 0e18 03bc 7b85 a23d 38a7 423d b53f e03c
00000360: cc95 5d3c a401 0ebc d978 2cbd 59b8 40bd
00000370: c6a9 85bd ffac 3fbd 63c3 083d d710 7cbd
00000380: df55 20bd e576 bc3e b123 b43d b458 a7bd
00000390: 9a59 ba3e 8ad8 cd3d 553f 17bc 5dfe a73e
000003a0: 8739 363e 1426 a13d 05d7 763e 7303 1bbd
000003b0: 2b79 1ebe 9e4b 423e 311f 2abc 7d8a 3dbe
000003c0: d0c8 393e 2822 af3c 9370 8dbd cf59 9d3d
000003d0: b8e0 983d a49c 263d 1d5b 913d 2ab6 7e3d
000003e0: ea82 eebc 705a 4eb9 58f9 953c 5bd4 35bd
000003f0: b4f9 37bd 3ed9 07bd 959b f13d a129 f4bc

features.3.bias f4 [32]
0.08073288 0.073203795 0.12703912 0.031570993 0.043331563 -0.033722606 -0.173545 0.027525373
0.12592143 0.07656481 -0.12763353 0.04171098 0.101097696 0.0386301 0.049419403 -0.007620572
0.01376802 -0.045829687 0.1984252 -0.056642875 0.14693125 -0.0141048515 -0.057040814 0.06960911
0.09922881 -0.26046208 0.26435357 0.15535511 -0.24888101 0.00461374 -0.11465136 -0.049373582
00000000: 4857 a53d dfeb 953d 8b16 023e 9650 013d
00000010: 707c 313d b720 0abd c8b5 31be e47c e13c
00000020: 8cf1 003e 03ce 9c3d 5db2 02be 22d9 2a3d
00000030: 4f0c cf3d 993a 1e3d 006c 4a3d feb5 f9bb
00000040: 4393 613c e9b7 3bbd fa2f 4b3e 5c02 68bd
00000050: 2575 163e 0918 67bc a1a3 69bd 398f 8e3d
00000060: 7938 cb3d 495b 85be 5a59 873e 6915 1f3e
00000070: aada 7ebe db2e 973b 55ce eabd f43b 4abd

features.6.weight f4 [64, 32, 3, 3]
-0.026171507 0.029585794 0.027265877 0.050877884 0.09697005 0.08466178 0.061796498 0.11613441
0.056860298 -0.3399502 -0.2781961 -0.2598586 -0.12800956 -0.13052654 -0.022519857 0.07731532
0.13637476 0.18032905 -0.3025317 -0.38460734 -0.31302503 -0.039678086 -0.05181246 -0.0534031
0.10897714 0.079338804 0.25692284 -0.29655305 -0.20754974 -0.18413423 -0.13057825 -0.064962775
-0.03889358 -0.057381205 0.008301716 0.05700632 -0.037420973 -0.064534016 -0.11686999 0.022604546
0.034864146 0.022071138 0.049337216 0.05920547 0.045100145 -0.16184242 -0.15569343 -0.12238802
-0.08245103 -0.031373143 0.014068385 0.05020797 0.074470885 0.06290143 0.067191444 0.06814781
0.13925627 0.058947247 0.07462015 0.25944513 0.16971341 0.06677039 0.23992035 -0.096468545
-0.07561767 -0.08965972 -0.05271537 -0.13604952 -0.044747356 -0.104838334 -0.101031594 -0.11085778
-0.03173503 -0.009940784 1.0593729e-05 -0.04172485 0.020760354 0.03936454 0.085755534 -7.428423e-05
0.009006015 -0.019294504 -0.021785418 -0.033144455 -0.0049840887 0.022526957 0.012374183 -0.00417126
0.04204944 -0.022631539 0.039656706 0.00070111855 0.09600364 0.12956782 0.06702483 0.12442652
0.042422403 0.08639319 0.14622979 0.19073242 0.19216004 0.17982891 0.20679554 0.15654245
0.17783037 0.13230017 0.14573623 0.10527271 0.015000855 -0.054494184 -0.07288365 -0.08737872
-0.17571138 -0.15519977 -0.18309495 -0.1534371 -0.11636082 -0.45340303 -0.50403106 -0.35968304
-0.061248172 -0.12824775 -0.15813163 0.11213772 0.124830075 0.17362201 0.047883563 -0.03055375
0.09977741 0.023781495 0.052787926 0.07462382 -0.04209419 0.0048855594 0.012709327 0.021913748
-0.0756509 -0.10586669 -0.0054252897 -0.09331403 -0.049393494 -0.007103249 0.0059442343 -0.0065815626
-0.3915879 -0.34876436 -0.33837575 -0.14603224 -0.08057628 -0.11725332 -0.0717395 -0.053970125
0.05246115 0.23891288 0.18362433 0.2526277 0.22911943 0.20704979 0.23472536 0.25397262
0.12543319 0.24599726 0.04973729 0.05400338 -0.044801097 0.026519027 -0.025887433 0.07983744
0.0013565376 -0.0038627896 0.038309794 -0.0023522668 -0.080021404 0.057312313 -0.01744716 0.029123154
0.08892156 -0.0021585803 0.067287095 0.05946346 -0.051365096 -0.079669714 -0.01030825 -0.005347658
-0.03827773 -0.059787564 0.041342605 -0.06259047 0.049351536 0.033532392 -0.02763856 0.05838755
0.09778326 0.021322656 0.16908939 -0.0031489208 0.056020305 0.08072568 -0.6943379 -0.59100354
-0.39661458 -0.31722718 -0.27311912 -0.0706452 -0.062494986 0.028685981 0.14637302 -0.39082938
-0.44674444 -0.36829683 -0.2886898 -0.1436499 -0.04521499 0.04084685 0.11546462 0.21993811
0.047007687 -0.035614837 -0.058962315 0.00042657106 -0.07324546 -0.119813755 -0.12329946 -0.16557026
-0.07363422 -0.041905414 -0.02710588 -0.00054163096 0.01744189 0.019554006 0.06731873 0.01914104
0.12782604 0.14186041 0.04574586 0.047696527 0.18492824 0.070261866 0.032475468 0.11728805
-0.03173465 -0.1325933 0.0044283103 -0.025147954 0.048264496 0.06672623 -0.004115861 0.092073835
0.02997178 0.09479544 0.08827758 0.124482565 -0.07308731 -0.07083014 -0.03296324 0.0055880486
00000000: a165 d6bc e85d f23c b05c df3c 5465 503d
00000010: 3c98 c63d 2863 ad3d 531e 7d3d e1d7 ed3d
00000020: 58e6 683d f40d aebe b86f 8ebe 300c 85be
00000030: f014 03be c0a8 05be 907b b8bc 7f57 9e3d
00000040: d3a5 0b3e 2ea8 383e 6fe5 9abe 41eb c4be
00000050: d144 a0be 7d85 22bd 4d39 54bd 36bd 5abd
00000060: 682f df3d 627c a23d 648b 833e cdd5 97be
00000070: eb87 54be af8d 3cbe 4eb6 05be 340b 85bd
00000080: e04e 1fbd 8e08 6bbd ec03 083c 767f 693d
00000090: bc46 19bd 692a 84bd 8959 efbd 2b2d b93c
000000a0: b5cd 0e3d 88ce b43c d215 4a3d 6f81 723d
000000b0: eeba 383d 05ba 25be 196e 1fbe 92a6 fabd
000000c0: 16dc a8bd 2081 00bd 157f 663c dfa6 4d3d
000000d0: 3184 983d 77d2 803d ab9b 893d 1491 8b3d
000000e0: 3299 0e3e ab72 713d 73d2 983d fed5 843e
000000f0: 5ac9 2d3e eabe 883d aead 753e 4d91 c5bd
00000100: 70dd 9abd 849f b7bd 12ec 57bd 9150 0bbe
00000110: 0149 37bd 7bb5 d6bd a7e9 cebd 6709 e3bd
00000120: 97fc 01bd acde 22bc b8bb 3137 ade7 2abd
00000130: 9e11 aa3c b63c 213d 99a0 af3d 0bc9 9bb8
00000140: f78d 133c 820f 9ebc 5577 b2bc 7bc2 07bd
00000150: 9151 a3bb 748a b83c 16bd 4a3c 11af 88bb
00000160: 093c 2c3d c765 b9bc 126f 223d 45cb 373a
00000170: 8e9d c43d 6dad 043e 5044 893d 55d3 fe3d
00000180: 1dc3 2d3d eaee b03d 43bd 153e 5c4f 433e
00000190: 9ac5 443e 1225 383e 36c2 533e aa4c 203e
000001a0: 2a19 363e b279 073e e13b 153e 3899 d73d
000001b0: 25c6 753c 4b35 5fbd 0644 95bd 9df3 b2bd
000001c0: afed 33be b0ec 1ebe 3e7d 3bbe 9d1e 1dbe
000001d0: 954e eebd 7124 e8be 2e08 01bf 6028 b8be
000001e0: 5ddf 7abd 6153 03be 42ed 21be 76a8 e53d
000001f0: e9a6 ff3d f8c9 313e 8e21 443d dc4b fabc
00000200: 1958 cc3d 69d1 c23c 2738 583d 60d4 983d
00000210: f56a 2cbd 0b17 a03b c83a 503c 7684 b33c
00000220: dcee 9abd a3d0 d8bd a1c6 b1bb 6d1b bfbd
00000230: d550 4abd 5fc2 e8bb dac7 c23b 26aa d7bb
00000240: 367e c8be 3e91 b2be 963f adbe 7a89 15be
00000250: 2d05 a5bd 8222 f0bd 29ec 92bd c70f 5dbd
00000260: 81e1 563d 94a5 743e 0408 3c3e 6b58 813e
00000270: 499e 6a3e dc04 543e d85b 703e b308 823e
00000280: 8f71 003e b5e6 7b3e 54b9 4b3d a632 5d3d
00000290: 5b81 37bd 6e3e d93c e211 d4bc d081 a33d
000002a0: d9cd b13a db26 7dbb bbea 1c3d 7d28 1abb
000002b0: 43e2 a3bd 51c0 6a3d 59ed 8ebc ae93 ee3c
000002c0: 821c b63d f876 0dbb d1cd 893d f58f 733d
000002d0: 3564 52bd e029 a3bd efe3 28bc 683b afbb
000002e0: 1cc9 1cbd cee3 74bd dd56 293d 6f2f 80bd
000002f0: d624 4a3d 4359 093d 436a e2bc c927 6f3d
00000300: 9742 c83d daac ae3c c525 2d3e 205e 4ebb
00000310: 8c75 653d 8153 a53d 21c0 31bf 024c 17bf
00000320: 1111 cbbe 9a6b a2be 45d6 8bbe 6eae 90bd
00000330: befa 7fbd ddfe ea3c cfe2 153e ca1a c8be
00000340: b0bb e4be 6791 bcbe 26cf 93be f618 13be
00000350: 5a33 39bd 074f 273d b778 ec3d 7537 613e
00000360: 228b 403d dde0 11bd 7882 71bd 66a5 df39
00000370: b701 96bd ea60 f5bd 6d84 fcbd 408b 29be
00000380: 8acd 96bd 03a5 2bbd 270d debc 3dfc 0dba
00000390: 4be2 8e3c b92f a03c 67de 893d accd 9c3c
000003a0: d4e4 023e db43 113e 0360 3b3d 6f5d 433d
000003b0: d45d 3d3e 74e5 8f3d ff04 053d b834 f03d
000003c0: 31fc 01bd 8ac6 07be 5c1b 913b 1503 cebc
000003d0: feb0 453d c3a7 883d 58de 86bb 3591 bc3d
000003e0: 6187 f53c 1d24 c23d e0ca b43d b7f0 fe3d
000003f0: cdae 95bd 640f 91bd 7604 07bd f31b b73b

features.6.bias f4 [64]
0.057743777 0.04879796 -0.09738982 -0.07371065 -0.052734222 0.010410117 -0.028341362 -0.02666985
-0.036995944 -0.012697815 -0.078053854 -0.24819703 -0.0044003157 0.05206751 -0.0559663 -0.07678325
0.08112317 -0.14470404 0.07930821 0.16534103 -0.13210903 0.053515848 -0.14741798 -0.03427189
0.07904401 0.0056100655 0.16061075 -0.004042116 -0.008209772 0.009107141 -0.00044354092 -0.14873263
0.0050918 0.023775877 0.08583632 -0.03604497 -0.07343794 8.701262e-05 -0.032718156 -0.009825084
0.02789504 -0.021961607 -0.0421709 0.019202407 -0.045346376 0.014898758 -0.015087443 -0.077669136
-0.112264834 -0.091978595 -0.092711814 -0.21421959 -0.016519763 -0.0801026 -0.18852605 0.10285341
0.07304481 0.039353922 -0.029860046 -0.056129426 0.042905476 0.0011414821 0.06404641 -0.1958758
00000000: bd84 6c3d 5fe0 473d 5074 c7bd 9cf5 96bd
00000010: d7ff 57bd 328f 2a3c 252c e8bc bb7a dabc
00000020: 0f89 17bd 7f0a 50bc b3da 9fbd 5d27 7ebe
00000030: 8630 90bb be44 553d eb3c 65bd 8940 9dbd
00000040: e823 a63d 4c2d 14be 586c a23d 294f 293e
00000050: 9747 07be 6f33 5b3d bdf4 16be ae60 0cbd
00000060: d3e1 a13d a4d4 b73b 2577 243e ba73 84bb
00000070: 4882 06bc 1e36 153c 0e8b e8b9 5e4d 18be
00000080: 1dd9 a63b a1c5 c23c f4ca af3d e4a3 13bd
00000090: a166 96bd 8b7a b638 7903 06bd 64f9 20bc
000000a0: 2484 e43c d4e8 b3bc 65bb 2cbd 5e4e 9d3c
000000b0: 1fbd 39bd ec19 743c 5331 77bc ff10 9fbd
000000c0: 1beb e5bd 465f bcbd b1df bdbd 615c 5bbe
000000d0: 7454 87bc d50c a4bd f90c 41be cfa4 d23d
000000e0: 8498 953d 9431 213d 0e9d f4bc f8e7 65bd
000000f0: a7bd 2f3d c99d 953a c42a 833d aa93 48be

classifier.weight f4 [206, 64]
0.065277725 0.09459739 -0.20497873 -0.5689658 -0.013551833 -0.20127863 0.10162274 0.2385462
0.17537199 -1.6471683 -0.01689548 -0.054670338 -0.35168037 -0.84583765 0.04217032 -0.20897467
-0.25990856 -0.095865496 0.09877091 0.102629 -0.13624452 -0.17098702 0.19366425 -0.09041982
-0.0016262489 -0.055520136 0.053766087 0.10881688 0.17578308 -0.019999107 0.10568301 -2.2586026
0.07776772 -0.36991534 -0.49147618 -0.08407181 -0.55201006 0.017792204 -0.649177 0.01615293
0.011832594 -0.3086516 -0.005606294 -0.031334378 -0.29399824 -0.04322789 0.09594779 -0.012367827
-1.0016403 0.06772627 -0.61007124 -0.22687568 0.08594998 -0.3011305 -0.08077267 0.07572989
0.13388029 0.057679474 -0.55917937 -0.2718873 -0.083608806 0.16817528 0.16601156 -0.0341017
0.056768224 -0.02043178 -0.37378007 -0.3326349 0.08143347 -0.2840004 -0.035781387 0.21400611
0.027283974 -1.3178052 0.023700587 0.19162518 0.029822076 -0.66804314 -0.05198657 0.02656207
-0.17027429 -0.055764996 -0.008221573 0.033138614 0.2209397 -0.22239272 0.07987237 0.1673113
-0.069920704 -0.11358202 0.16876103 -0.12692624 0.0040081227 -0.09347221 0.049330786 -1.2914747
0.1893685 -0.7547732 -0.36946207 0.17126808 -0.01855997 0.07419083 -0.8190074 0.044496045
0.055629585 -0.23066191 0.0679471 -0.045987617 -0.20594886 -0.0015966543 0.06942891 -0.21500169
-1.5558585 0.23016566 -0.2521634 -0.07098372 0.116349176 -0.44416094 0.13643378 0.15118463
-0.075297765 -0.08394646 -0.8555309 -0.12818265 -0.0044646445 0.07407091 0.18925376 0.049265005
-0.0013384301 0.11003217 -0.041181542 -1.7704062 0.07439214 0.11404997 -0.0355436 -0.10762625
0.14523701 -0.47173545 -0.045012705 -0.28382072 -0.20489985 -0.22928643 -0.18262017 -0.26602313
-0.45674488 -0.1610951 -0.08812478 -0.2022618 -0.10975002 -0.050737716 0.1161048 -0.15329243
0.040109064 0.033418745 0.13142972 0.077321 0.0732695 -0.00033185835 0.026846763 -0.8003501
-0.015372412 -0.23952165 -1.2871865 0.031056225 -0.23987983 -0.0016509288 -0.44441557 -0.2914005
0.10554049 -0.014324115 -0.0023297663 -0.11832869 0.08298408 -0.012898047 0.014083157 -0.4416758
-0.96722305 -0.2568602 -0.33538607 -0.7227733 -0.11257702 -0.06312652 -0.09993761 0.01224213
-0.0117391255 -0.08631218 -0.5454677 -0.074733265 -0.07980831 0.025483202 0.07382843 -0.07015447
0.068458766 -0.032921866 -0.19447309 -0.3365316 0.11543102 -0.06971617 -0.23600928 0.072302625
-0.10673719 -0.34530237 0.096777834 -0.20357351 0.10995132 -0.22895473 -0.09042463 -0.003170373
-0.040807616 -0.023975179 -0.5975251 0.068273515 -0.11798167 -0.037136838 -0.19899721 0.07712966
0.04423589 0.034720358 -0.27190903 0.043781757 -0.22428082 0.04312833 -0.26708242 -0.006786514
0.07222525 -0.8381145 -0.42616174 0.07000709 -0.07634667 -0.281354 -0.27784342 0.17643979
-0.32983384 0.14869285 -0.054050904 0.09279258 -0.026382279 0.09782774 0.03410921 -0.35014114
-0.25001785 -0.17611974 -0.31900725 -0.4341968 -0.0052240337 0.018047001 -0.08747221 -0.16832513
0.04051607 -0.116027996 -0.16501154 0.002397309 0.015039353 -0.1355664 -0.20814858 0.058526438
00000000: 54b0 853d 47bc c13d f2e5 51be bea7 11bf
00000010: 8208 5ebc fc1b 4ebe 951f d03d 7445 743e
00000020: b794 333e 69d6 d2bf 6468 8abc 01ee 5fbd
00000030: 730f b4be d188 58bf c9ba 2c3d 75fd 55be
00000040: bc12 85be 2155 c4bd 6748 ca3d 272f d23d
00000050: af83 0bbe 3917 2fbe ec4f 463e 072e b9bd
00000060: dc27 d5ba 1569 63bd d439 5c3d 62db de3d
00000070: 7b00 343e 2bd5 a3bc 5570 d83d f28c 10c0
00000080: af44 9f3d 8b65 bdbe c4a2 fbbe d72d acbd
00000090: 8850 0dbf f5c0 913c 7730 26bf 2653 843c
000000a0: 7fdd 413c 9507 9ebe 01b5 b7bb 7a58 00bd
000000b0: f086 96be ba0f 31bd 4680 c43d 6da2 4abc
000000c0: c035 80bf 12b4 8a3d a12d 1cbf 1952 68be
000000d0: 8b06 b03d c72d 9abe 246c a5bd 4618 9b3d
000000e0: ea17 093e 5041 6c3d 6126 0fbf d034 8bbe
000000f0: 183b abbd 2436 2c3e effe 293e 39ae 0bbd
00000100: cc85 683d 8c60 a7bc 1a60 bfbe 1f4f aabe
00000110: 97c6 a63d 8068 91be 818f 12bd 6b24 5b3e
00000120: a482 df3c d7ad a8bf bc27 c23c 6439 443e
00000130: 6d4d f43c e004 2bbf dfef 54bd b398 d93c
00000140: 625c 2ebe d669 64bd c7b3 06bc 5bbc 073d
00000150: 043e 623e ebba 63be 2094 a33d a753 2b3e
00000160: 9632 8fbd b19d e8bd b1cf 2c3e f4f8 01be
00000170: 9256 833b 5c6e bfbd 140f 4a3d 0b4f a5bf
00000180: d1e9 413e d138 41bf 222a bdbe e660 2f3e
00000190: 140b 98bc 5df1 973d 78aa 51bf 7c41 363d
000001a0: d9db 633d a332 6cbe d927 8b3d 835d 3cbd
000001b0: 42e4 52be d446 d1ba bf30 8e3d 6729 5cbe
000001c0: 5f26 c7bf 8cb0 6b3e 901b 81be ea5f 91bd
000001d0: 7a48 ee3d 1069 e3be 4cb5 0b3e 25d0 1a3e
000001e0: b735 9abd 1fec abbd 1304 5bbf 5042 03be
000001f0: 274c 92bb 7db2 973d bdcb 413e 1aca 493d
00000200: 436e afba 8c58 e13d faad 28bd ac9c e2bf
00000210: e85a 983d 0893 e93d 2a96 11bd 276b dcbd
00000220: 03b9 143e 4f87 f1be 3e5f 38bd f350 91be
00000230: 44d1 51be 10ca 6abe c800 3bbe 2f34 88be
00000240: 77da e9be 1df6 24be c47a b4bd b81d 4fbe
00000250: 9ec4 e0bd 5ad2 4fbd 5ac8 ed3d b1f8 1cbe
00000260: 6749 243d 18e2 083d 8395 063e 795a 9e3d
00000270: 520e 963d 46fd adb9 beed db3c bfe3 4cbf
00000280: 92dc 7bbc 2a45 75be 87c2 a4bf a069 fe3c
00000290: 0fa3 75be fa63 d8ba 708a e3be 7232 95be
000002a0: 9d25 d83d b1af 6abc feae 18bb 5056 f2bd
000002b0: 8ff3 a93d 5552 53bc 0bbd 663c 5523 e2be
000002c0: ee9b 77bf 2e83 83be b9b7 abbe ac07 39bf
000002d0: c88e e6bd 7a48 81bd 17ac ccbd 3793 483c
000002e0: 7655 40bc 71c4 b0bd c5a3 0bbf c10d 99bd
000002f0: 8a72 a3bd 26c2 d03c 5c33 973d 26ad 8fbd
00000300: 1c34 8c3d 14d9 06bd f423 47be df4d acbe
00000310: 1967 ec3d 5ac7 8ebd 6bac 71be 6613 943d
00000320: 0799 dabd 79cb b0be 7533 c63d 9375 50be
00000330: 282e e13d 1c73 6abe 8c30 b9bd 08c6 4fbb
00000340: e325 27bd 9867 c4bc 68f7 18bf fcd2 8b3d
00000350: 60a0 f1bd cc1c 18bd edc5 4bbe 28f6 9d3d
00000360: b130 353d ef36 0e3d a937 8bbe 8054 333d
00000370: dfa9 65be 55a7 303d 07bf 88be 6861 debb
00000380: d5ea 933d ac8e 56bf df31 dabe e15f 8f3d
00000390: a55b 9cbd a20d 90be 7e41 8ebe a2ac 343e
000003a0: fbdf a8be f042 183e 7b64 5dbd 090a be3d
000003b0: a61f d8bc e959 c83d 19b6 0b3d b345 b3be
000003c0: 5702 80be bc58 34be eb54 a3be 0b4f debe
000003d0: 5f2e abbb 4ed7 933c a124 b3bd 6c5d 2cbe
000003e0: 2ef4 253d 16a0 edbd c9f8 28be 2c1c 1d3b
000003f0: 9e67 763c ebd1 0abe e724 55be 6bb9 6f3d

classifier.bias f4 [206]
0.10637585 0.07120685 0.16971338 0.05147454 -0.0034324257 0.1172489 0.09933806 0.17892025
0.022874426 -0.02006261 -0.08515133 0.079691425 -0.14009514 0.0011305902 -0.05923736 -0.031338256
0.08389226 0.07034196 -0.20601174 0.17299327 0.12463712 0.1305465 0.034381352 0.131123
0.10842253 0.10277299 0.089482374 0.0155472085 -0.105198994 0.05438607 -0.13597508 0.04414658
0.22311577 0.014377394 -0.18317017 0.19146475 0.055932656 0.008890881 -0.038590476 0.03330668
0.0040143426 0.13742365 -0.005002438 0.06852599 -0.046264935 -0.07174709 -0.11174694 0.013482549
0.16119227 -0.014213845 0.0021805041 -0.006476225 0.062071294 0.020713009 0.022079429 0.021422902
0.06073289 -0.005755455 0.3026672 0.11651014 -0.031884037 0.069085486 -0.045711208 0.0715233
-0.045107257 -0.065609865 0.043758363 -0.07032616 0.23773497 -0.05172406 0.04674523 -0.053109597
-0.0112996865 -0.14408621 -0.099634014 0.0021332412 -0.25969183 -0.0882987 -0.017659096 0.10834336
0.15778884 0.120294146 -0.034301624 0.0039089336 -0.08412253 0.051021453 0.109587066 -0.04356114
-0.01429403 0.100998215 -0.1902057 0.12797453 -0.14278294 -0.046100996 -0.061617848 -0.2022175
0.12868641 0.031406164 0.0039621107 -0.16188931 -0.038475785 -0.06347094 0.03864806 -0.107079126
0.018566204 -0.041487254 0.054841526 0.02273072 -0.0018393671 -0.12667184 0.045852277 0.06274633
-0.013966267 0.04733904 -0.076110005 0.08076141 -0.061793663 0.09478082 -0.15284146 0.088473834
-0.04340813 -0.10729087 -0.03235896 0.03283322 0.05416772 -0.10495163 -0.061572112 -0.09674948
-0.039865978 0.24902298 -0.1136147 0.035396606 -0.06922581 -0.06416154 0.0276865 -0.04247347
-0.01487643 -0.03591932 0.049861707 0.07158769 0.074760355 -0.12039179 -0.047288373 0.106995255
0.09128295 -0.011580999 -0.00054552994 -0.11755054 -0.11470066 -0.037705503 -0.08208057 -0.08346623
0.052938603 -0.038500413 -0.11666593 0.00545368 -0.0365725 0.086115286 -0.07832773 0.094535805
-0.054122347 0.0005020116 -0.10620083 -0.06851523 -0.0026795494 -0.054035727 0.016521718 0.14142503
-0.100009896 -0.11913105 -0.09370784 -0.006851114 0.043743808 0.023449922 0.055346448 -0.048888177
-0.16273436 0.01654402 -0.22597659 0.018894305 -0.020414729 0.03212655 0.04342651 0.039368305
-0.052820694 -0.12712494 -0.20440003 -0.0340331 -0.100014985 -0.14739527 -0.028166875 -0.19957945
-0.15386349 0.16476886 0.00019079767 0.0010026885 -0.037213642 -0.077857345 -0.003235753 -0.029364865
-0.028564783 0.053789996 -0.008576953 -0.008967535 -0.030225713 0.0427436
00000000: 95db d93d e6d4 913d 58c9 2d3e f8d6 523d
00000010: 8cf2 60bb 3120 f03d c171 cb3d df36 373e
00000020: 2663 bb3c 585a a4bc d263 aebd 4235 a33d
00000030: 1a75 0fbe 5030 943a e0a2 72bd 8b5c 00bd
00000040: b5cf ab3d 720f 903d bef4 52be 2625 313e
00000050: bf41 ff3d fbad 053e 76d3 0c3d 1c45 063e
00000060: a20c de3d a57a d23d 8942 b73d b8b9 7e3c
00000070: 9272 d7bd eec3 5e3d 0d3d 0bbe 0bd3 343d
00000080: 7678 643e 298f 6b3c f690 3bbe 560f 443e
00000090: a419 653d 0fab 113c 0c11 1ebd 966c 083d
000000a0: bf8a 833b c9b8 0c3e 7eeb a3bb 5b57 8c3d
000000b0: 4d80 3dbd 23f0 92bd 94db e4bd e9e5 5c3c
000000c0: 960f 253e 30e1 68bc cae6 0e3b 8336 d4bb
000000d0: 783e 7e3d 54ae a93c ebdf b43c 157f af3c
000000e0: 0dc3 783d 4198 bcbb 32f7 9a3e de9c ee3d
000000f0: d698 02bd b17c 8d3d ad3b 3bbd cf7a 923d
00000100: 63c2 38bd 775e 86bd f83b 333d 2907 90bd
00000110: cc70 733e 9cdc 53bd ed77 3f3d 7389 59bd
00000120: 5222 39bc 568b 13be eb0c ccbd d9cd 0b3b
00000130: 54f6 84be f3d5 b4bd cfa9 90bc 20e3 dd3d
00000140: 6693 213e c75c f63d dc7f 0cbd 8316 803b
00000150: 6f48 acbd dffb 503d 2f6f e03d 2a6d 32bd
00000160: 8231 6abc 27d8 ce3d 48c5 42be c10b 033e
00000170: b135 12be 66d4 3cbd ff62 7cbd 1b12 4fbe
00000180: 5fc6 033e c0a3 003d 98d4 813b 50c6 25be
00000190: c998 1dbd 0dfd 81bd 6e4d 1e3d 4d4c dbbd
000001a0: 2718 983c 8aee 29bd 82a1 603d c635 ba3c
000001b0: eb16 f1ba 43b6 01be 99cf 3b3d 2681 803d
000001c0: c5d2 64bc 95e6 413d 90df 9bbd 3d66 a53d
000001d0: 5a1b 7dbd 721c c23d 7982 1cbe c531 b53d
000001e0: b9cc 31bd 51bb dbbd d48a 04bd 207c 063d
000001f0: f9de 5d3d e1f0 d6bd 0a33 7cbd 9724 c6bd
00000200: 824a 23bd e1ff 7e3e d3ae e8bd 08fc 103d
00000210: 43c6 8dbd 2067 83bd cdce e23c a9f8 2dbd
00000220: 45bc 73bc 2320 13bd ca3b 4c3d 919c 923d
00000230: f51b 993d f98f f6bd 74b1 41bd 5420 db3d
00000240: 8ef2 ba3d 3bbe 3dbc e501 0fba 56be f0bd
00000250: 2ee8 eabd 1671 1abd dc19 a8bd 58f0 aabd
00000260: 26d6 583d 9cb2 1dbd 8cee eebd c9b4 b23b
00000270: 0ccd 15bd 365d b03d 4a6a a0bd fd9b c13d
00000280: 65af 5dbd 6e99 033a d27f d9bd b751 8cbd
00000290: 619b 2fbb 9154 5dbd 8e58 873c b9d1 103e
000002a0: fdd1 ccbd fbfa f3bd e5e9 bfbd 4f7f e0bb
000002b0: b52c 333d 0d1a c03c f5b2 623d f83e 48bd
000002c0: d6a3 26be 5387 873c 6866 67be 3bc8 9a3c
000002d0: ca3c a7bc 2197 033d ffdf 313d a940 213d
000002e0: 835a 58bd 0a2d 02be 3e4e 51be 4b66 0bbd
000002f0: a8d4 ccbd c9ee 16be 38be e6bc 8e5e 4cbe
00000300: 648e 1dbe 2bb9 283e dc10 4839 a56c 833a
00000310: 556d 18bd ac73 9fbd ed0e 54bb 968e f0bc
00000320: b100 eabc e652 5c3d 5986 0cbc 91ec 12bc
00000330: ea9b f7bc ea13 2f3d
