notebooks/checkpoint_epoch_40.pth (torch, 150288 bytes, 8 tensors)

features.0.weight f4 [16, 1, 3, 3]
000000 9a 21 88 3f c4 34 77 3f 27 b0 08 3f 23 21 44 3f
       1.0635254 0.9656489 0.5339379 0.7661306
000010 7f 62 25 3f 3d 4e 89 3e 28 ad 8c 3f 4f d5 24 3f
       0.6460342 0.26817504 1.0990343 0.64387983
000020 94 88 f2 3d 80 21 04 bf 3d 71 1e 3d 4c bf d1 3e
       0.118424565 -0.51613617 0.03868221 0.4096626
000030 bb 9d 0b bf 0e 64 a0 bc 69 c8 00 3f 25 a1 db be
       -0.5453755 -0.01957896 0.503058 -0.4289638
000040 7a ce 99 3e 54 51 b3 3e 9e 60 42 3e ee 81 e8 3e
       0.30040342 0.35022986 0.18982169 0.45411628
000050 c0 2c 94 3e 8e 8c 1e be 6f 6b 98 be 75 23 f7 3c
       0.28940392 -0.15483305 -0.29769465 0.030168274
000060 01 6d c5 bd 8c 9f 2f be 10 ef 97 be 3b 02 10 be
       -0.096399315 -0.17150706 -0.29674578 -0.14063351
000070 dc da 03 be 78 89 bb bc e9 d3 0a bf 26 97 27 bd
       -0.12876457 -0.022892699 -0.542296 -0.04091563
000080 65 5d 1f 3f bc af a5 3e 04 1a a9 bd 1e f6 1f 3f
       0.62251884 0.32360637 -0.08256915 0.6248492
000090 c7 b4 1f bf 2a 97 92 be b3 d2 16 bf bb 9d c0 3e
       -0.6238522 -0.28630954 -0.5891525 0.3762034
0000a0 a0 0b 44 3e aa d6 ee 3e ab fb 44 3e df 9f d2 3d
       0.1914506 0.4664815 0.19236629 0.10284399
0000b0 d9 ac 49 3e 1a 48 4b 3f 2c 59 2b 3f 0f 1f 85 3e
       0.19694842 0.79406893 0.6693294 0.26000258
0000c0 3b 82 05 3f 3e e4 8a 3e 5f 2d 00 3f c9 b2 d4 be
       0.5215184 0.2712726 0.5006923 -0.41542652
0000d0 5b 10 f5 3d ca c5 2c be 4d a5 15 3f 6c 16 76 3f
       0.1196601 -0.16872326 0.58455354 0.96127963
0000e0 85 4b 20 3f c0 93 06 3f 80 de 46 3f d3 24 78 3f
       0.62615234 0.525692 0.7768326 0.9693119
0000f0 e9 be 22 3f 3d 3d 5d 3f 77 d8 2e 3f 45 4c da 3e
       0.63572556 0.8642157 0.6829905 0.42636314
000100 5e f6 57 be 86 a2 b0 be 2a 83 b1 3d bc e7 df 3d
       -0.21090075 -0.34498996 0.08667596 0.10932872
000110 1c d4 db be f5 4a aa 3d 46 c0 f5 3e f5 41 8f be
       -0.42935264 0.08315078 0.47998255 -0.2798001
000120 ca c5 84 be 6d 87 88 3e 9b b9 09 bd 26 1c ad bc
       -0.2593215 0.26665822 -0.033624273 -0.021131586
000130 b0 f3 18 3c 24 6e c9 3d 5a 57 94 3e e8 69 cb be
       0.009335443 0.09835461 0.28972894 -0.39729238
000140 c1 a9 dd bc fc a8 f1 3e 8f 28 5b be ed e2 a5 be
       -0.027058484 0.47199237 -0.2140219 -0.32399693
000150 3e 4d ef 3e ce cf d7 bd fc 13 d1 be 6d a0 ac 3e
       0.4673862 -0.105376825 -0.4083556 0.33716145
000160 24 e4 6a 3e b2 77 b4 be 85 c0 f6 3e 56 cc 60 3e
       0.22938591 -0.3524757 0.48193756 0.21952948
000170 9e af 19 be 8a 51 18 3f 5c 39 1a 3f 8a 6d 77 bd
       -0.15008399 0.5949942 0.60243773 -0.0604072
000180 a6 c3 53 3f 89 ba 44 3e 49 3a 31 3d 7c 7a 19 3e
       0.8272041 0.19211783 0.043268476 0.1498813
000190 b6 83 52 be ff d1 2d 3e 75 6e 25 3e 68 23 79 be
       -0.20558056 0.16974638 0.16155417 -0.24329913
0001a0 3f 77 b0 3d f2 d3 a9 3c b8 17 bc bc a4 06 7b be
       0.086164944 0.020730946 -0.022960529 -0.24514252
0001b0 4d 80 fa be 6d 9b 2c bf 81 86 17 bf 49 de 2d be
       -0.4892601 -0.6742466 -0.5918961 -0.16979326
0001c0 30 67 c1 be 6e 29 99 be f9 e5 a2 bd 8b a5 ae be
       -0.37774038 -0.2991442 -0.0795402 -0.34110674
0001d0 a4 25 ca be 8b 1a fb be ed fc 1f 3f f8 51 b7 3d
       -0.39481843 -0.49043688 0.6249531 0.08951181
0001e0 2d 8f 4a 3d 26 63 0e 3e d8 29 92 bb 35 8d 8d 3e
       0.04945295 0.1390501 -0.0044605546 0.27646795
0001f0 ac 29 08 bf 93 7b de bc 7b b3 b2 3d fe 33 9b be
       -0.53188586 -0.027158534 0.087256394 -0.30313104
000200 f5 3a a3 3d f3 d8 7a 3e d6 67 09 bf 67 c3 98 3e
       0.079702295 0.24496822 -0.53674066 0.2983658
000210 6d c6 b6 3e 82 0c 25 bf f7 12 d4 3e 44 73 03 3f
       0.35698262 -0.6447221 0.4142072 0.51347756
000220 cd 36 01 3f 67 45 08 3f ff 27 64 3d a2 81 b0 be
       0.50474244 0.532309 0.055702206 -0.34473902
000230 3d 5d c4 be 60 25 5b be b5 ca ba be f7 41 f1 be
       -0.38352385 -0.21400976 -0.36482778 -0.4712064

features.0.bias f4 [16]
000000 e7 37 5d bb fa f0 0b bd 8b f8 18 3f 43 cc 09 be
       -0.0033755244 -0.03416536 0.59754246 -0.13456826
000010 b3 50 59 3e d7 42 a3 be 31 86 f5 bd db 99 fd 3e
       0.2122219 -0.31886932 -0.119884856 0.49531445
000020 b3 f1 9f 3e 66 ee 0d 3d 7c 15 4c bd 17 8b 2c 3f
       0.3123909 0.034651183 -0.049825177 0.67399734
000030 6a d0 93 be 21 28 5a bd a9 b3 bb bc 73 31 70 be
       -0.28869945 -0.053260926 -0.022912817 -0.23456363

features.3.weight f4 [32, 16, 3, 3]
000000 94 65 8c 3d 37 f4 bf 3d 55 33 e8 3c bd 14 3a 3d
       0.06855312 0.09372752 0.02834479 0.045429934
000010 2f 6c b0 3d b0 45 e6 3d 6a dc e0 3d 0b 77 a2 3d
       0.086143844 0.112437606 0.10979541 0.07932862
000020 da 56 1e 3d ec e8 84 be 1d 31 d6 bd 9a dc 5b be
       0.038657047 -0.25958955 -0.10458586 -0.21470872
000030 46 9e cc be 87 8c d9 be ee 88 0d bf 7b 3b a8 be
       -0.39964503 -0.42490026 -0.55287063 -0.3285788
000040 7c 4c 09 bf 20 42 b9 be 08 3a 02 3e 4f 62 8d 3d
       -0.5363233 -0.36183262 0.1271745 0.069035165
000050 3b 45 d2 3d 5b b7 10 3e c3 3d 39 3e 7e 4b 88 3d
       0.10267111 0.14132445 0.18089966 0.06655024
000060 67 fd 6e 3c 31 54 1b 3e 72 2f 16 3e fe 1e 81 3d
       0.014586783 0.15168835 0.14666536 0.063047394
000070 82 53 02 3e 1f bd 2e 3e a1 bb 0a bb 85 b4 dd bd
       0.12727168 0.17064331 -0.0021168964 -0.10825447
000080 14 71 46 bd cb 2d 19 be f3 92 07 be 82 12 9c bc
       -0.048447683 -0.14958875 -0.1323965 -0.019051794
000090 cf 5b f0 3e 7f 37 aa 3e ca 4b c2 3e 62 d5 a2 3e
       0.46945044 0.33245465 0.37948447 0.31803423
0000a0 2b 3c 0c 3e 22 17 96 3d 55 3d 7e bc e1 d1 96 bd
       0.13694827 0.07328631 -0.015517552 -0.0736425
0000b0 a4 6c 0b 3d 62 63 0a bd 3b 8a 46 bb 72 61 95 3d
       0.034039155 -0.033786185 -0.0030294794 0.07293977
0000c0 7a b3 2b 3e e5 57 0a 3e d5 6d 94 3d 4d d8 d2 3d
       0.16767684 0.13510092 0.07247511 0.10295162
0000d0 1d 60 a4 3d 3b f1 ad 3d 67 7e 24 3d b1 c3 d8 3d
       0.08026145 0.08493277 0.04015961 0.105842
0000e0 d5 28 28 3e 1d bf 8e 3d 78 b8 eb 3d 59 f7 3d ba
       0.16421826 0.06970046 0.11509794 -0.00072466355
0000f0 30 78 b1 bc ff 61 36 bd dd 6c 12 bd 0b f9 6c be
       -0.021663755 -0.04452705 -0.03574835 -0.23141877
000100 98 16 80 be bb a7 24 be 7c 3f a5 be 6c 46 7c be
       -0.25017238 -0.16079609 -0.32274997 -0.24636239
000110 68 2d 3d be ef 38 6f be bf 3c fa bd 09 20 94 bd
       -0.18474352 -0.23361562 -0.12218618 -0.07232673
000120 fa 8a 74 3d 98 16 e1 3b 6e d5 d2 3c fb 73 c1 3c
       0.05970285 0.0068691485 0.025736537 0.023614874
000130 b8 66 40 3d 2f 6f 25 3d a8 bb f5 3d 6d 07 b0 3d
       0.04697296 0.040389236 0.11998683 0.08595166
000140 2c 17 07 3d ef c4 e6 be e5 5e e9 be 43 aa 0f be
       0.032981083 -0.45072123 -0.4558021 -0.14029793
000150 5c e7 0d bf 3b 87 e0 be 1c 52 0b be 28 f8 b2 be
       -0.5543115 -0.43853173 -0.13605541 -0.34954953
000160 77 3b 87 be e6 b5 51 be 23 32 e2 3c b3 92 4f bc
       -0.26412556 -0.20479545 0.027611798 -0.012669253
000170 bf a9 d0 3c 16 ed bd 3d de 60 ae 3d 12 9f ae 3d
       0.025471566 0.09273736 0.0851457 0.08526434
000180 ee cd 5d bd 6b 2c 31 bd 24 69 c4 bd 54 71 83 3d
       -0.054151468 -0.04325525 -0.095903665 0.064181
000190 f8 ee 4d bd 94 8d 6f bc 26 2d ab bd e0 3b f1 bd
       -0.050276726 -0.014621157 -0.08358221 -0.117789984
0001a0 b7 a7 e2 bc 08 a5 9d 3d 5f e2 5b 3b f6 07 28 3d
       -0.027667863 0.07697493 0.0033551676 0.041023217
0001b0 91 05 e4 3e f9 5e 79 3e b4 26 4f 3b e8 4f 5d bd
       0.44535497 0.24352635 0.0031608762 -0.054031283
0001c0 46 ec b2 be c5 5c ce be 68 95 db 3c 16 c7 43 3c
       -0.34945887 -0.40305153 0.02680464 0.011949321
0001d0 a0 85 76 bd 77 51 82 bc 7b 05 c1 3d 3e a6 86 3e
       -0.06018603 -0.015907986 0.094248734 0.26298708
0001e0 49 62 81 3d ce 02 af 3d 54 d1 3a 3e 84 47 f1 bc
       0.063175745 0.08545457 0.18243915 -0.029453047
0001f0 17 d1 5c 3d a8 50 0f 3d 76 27 7e be f2 8e 5a be
       0.05391034 0.03498903 -0.2481974 -0.21343592
000200 1b 8a 9c bd d5 8d 92 be 56 38 d4 be 8e df 88 be
       -0.07643529 -0.28623834 -0.4144923 -0.2673306
000210 c7 e6 a0 be 50 03 78 be 54 ca 67 be ff 8a cf bc
       -0.3142607 -0.24220014 -0.22635776 -0.025334833
000220 f1 0e 66 bd c3 63 a8 bd 36 03 cb 3c 0e 00 37 bd
       -0.056166593 -0.08222153 0.024781805 -0.044677787
000230 37 f5 7b bc 34 21 7f bd bd 57 31 be 63 1a f2 bd
       -0.015378288 -0.062287524 -0.17318626 -0.11821439
000240 41 14 84 3e f4 c0 e0 3d 66 bb 0f be 69 7f 21 3e
       0.25796703 0.10974303 -0.1403633 0.1577126
000250 53 19 bd 3d cf a4 f0 bd 14 bf 17 3e 7c 91 ff 3c
       0.09233346 -0.11750185 0.14818984 0.031197302
000260 52 52 e5 bc 59 95 d0 bd a3 20 5f bf e0 a1 17 bf
       -0.027993355 -0.10184736 -0.87159175 -0.59231377
000270 0e c7 aa bd 38 27 72 bf 29 9a 1f bf aa 79 7d 3e
       -0.08338748 -0.94591093 -0.62344605 0.24753442
000280 dd 1d 1c bf 2b 2e ea be 0d 8b 6b bd db 43 39 3d
       -0.6098307 -0.45738348 -0.057505656 0.045230728
000290 d7 fc 1c 3e f3 57 8c 3d 86 ea ed 3b 60 f6 de 3d
       0.15330826 0.068527125 0.0072606234 0.10886836
0002a0 59 63 98 3b a6 6e b4 b9 00 0a 06 3d 69 7a 01 be
       0.004650515 -0.00034414715 0.03272438 -0.12644352
0002b0 4e 93 e0 be cd 17 07 bf 3f b9 5f bd 11 80 c4 be
       -0.43862385 -0.5277069 -0.054620024 -0.38378957
0002c0 e6 53 05 bf 9a 79 05 3c 1e de 8c be b0 6c bf be
       -0.52081144 0.008146668 -0.27513212 -0.3738761
0002d0 ee d7 a7 bb 35 06 18 be 2c 6a 68 bb 2a af 82 bd
       -0.0051221764 -0.14846118 -0.0035463674 -0.06381066
0002e0 03 ac ba bd 5b 25 d5 bc 99 54 95 bd fc ae df 3d
       -0.0911484 -0.026018789 -0.07291526 0.109220475
0002f0 6b cf d2 bb 8a 7e 35 3e 06 68 1a bd 6e 55 3e be
       -0.0064334176 0.17724052 -0.03769686 -0.18587276
000300 7c 3e 14 3e 18 6c 41 3d 53 54 93 be d6 9e 5d 3e
       0.14476961 0.047222227 -0.28775272 0.21642622
000310 5f 0f bc bc 9e a6 06 be c3 56 4e 3e d3 46 83 bd
       -0.022956548 -0.13149497 0.20150284 -0.06409993
000320 7a 46 62 be d1 00 67 3e 0d 44 ce 3c 34 c6 8e be
       -0.22097197 0.22558905 0.025178934 -0.27885592
000330 c6 ec 50 3e 3e 29 49 3d 54 1a 42 be 77 8e 15 3e
       0.20402822 0.049111597 -0.18955356 0.14605127
000340 df 81 0e bd 6c ea 3b 3c 6c eb 1e 3e 10 48 55 bd
       -0.034791823 0.011469465 0.15519494 -0.052070677
000350 b4 41 96 3a 12 71 b2 3d e8 92 5b 3d 7c bc 1b 3d
       0.0011463673 0.08712973 0.053606898 0.03802155
000360 54 55 8b 3c 04 81 4c bc f2 cc 30 bd f4 b9 46 bd
       0.017008461 -0.012481932 -0.0431642 -0.048517182
000370 5e 69 8c bd a3 ea 46 bd c9 a6 08 3d 51 80 89 bd
       -0.06856035 -0.04856361 0.033362184 -0.067139275
000380 91 e9 2f bd 78 7d d2 3e 24 5a ac 3d 0a 73 ab bd
       -0.042947356 0.4111135 0.084156305 -0.08371551
000390 c4 36 cf 3e 77 0f d2 3d f3 89 30 ba 19 1f b1 3e
       0.4047147 0.10256856 -0.0006734423 0.34594038
0003a0 05 d1 42 3e e2 76 c1 3d de 46 84 3e ba 11 22 bd
       0.19025047 0.09446503 0.25835317 -0.039567687
0003b0 f0 5d 26 be 68 80 4f 3e a0 56 3c bc b7 a3 45 be
       -0.16246772 0.20263827 -0.011495262 -0.19300734
0003c0 35 81 3f 3e 38 f8 e1 3c d9 39 91 bd ab 42 a6 3d
       0.18701632 0.02758418 -0.07091112 0.08118185
0003d0 30 b1 96 3d 46 38 30 3d bf d2 98 3d d9 08 7a 3d
       0.073580146 0.043022417 0.074620716 0.061043594
0003e0 f6 ec dd bc 9d fc ed b9 7e 27 7c 3c af 25 38 bd
       -0.02709053 -0.00045392374 0.015390275 -0.044957813
0003f0 4f ac 06 bd 02 de be bc c1 35 ff 3d 14 b0 b5 bc
       -0.03287917 -0.023299221 0.124614246 -0.022178687

features.3.bias f4 [32]
000000 83 9c 9a 3d ed 1f 95 3d e3 37 08 3e 45 21 f0 3c
       0.075493835 0.0728148 0.13302569 0.02931274
000010 f8 fe f6 3c 56 3d 28 bd 19 1d 32 be 94 0d 46 3c
       0.030150875 -0.04107412 -0.17393912 0.012088198
000020 b7 74 00 3e 63 68 85 3d 4c 42 03 be 2a b1 28 3d
       0.12544523 0.06514051 -0.12818259 0.04118458
000030 46 5e e8 3d 79 06 0c 3d b9 77 61 3d 05 0e 40 bc
       0.11346106 0.03418586 0.055045817 -0.0117220925
000040 75 1a 73 3b 57 ac 34 bd ba 9a 50 3e 86 78 89 bd
       0.0037094627 -0.04410967 0.20371523 -0.06712441
000050 4c 3d 0f 3e c3 d6 a6 bc 36 57 88 bd fb e6 84 3d
       0.13988227 -0.020366078 -0.06657259 0.064893685
000060 0a 8e d9 3d 12 c9 91 be 62 7d 8c 3e 46 47 24 3e
       0.10622795 -0.28473717 0.2743941 0.16042814
000070 57 47 93 be e8 b2 8e bb 7c a2 e8 bd 88 85 4a bd
       -0.28765365 -0.0043548234 -0.113591164 -0.04944375

features.6.weight f4 [64, 32, 3, 3]
000000 a1 72 c6 bc 6f ca 0c 3d f6 0a 0e 3d 30 4a 49 3d
       -0.024224581 0.034372743 0.034678422 0.049143016
000010 06 48 ca 3d f1 86 b5 3d 07 77 64 3d d3 1f e5 3d
       0.09877019 0.08863629 0.055777576 0.111877106
000020 ae 4f 5a 3d 18 b4 c7 be f2 29 a7 be 89 c1 99 be
       0.053298645 -0.39004588 -0.3264919 -0.30030468
000030 e6 9f 20 be 84 24 16 be 92 cc ae bc 84 48 d2 3d
       -0.15685996 -0.14662367 -0.021337781 0.102677375
000040 fa 2f 32 3e 19 43 65 3e 21 30 a0 be b7 13 d4 be
       0.17401114 0.22388877 -0.3128672 -0.4142129
000050 7b fb a3 be f9 98 78 bc 94 e6 3b bd f8 24 01 bd
       -0.32027802 -0.01517319 -0.045874193 -0.031529397
000060 83 37 25 3e 10 81 ee 3d c2 f2 9c 3e 6d 44 a8 be
       0.16134457 0.116457105 0.3065396 -0.32864705
000070 80 bd 6f be 95 0a 53 be ac 0a 20 be d9 8d ac bd
       -0.23412132 -0.20609505 -0.15629071 -0.08425493
000080 7c c7 55 bd a1 8c 74 bd b0 1c 36 3c f9 cb 7b 3d
       -0.052192196 -0.059704427 0.011115238 0.06147382
000090 27 e4 66 bd 55 ce b4 bd 63 24 09 be c1 fc 17 3c
       -0.056369927 -0.08828417 -0.13392787 0.00927657
0000a0 5b e7 95 3c 9f d3 50 3c ad 0d 39 3d 86 91 59 3d
       0.018298795 0.012745767 0.045179058 0.053117298
0000b0 c1 f4 3d 3d 88 16 38 be 9a fe 30 be e8 6f 08 be
       0.046375994 -0.17977345 -0.17284623 -0.13323939
0000c0 f8 77 c2 bd a4 e5 2b bd 59 ac 0e 3c 54 06 6c 3d
       -0.094955385 -0.04196705 0.008708083 0.057623222
0000d0 fb 13 aa 3d e7 bb 95 3d f6 1c 96 3d a2 39 8a 3d
       0.08304592 0.0731123 0.073297426 0.06749274
0000e0 61 52 25 3e cf 4d a8 3d 84 ac c4 3d 86 d5 97 3e
       0.16144706 0.08217966 0.09603217 0.29655093
0000f0 f3 12 50 3e 5c fb bf 3d 79 9f 90 3e 97 dd f1 bd
       0.20319729 0.09374115 0.28246668 -0.11809843
000100 ea 2e d0 bd 47 02 e1 bd 75 14 7b bd b0 03 17 be
       -0.10165198 -0.109867625 -0.061298806 -0.147475
000110 ac 20 3d bd c1 43 df bd 6b 5f d7 bd 2a 3e cc bd
       -0.046173736 -0.10901595 -0.105162464 -0.09972794
000120 1a d0 da bc d4 b4 e9 bb c5 db b6 3b 67 42 32 bd
       -0.026710559 -0.007132152 0.005580398 -0.043520357
000130 80 f5 8f 3c de 6f 23 3d da 7a ac 3d bd 62 82 bb
       0.017573118 0.039901607 0.084218696 -0.0039790557
000140 73 4f 09 3c fb 57 d1 bc d6 62 ea bc 10 6c 1b bd
       0.008380759 -0.025554648 -0.028611582 -0.037944853
000150 ef 61 04 bc 64 27 9d 3c 0b 43 48 3c ed b0 43 39
       -0.00807999 0.019183822 0.012223016 0.00018662559
000160 75 bf 40 3d a8 02 59 bc 19 e3 70 3c c6 ca 90 bc
       0.047057588 -0.013245262 0.014702582 -0.017674815
000170 b8 a4 b0 3d 5f 03 eb 3d d3 06 61 3d e6 16 f4 3d
       0.086251676 0.11475252 0.05493815 0.1191843
000180 c4 b7 3d 3d 29 43 bd 3d d0 5c 1f 3e ef ee 50 3e
       0.04631783 0.092413254 0.15562749 0.20403646
000190 ec ea 51 3e 16 87 4b 3e b2 ab 61 3e cf 1d 2b 3e
       0.20499772 0.1987575 0.22038153 0.1671059
0001a0 c6 09 45 3e af e5 18 3e 95 e5 20 3e fe b6 f5 3d
       0.1924201 0.14931367 0.15712579 0.119977936
0001b0 97 5c a6 bb 43 6c 9b bd 54 9e b5 bd d9 ec c8 bd
       -0.0050769555 -0.07589009 -0.08868089 -0.098108
0001c0 56 04 3e be c4 32 22 be 44 5f 3b be 90 11 1a be
       -0.18556342 -0.15839678 -0.1829806 -0.15045762
0001d0 68 2e ca bd 5a ce ec be 2d 97 09 bf ac 9d c5 be
       -0.098721325 -0.46251184 -0.537463 -0.38596857
0001e0 71 2b 12 bd a5 69 01 be 8f ec 1a be c7 06 2d 3e
       -0.03568596 -0.12637956 -0.15129302 0.16897117
0001f0 65 a1 24 3e 4f e0 59 3e dd 16 0f 3d 05 c5 46 bd
       0.16077192 0.21276973 0.034933913 -0.048527736
000200 2b f0 be 3d 74 67 d8 3c d3 a7 4d 3d fc 59 ac 3d
       0.09323152 0.026416518 0.050208878 0.08415601
000210 06 a3 29 bd 89 e6 ae 3b 03 e6 dc 3c 5f 7f ee 3b
       -0.041415237 0.0053375405 0.026965147 0.0072783674
000220 3c 13 be bd 6e 00 f6 bd 50 7f 67 bc 42 05 d5 bd
       -0.092810124 -0.12011801 -0.014129475 -0.104013935
000230 45 8f 65 bd fa 33 06 bc 6d 6a af 3b e7 66 88 ba
       -0.056044836 -0.008191103 0.005353263 -0.0010406644
000240 f1 be db be f3 d6 c7 be d1 fc be be c1 22 2c be
       -0.42919114 -0.3903118 -0.3730226 -0.16810133
000250 ee 38 d2 bd 28 5d 06 be 76 fb 85 bd 17 fd 3e bd
       -0.10264765 -0.13121474 -0.06542103 -0.046628084
000260 0f 83 82 3d 7f 2b 75 3e 66 90 3d 3e 29 49 86 3e
       0.06372654 0.23942374 0.18512115 0.26227692
000270 f5 42 74 3e 2d 2b 59 3e 6c 0f 79 3e b6 7e 8c 3e
       0.23853667 0.21207877 0.24322289 0.27440423
000280 67 b4 0e 3e 7c d9 84 3e d8 a1 74 3d d7 23 7e 3d
       0.13936006 0.25947177 0.05972466 0.0620459
000290 7e be 14 bd 46 57 fe 3c 9c 22 ba bc 16 bb ac 3d
       -0.03631448 0.031047475 -0.022721581 0.08434121
0002a0 f3 12 aa 3b 31 b6 f7 ba d8 75 2b 3d 0f c2 e0 bb
       0.005190247 -0.0018898902 0.04186043 -0.006859071
0002b0 3e 52 ae bd cf ef 65 3d bd 02 d8 bc 8f 9b b8 3c
       -0.0851178 0.056136902 -0.026368493 0.022535114
0002c0 b8 3e b4 3d 99 be 7e bc 69 29 66 3d a2 b0 59 3d
       0.08801025 -0.015548372 0.056191836 0.053146966
0002d0 f5 89 83 bd 99 7f c1 bd f0 39 bb bc 40 03 58 bc
       -0.064227976 -0.094481654 -0.022854775 -0.013184369
0002e0 66 fb 44 bd 5f c2 87 bd 50 24 23 3d 3b 57 83 bd
       -0.048091315 -0.0662887 0.039829552 -0.06413122
0002f0 09 b6 57 3d 57 73 72 3c 46 73 50 bd f1 3b 4e 3d
       0.052663837 0.014798007 -0.050891183 0.050350133
000300 3c 67 c8 3d 0e 10 8c 3c 81 7a 38 3e 1a d0 4d 3a
       0.097853154 0.0170975 0.18015482 0.0007851139
000310 60 e6 80 3d bd 19 d4 3d 69 87 48 bf 39 3c 2c bf
       0.062939405 0.10356472 -0.7833162 -0.6727939
000320 1c 51 e6 be 79 65 bb be 72 c1 9b be cf 45 99 bd
       -0.44983757 -0.36600855 -0.30421025 -0.07484018
000330 e3 7f 27 bd b9 32 81 3d f3 09 44 3e ed fd eb be
       -0.040893447 0.06308503 0.1914442 -0.46092167
000340 9a 3c 03 bf 9a 4c d7 be bf 24 a6 be 45 4e 2a be
       -0.51264346 -0.4205063 -0.3244991 -0.1663142
000350 24 76 42 bd 67 01 9e 3d 08 79 26 3e 72 b3 8a 3e
       -0.04747595 0.07715111 0.16257107 0.2709003
000360 06 7c eb 3c 99 f3 8a bd ff 14 bf bd 11 e4 81 bb
       0.028745662 -0.06784744 -0.093301766 -0.003963955
000370 cc 83 bc bd fe 31 0a be b5 d6 01 be 7b 4e 36 be
       -0.09204826 -0.13495633 -0.1267956 -0.17803375
000380 f8 4a a1 bd df 4d 50 bd d4 b6 04 bd f2 d2 f9 3a
       -0.07875627 -0.050855514 -0.03240092 0.0019060059
000390 c9 4f 36 3c ae ff 7f 3c 2a c7 87 3d a2 f3 c2 3c
       0.011127421 0.015624924 0.066297844 0.023797814
0003a0 36 23 06 3e bd b8 11 3e f5 95 33 3d fd 45 4f 3d
       0.1309937 0.14230628 0.043844182 0.050603855
0003b0 d0 80 46 3e bb 35 8c 3d 3e 58 06 3d 45 3e fb 3d
       0.19385076 0.06846186 0.032798998 0.12267736
0003c0 f6 37 34 bd 6a 27 11 be 05 19 ad 3b ec 1f 33 bd
       -0.04399868 -0.14175192 0.0052825236 -0.043731615
0003d0 9e 3c 0b 3d eb c5 6d 3d 6e ac 21 bc ee 9a b2 3d
       0.033993356 0.058050077 -0.009867771 0.08720957
0003e0 3d 7e df 3c 8b 8e cb 3d 5e bb bc 3d e6 ea 01 3e
       0.027281875 0.09939297 0.09215425 0.12687263
0003f0 b0 79 be bd 89 e9 a4 bd 37 a0 0d bd c8 ef 66 bc
       -0.09300554 -0.08052356 -0.03457662 -0.014095254

features.6.bias f4 [64]
000000 7b 5a 74 3d 67 b1 57 3d 06 b1 d7 bd 1d a5 68 bd
       0.0596566 0.05265942 -0.105318114 -0.05679809
000010 77 07 40 bd 86 a8 1e 3c 27 84 e2 bc db 8e bc bc
       -0.04688212 0.009683734 -0.027650906 -0.023017338
000020 fd 36 27 bd cb 67 2d bc b3 da 9f bd bf d7 89 be
       -0.040823925 -0.010583828 -0.078053854 -0.26922414
000030 94 6e 09 38 91 02 60 3d 6d 61 6f bd 95 cf ab bd
       3.276633e-05 0.054689948 -0.05844252 -0.083892025
000040 c8 a3 bc 3d 1c 04 1d be 08 0b aa 3d 29 ab 30 3e
       0.09210926 -0.15333599 0.08302885 0.17252792
000050 54 a8 02 be 66 fa 78 3d 5e 32 1e be b8 2b 4e bd
       -0.12759525 0.060785674 -0.15448901 -0.050334662
000060 b4 7a aa 3d b5 d5 a7 3b 6e bf 2d 3e 53 08 74 bb
       0.08324185 0.0051219114 0.16967556 -0.0037236407
000070 6c 1c 43 bc e4 c0 8b 3b 41 d4 59 ba 61 66 25 be
       -0.011908632 0.0042649377 -0.00083095214 -0.16152336
000080 87 93 ae 3b a7 f3 a1 3c 86 65 b9 3d 91 76 1c bd
       0.005327645 0.019769503 0.09052567 -0.03819901
000090 d4 f6 96 bd fe 3d 65 bb 40 80 28 bd 44 de 07 bb
       -0.073712975 -0.0034979577 -0.041137934 -0.0020731846
0000a0 56 c7 06 3d b1 1d b7 bc 87 e3 4f bd 59 bb 39 3c
       0.032904945 -0.022353025 -0.050754096 0.011336171
0000b0 2b 93 47 bd 6d 1f 30 3c d7 59 64 bc 99 f1 ca bd
       -0.048724335 0.01074968 -0.013937435 -0.09909362
0000c0 e4 31 d7 bd 8c 12 d8 bd 63 a4 af bd 53 68 64 be
       -0.10507563 -0.105504125 -0.08576276 -0.22305422
0000d0 74 54 87 bc 1b a2 ab bd da 0f 52 be 27 d2 d9 3d
       -0.016519763 -0.083805285 -0.2051386 0.106357865
0000e0 5c 17 9f 3d 10 89 ef 3c 81 c0 e1 bc 51 32 7a bd
       0.07768127 0.029240161 -0.027557613 -0.06108314
0000f0 f1 77 29 3d db b0 02 b9 19 a3 94 3d dc 33 4d be
       0.04137415 -0.0001246365 0.07257671 -0.20039314

classifier.weight f4 [206, 64]
000000 97 cc 80 3d 03 20 df 3d 00 e0 7c be 78 d4 0c bf
       0.062890224 0.108947776 -0.24694824 -0.550117
000010 49 93 07 3c e5 20 65 be d6 82 b3 3d 10 6a 88 3e
       0.008274862 -0.2237583 0.08765189 0.2664342
000020 9a 89 46 3e 79 f2 ee bf 64 68 8a bc 45 1c 08 bd
       0.19388428 -1.8667747 -0.01689548 -0.033230085
000030 c3 36 b8 be 4e f9 50 bf a8 15 65 3d 49 d2 51 be
       -0.3597928 -0.8163041 0.055928856 -0.20490374
000040 e6 78 a3 be f1 38 a2 bd c6 83 e6 3d 4f 97 ee 3d
       -0.31928176 -0.07921017 0.112556025 0.116499536
000050 77 8f e2 bd ee fe 24 be 2a 8d 5f 3e 99 d6 bb bd
       -0.1106252 -0.16112873 0.21831194 -0.09171791
000060 72 53 9f 3c 63 b2 1e bd 46 a4 aa 3d 3f 0c e2 3d
       0.01944897 -0.03874434 0.08332114 0.11037492
000070 b2 36 50 3e 86 4e 48 bc 0f 92 fb 3d a2 14 21 c0
       0.20333365 -0.012225753 0.12283718 -2.5168843
000080 0b 1a ba 3d 55 1f c7 be 0c 87 f0 be 09 27 5d bd
       0.090869986 -0.38891092 -0.46978033 -0.053992305
000090 2d 74 08 bf 16 82 03 3d 19 79 2a bf 0b c8 12 3d
       -0.5330227 0.03210648 -0.6659103 0.035835307
0000a0 da d2 33 3c 62 97 b6 be da 3e c5 3a 2b 2f 55 bc
       0.010975564 -0.3566237 0.0015048638 -0.013011734
0000b0 74 58 bf be ea 03 0d bd 98 bf b5 3d 2b 28 a9 3c
       -0.37372172 -0.03442756 0.08874434 0.020649036
0000c0 3b 2f 84 bf 65 c7 a2 3d 36 ac 25 bf 06 55 4c be
       -1.0326914 0.07948188 -0.647159 -0.19954309
0000d0 8b 06 b0 3d d0 8d a4 be 79 64 e5 bd 48 ad d3 3d
       0.08594998 -0.32139444 -0.11200804 0.10335785
0000e0 42 88 17 3e 42 86 6f 3d 7f 8f 12 bf 29 3b a5 be
       0.14798072 0.058477648 -0.5725021 -0.32271698
0000f0 8b ba c1 bd 95 87 38 3e f4 cc 3d 3e 83 87 b7 bc
       -0.094594084 0.1802047 0.18535215 -0.022403484
000100 04 8a 7b 3d 8f 6b e6 bc ac cd c9 be 8a b4 a1 be
       0.06141092 -0.02812746 -0.39414728 -0.31583053
000110 c7 8b b0 3d f8 44 99 be b9 09 5b bd 56 56 6d 3e
       0.086204104 -0.2993543 -0.05347607 0.23177466
000120 fa cb 1c 3d 03 49 ba bf bc 27 c2 3c 39 0a 65 3e
       0.038280465 -1.4553531 0.023700587 0.22367181
000130 17 cb 26 3d af 54 27 bf 23 25 4a bd 57 64 15 3d
       0.040721025 -0.6536359 -0.049351823 0.036472645
000140 3c 6e 29 be 9c 95 4b bd 03 cb 55 3c fa 91 ab 3c
       -0.16545957 -0.049703225 0.01304889 0.02094363
000150 af f8 80 3e b7 1a 79 be 26 1a aa 3d 6e 5d 40 3e
       0.2518973 -0.24326597 0.08305769 0.1878564
000160 4d a7 68 bd c4 9e d3 bd ed 80 4a 3e ea 9e 0e be
       -0.056800175 -0.103330165 0.19775744 -0.13927808
000170 c0 17 ff 3c d9 58 c1 bd 46 c4 81 3d cd b6 b7 bf
       0.031139255 -0.094407745 0.06336264 -1.4352661
000180 f5 b5 3e 3e 64 38 4a bf 99 c6 d4 be 88 56 4b 3e
       0.18624099 -0.78992295 -0.41557768 0.19857228
000190 18 16 1c bd 89 b1 9e 3d 02 80 5d bf 9b 9c 8d 3d
       -0.038107008 0.07748706 -0.8652345 0.06914636
0001a0 a0 35 a6 3c 08 03 8a be 25 ec 39 3d bc 1c 05 bd
       0.020289242 -0.26955438 0.04539122 -0.032498106
0001b0 a6 c1 79 be 04 19 b0 3c f8 7c b0 3d cd 01 57 be
       -0.24390277 0.021496303 0.08617586 -0.2099678
0001c0 3b ba d4 bf 13 ff 81 3e e8 34 8e be 97 a1 51 bd
       -1.6619333 0.2538992 -0.2777474 -0.051179495
0001d0 7a 48 ee 3d 77 49 ee be c0 e6 16 3e 34 72 30 3e
       0.116349176 -0.46540424 0.14736462 0.17231065
0001e0 18 c0 97 bd 8d f4 04 be f6 de 5e bf d6 26 17 be
       -0.07409686 -0.12983914 -0.8705896 -0.14760908
0001f0 45 fa aa bb a2 95 c7 3d dc 4e 54 3e f9 70 37 3d
       -0.0052178227 0.09745337 0.20733207 0.044785473
000200 48 9e cb 3b ce f9 f7 3d 47 ca dd bc 06 12 e9 bf
       0.006213937 0.12108193 -0.027073992 -1.8208625
000210 c8 b3 d0 3d 80 5c 05 3e b8 9b 45 bd 6c ef fc bd
       0.101905406 0.13023567 -0.048244208 -0.123503536
000220 f3 65 22 3e 6b 33 fa be 3e 5f 38 bd 02 71 c0 be
       0.15859203 -0.48867354 -0.045012705 -0.37586218
000230 af 18 52 be 00 1f 7d be 28 68 59 be ba 0d 84 be
       -0.20517229 -0.24718857 -0.21231139 -0.25791723
000240 03 db 06 bf 17 43 57 be 2d 4f 93 bd e9 d6 4b be
       -0.52677935 -0.21021686 -0.07192836 -0.199062
000250 ce 3b e1 bd 21 e2 4b bd ae 25 13 3e 71 de 16 be
       -0.10997735 -0.0497762 0.14369842 -0.14733292
000260 92 ce 2a 3d 80 11 3f 3d 0a cc 0a 3e 66 15 b3 3d
       0.041700907 0.04664755 0.13554397 0.08744316
000270 47 56 be 3d 40 f7 2b 3c 66 ce 03 3d 4d 7a 4a bf
       0.092938 0.010495961 0.03217926 -0.79092866
000280 97 1d de 37 6f cf 71 be 67 8d ad bf d1 44 19 3d
       2.6478241e-05 -0.23614286 -1.3558778 0.037419144
000290 16 b9 74 be 2d 9d fc ba 3b 6f f2 be 7d 1f 93 be
       -0.2389873 -0.0019272916 -0.47350487 -0.2873496
0002a0 01 bc ec 3d c1 f3 35 bb 38 6f fc ba e4 cf d7 bd
       0.115592964 -0.0027763697 -0.001925922 -0.10537699
0002b0 01 52 bc 3d 0c 31 98 bc 75 a2 a9 3c 94 f2 fd be
       0.091953285 -0.018578075 0.020707348 -0.49599135
0002c0 5a 4e 7e bf 0a d2 90 be 9e 07 b2 be ad 38 36 bf
       -0.99338305 -0.28285247 -0.34771436 -0.7118023
0002d0 c8 8e e6 bd e1 f3 b0 bd ac 0f f6 bd c9 e5 12 3d
       -0.11257702 -0.08640266 -0.12014708 0.03586367
0002e0 c6 ba 32 bb 54 dd 93 bd e4 99 0e bf 32 d4 96 bd
       -0.002727197 -0.07219949 -0.5570357 -0.07364692
0002f0 94 50 b2 bd 36 4b 29 3d e0 ed 99 3d 9d b4 7a bd
       -0.08706775 0.041331492 0.07516074 -0.061207402
000300 d1 69 8c 3d c6 c1 0b bd ea 44 62 be d1 32 c0 be
       0.068561204 -0.034120344 -0.22096601 -0.3753877
000310 8c 2a 0a 3e 19 03 5c bd c8 ea 74 be b8 70 a7 3d
       0.13492793 -0.05371389 -0.23917687 0.08175796
000320 bb a1 e6 bd e0 94 b1 be 75 33 c6 3d fc 83 6c be
       -0.112613164 -0.34683895 0.096777834 -0.23097223
000330 bb 2b f0 3d a4 7a 72 be 6d 91 f1 bd a4 18 fc 3a
       0.11727091 -0.23679596 -0.11795316 0.0019233418
000340 db 8f 6d bd ec c5 a2 bc 63 80 25 bf dd df 98 3d
       -0.05799852 -0.019869767 -0.6464903 0.074645735
000350 62 20 0b be a7 7f 7b bd 29 e6 5c be 3e 7f b5 3d
       -0.13586572 -0.061401036 -0.21572174 0.0886216
000360 89 d0 4c 3d ad b6 0c 3d bc f3 8e be 13 cc 0f 3d
       0.050003562 0.0343539 -0.2792033 0.03510673
000370 a0 37 76 be 92 ea 6b 3d 2c bb 8d be 5a 04 33 bd
       -0.24044657 0.05759675 -0.27681863 -0.04370532
000380 30 da be 3d f2 e8 75 bf 7b ba e2 be 03 12 8e 3d
       0.0931896 -0.9605857 -0.44282898 0.06937029
000390 92 82 c1 bd 5d 4c a1 be 45 8d 98 be 3f a0 2d 3e
       -0.094487324 -0.31503573 -0.2979528 0.1695566
0003a0 5c cb b3 be 01 6f 2c 3e 90 fe 95 bd 6c c9 f0 3d
       -0.35116088 0.1683922 -0.073239446 0.11757168
0003b0 04 d8 c5 bc 2d 2a ae 3d 71 4d c4 3c 64 ae bc be
       -0.024150856 0.08504138 0.023962708 -0.368518
0003c0 a7 6f 90 be f5 2d 6a be a6 03 aa be 60 4d de be
       -0.28210184 -0.22869094 -0.3320591 -0.43418407
0003d0 5f 2e ab bb 96 49 9a 3c 08 92 c4 bd d9 14 32 be
       -0.0052240337 0.018833917 -0.09598166 -0.17390765
0003e0 37 de 72 3d 60 25 0c be 20 89 22 be 0c 3d e6 bb
       0.05929395 -0.13686132 -0.15872622 -0.0070263203
0003f0 6e 65 06 3d 81 e3 30 be a8 23 4f be ea f5 98 3d
       0.032811575 -0.17274286 -0.20228446 0.074687794

classifier.bias f4 [206]
000000 58 1b f8 3d e3 74 ac 3d 1c 84 38 3e 61 6a 67 3d
       0.121145904 0.08420732 0.18019146 0.056497935
000010 7f cb 76 3a b0 65 0a 3e 55 76 e4 3d 25 53 45 3e
       0.00094144786 0.13515353 0.111553825 0.19269998
000020 5c e2 16 3d 1f ad 8a bc 6d 66 ac bd 0a 1a 98 3d
       0.036836967 -0.016928254 -0.08417974 0.074268416
000030 bb 1e 1c be 0d 8b 17 bb a4 33 48 bd 8e 0c 18 bd
       -0.15246098 -0.0023123652 -0.048877373 -0.037121348
000040 36 db a7 3d fa bc 8a 3d e0 e4 57 be 1f 53 34 3e
       0.08196108 0.06774326 -0.21083403 0.17609833
000050 6b 28 05 3e 5b eb 0c 3e 9b 21 40 3d 88 da fe 3d
       0.130037 0.13761656 0.04690705 0.12444025
000060 b6 05 e4 3d bd 26 f5 3d cc 68 be 3d b7 25 c0 3c
       0.11133902 0.11970279 0.09297332 0.023455484
000070 b9 2a c3 bd ee 59 57 3d d8 93 0d be 89 0a 35 3d
       -0.09529633 0.052575998 -0.13825929 0.0441995
000080 76 20 77 3e 3b cb 98 3c 07 c7 4e be a0 ef 48 3e
       0.24133477 0.018651595 -0.2019311 0.1962266
000090 d4 ef 4f 3d 04 66 fe 3b a9 d4 9c bc 8c 3c 12 3d
       0.050765827 0.007763626 -0.019144373 0.035702273
0000a0 02 a4 07 3b b8 c4 1d 3e 15 61 26 bc 19 d4 8c 3d
       0.0020697122 0.15407073 -0.010154982 0.06876392
0000b0 1f ab 6b bd 5c 93 8b bd b6 f7 dc bd de 58 92 3c
       -0.05753624 -0.06815216 -0.107894346 0.01786464
0000c0 dd a3 2e 3e 47 d3 16 bc 79 78 fd bb d0 42 03 bc
       0.17054696 -0.009205646 -0.0077353087 -0.008011535
0000d0 a1 8b 9c 3d 95 ca 5f 3c 9e 2c a5 3c e4 58 f4 3c
       0.076438196 0.013659139 0.020162877 0.029827543
0000e0 0a 2b 7f 3d f0 6f 87 bc 8d 1d a6 3e 4e 1c f5 3d
       0.062296905 -0.016532868 0.3244442 0.11968289
0000f0 16 49 0a bd 84 34 86 3d c0 ce 5b bd 5f 01 a3 3d
       -0.033761106 0.06552985 -0.05366397 0.07959246
000100 22 6e 5a bd ff d4 99 bd 2c af 59 3d c7 17 9c bd
       -0.053327687 -0.07511329 0.053145573 -0.07621723
000110 a9 ff 81 3e 37 e5 54 bd dd 9b 05 3d 9a e9 79 bd
       0.25390366 -0.05197641 0.032619346 -0.061013795
000120 fb e3 65 bc 9e b5 20 be 0e 27 dd bd ad c7 11 bb
       -0.014031406 -0.15694281 -0.10798465 -0.002224426
000130 fc 04 89 be 5b 27 c2 bd a0 b8 3e bc 59 f0 02 3e
       -0.26761615 -0.09480163 -0.011640698 0.12786998
000140 2c 71 1a 3e 5c 4b fd 3d 7d 13 f3 bc 23 44 cd ba
       0.15082234 0.12367889 -0.029672379 -0.0015660565
000150 ca 3e a4 bd 29 1a 45 3d b4 e7 db 3d 2e 6d 5f bd
       -0.080197886 0.04812065 0.10737553 -0.05454748
000160 2e 01 8a bb 23 9e d9 3d ed 11 56 be cb 32 fe 3d
       -0.0042115664 0.10625865 -0.20905276 0.12412032
000170 bb 46 1d be 3a fa 2b bd c8 90 99 bd 3c 25 52 be
       -0.15359013 -0.04198668 -0.07498318 -0.20522016
000180 66 f1 0a 3e 10 b7 10 3d a9 be a3 3b 78 fd 29 be
       0.13568649 0.035330832 0.0049970937 -0.16600597
000190 e9 fa 2c bd b6 1c 8e bd d0 0b 01 3d 5a 78 de bd
       -0.042231474 -0.0693907 0.031505406 -0.10862799
0001a0 27 d2 98 3c 94 b2 31 bd d7 f0 4c 3d 89 31 b8 3c
       0.018654896 -0.043383196 0.05003437 0.022484558
0001b0 93 09 02 bb da ca ff bd 2b 9e 60 3d e2 78 7b 3d
       -0.0019842132 -0.12489863 0.05483834 0.06139458
0001c0 8d c4 6c bc 44 20 6f 3d 5f 65 9c bd 25 05 95 3d
       -0.014451158 0.05838038 -0.076365225 0.07276372
0001d0 0f f6 6a bd a2 32 c9 3d 11 24 21 be 57 c0 b1 3d
       -0.057363566 0.098241106 -0.15736414 0.08679264
0001e0 e5 fb 3f bd 60 95 dc bd be ff 0d bd fd 56 da 3c
       -0.046871085 -0.107706785 -0.034667723 0.026652807
0001f0 6d 2a 55 3d 55 5b df bd 26 59 73 bd df fd d5 bd
       0.052042414 -0.10906092 -0.05941119 -0.10448813
000200 58 9a 23 bd da 28 86 3e 58 5b e8 bd 9b 3c 1a 3d
       -0.039942116 0.26203042 -0.113455474 0.037655454
000210 de 39 7c bd 03 a3 94 bd c1 eb ec 3c fa f1 4b bd
       -0.061578624 -0.072576545 0.02892101 -0.049791314
000220 a0 ed 83 bc 22 7b 18 bd df 8e 46 3d e6 fd 9f 3d
       -0.01610452 -0.037226804 0.048476096 0.07812099
000230 9d 1d 93 3d 9a ea 04 be a9 a3 65 bd 3d c1 f8 3d
       0.07183383 -0.12980118 -0.05606428 0.12146232
000240 83 7e a5 3d 05 bc a7 ba e4 7a 8c bc 6d 7b e6 bd
       0.08080771 -0.0012797123 -0.017148443 -0.1125401
000250 37 88 f8 bd 28 f1 08 bd c8 d8 a2 bd 98 9a bc bd
       -0.12135356 -0.03343311 -0.07951504 -0.09209174
000260 cc 6d 46 3d 3e f9 2c bd 97 ca e8 bd 26 cd 5f 3c
       0.048444554 -0.042229883 -0.11366766 0.013659751
000270 2e b3 14 bd f4 4b bc 3d b2 13 a7 bd 15 cb d6 3d
       -0.03630369 0.091941744 -0.081580535 0.104879536
000280 8d a0 76 bd 32 a0 05 bb 2b 5a da bd 74 f3 86 bd
       -0.060211707 -0.0020389673 -0.106617294 -0.06589404
000290 2a 4d b9 bb 1b e0 5a bd 47 2c 61 3c 5e 5b 15 3e
       -0.0056549506 -0.05343638 0.013743467 0.14585635
0002a0 7a 76 e3 bd 9d b4 00 be 21 04 c6 bd 39 77 5f bb
       -0.11106582 -0.12568898 -0.09668756 -0.0034098162
0002b0 46 38 46 3d 53 c9 26 3d 58 3e 48 3d 29 ab 7c bd
       0.04839351 0.04071934 0.04888758 -0.06168667
0002c0 c1 d2 2b be 95 21 0a 3c 9e e0 77 be 5c 30 98 3c
       -0.16779615 0.008430858 -0.24206778 0.018577747
0002d0 7d 5c 89 bc d2 11 cf 3c f1 ee 59 3d da 3b 0b 3d
       -0.016767735 0.025277052 0.053206388 0.033992626
0002e0 bf 58 6d bd c5 cd 0d be 80 cf 5a be 3d ea 27 bd
       -0.057945963 -0.13848026 -0.21368217 -0.04099487
0002f0 d4 06 e6 bd 6a d2 1a be 03 b0 c2 bc 3f b9 54 be
       -0.11231771 -0.15119329 -0.02376557 -0.20773791
000300 93 c7 26 be 1b 78 37 3e 15 a7 f9 bb 51 c0 44 ba
       -0.16287069 0.1791691 -0.0076187947 -0.0007505464
000310 00 6d 2f bd 8f bc 9d bd 87 38 1c 3c 65 02 ba bc
       -0.04282856 -0.0770198 0.009534962 -0.02270622
000320 14 40 1a bd 5f 2b 31 3d 44 f6 98 bc 59 2f f4 b8
       -0.037658766 0.043254253 -0.018672116 -0.00011643646
000330 f7 63 12 bd 86 3d 07 3d
       -0.035739865 0.033017658
