notebooks/checkpoint_epoch_10.pth (torch, 150288 bytes, 8 tensors)

features.0.weight f4 [16, 1, 3, 3]
0	0x3ef24dab	0.4732488
1	0x3eaeeb73	0.34164008
2	0x3e43df7e	0.19128224
3	0x3c84e772	0.016223643
4	0x3cba6c8b	0.022756835
5	0x3c84fe94	0.016234674
6	0x3f00c4a8	0.50300074
7	0x3e60220b	0.21887986
8	0xbd3cd424	-0.04610075
9	0xbea8c775	-0.32964674
10	0x3c444c8e	0.011981143
11	0x3e625920	0.22104311
12	0xbea4cd7e	-0.32188028
13	0xbd940347	-0.072271876
14	0x3e96512e	0.2935881
15	0xbe5783d2	-0.21046379
16	0x3e8ebfaf	0.27880618
17	0x3e0c2def	0.13689397
18	0x3d8573d7	0.06516235
19	0x3e93023c	0.28712642
20	0x3e2fec30	0.17179942
21	0xbdff6f01	-0.12472344
22	0xbe757e08	-0.23973858
23	0x3c7e939a	0.015538121
24	0xbd276756	-0.040870033
25	0xbdedd902	-0.116136566
26	0xbe538c14	-0.20658904
27	0x3de9ee47	0.11422401
28	0xbce747ff	-0.028232573
29	0xbe0ebf01	-0.1394005
30	0xbee1e7e9	-0.44122246
31	0xbc90b9e4	-0.017666765
32	0x3ead032d	0.33791485
33	0x3eac5a45	0.3366262
34	0xbe300a9c	-0.17191547
35	0x3e773ad2	0.24143532
36	0xbed1d911	-0.4098592
37	0xbe1351fd	-0.14386745
38	0xbee023bb	-0.4377726
39	0x3ea07126	0.31336325
40	0x3dc6e550	0.09711707
41	0x3eaf4ab8	0.34236693
42	0x3dc77ebb	0.09740969
43	0xbd6b4c9a	-0.0574461
44	0x3d9715df	0.073772185
45	0x3f07f7e0	0.531126
46	0x3ebe1117	0.37122414
47	0x3daafd2b	0.08349069
48	0x3ea7b63e	0.32756227
49	0x3cbaa3e4	0.022783227
50	0x3ebe60b5	0.37183157
51	0xbed5e255	-0.4177424
52	0x3df8bfab	0.12145933
53	0xbe6f697e	-0.23380086
54	0x3eacefea	0.3377679
55	0x3f0965c4	0.5367091
56	0x3e87bd85	0.2651178
57	0x3e02dbc3	0.12779145
58	0x3e5759db	0.21030371
59	0x3f1dc7c4	0.61632943
60	0x3e85e434	0.26150668
61	0x3ec0b060	0.37634563
62	0x3eac5875	0.33661237
63	0x3eaba533	0.33524475
64	0xbe831998	-0.25605464
65	0xbe97dd9e	-0.29661268
66	0x3cb8ce70	0.022559375
67	0x3d51b543	0.051198255
68	0xbeab2192	-0.3342405
69	0xbd14cde7	-0.036329176
70	0x3ebe08f3	0.37116203
71	0xbe776869	-0.24160923
72	0xbe4eb87c	-0.20187563
73	0x3e2e6c44	0.17033488
74	0xbd1a670f	-0.03769594
75	0xbd062737	-0.032752242
76	0xbbb324fa	-0.0054670544
77	0x3d5df222	0.054185994
78	0x3e92a61b	0.28642353
79	0xbe6ecd1a	-0.23320428
80	0xbdd2c6fe	-0.10291861
81	0x3eb5a32e	0.3547606
82	0xbe42ecdd	-0.19035669
83	0xbe3a7495	-0.18208535
84	0x3e9ff08d	0.31238213
85	0xbdf9b5a3	-0.121928476
86	0xbea265b7	-0.31718227
87	0x3e0e3e58	0.1389097
88	0x3e64c986	0.223425
89	0xbe8c2dea	-0.2737878
90	0x3e4c2ad0	0.19938207
91	0x3d91952f	0.07108533
92	0xbe0b3c03	-0.13597111
93	0x3e3cc521	0.18434574
94	0x3ed9a1f4	0.42506373
95	0xbd9a2504	-0.075265914
96	0x3ef3ed92	0.4764219
97	0xbd407384	-0.046985164
98	0x3c4cd9a7	0.012503064
99	0x3d9ea14b	0.07745608
100	0xbe064a55	-0.13114293
101	0x3d89e322	0.06732775
102	0x3e09365e	0.13399646
103	0xbe2c2026	-0.16809139
104	0xbc060ecb	-0.008182238
105	0x3d83d266	0.06436615
106	0xbc406d37	-0.011744789
107	0xbe5d0cda	-0.21586934
108	0xbe7b5ec9	-0.24547876
109	0xbece0801	-0.40240481
110	0xbec91973	-0.3927723
111	0xbc3171a4	-0.010830317
112	0xbe7d86ed	-0.24758501
113	0xbe700322	-0.23438695
114	0x3dc988d9	0.09840555
115	0xbe4471c4	-0.19184023
116	0xbea50a8a	-0.32234603
117	0xbed23619	-0.41056898
118	0x3ef3bcc9	0.4760497
119	0x3d60b0a2	0.05485595
120	0x3d7c4d7d	0.061597336
121	0x3d99d62d	0.07511554
122	0xbd6a85ed	-0.057256628
123	0x3e6d10a8	0.23150885
124	0xbeb37f75	-0.3505818
125	0xbd694e24	-0.056959286
126	0x3c55b4f0	0.013043627
127	0xbe42461b	-0.18972056
128	0xbcae9d8f	-0.021315364
129	0x3df8aa8a	0.12141903
130	0xbea380b6	-0.31934136
131	0x3e4b86bf	0.1987562
132	0x3e9b9322	0.3038569
133	0xbec70615	-0.38871828
134	0x3ec54fb5	0.38537374
135	0x3ea9580b	0.33074984
136	0x3e3c8c31	0.18412854
137	0x3e9a2acc	0.30110776
138	0x3db56c45	0.088585414
139	0xbe952e46	-0.29136866
140	0xbeae3785	-0.34026733
141	0xbd0f1fa9	-0.034942303
142	0xbd53983d	-0.051658858
143	0xbebc3682	-0.36760336

features.0.bias f4 [16]
0	0x3e923ef0	0.28563643
1	0xbcf8fb41	-0.030393245
2	0x3ed0098b	0.4063228
3	0xbdbd768f	-0.09251129
4	0x3e224b29	0.15848984
5	0xbe528c5d	-0.20561357
6	0x3d6340c9	0.055481706
7	0x3e790c5c	0.24321121
8	0x3e45ee85	0.19329269
9	0x3d898a30	0.0671581
10	0x3e050c9a	0.12993088
11	0x3ee8a339	0.4543703
12	0xbe0c48dc	-0.13699669
13	0xbdb05c0e	-0.08611308
14	0x3cc94e8f	0.024573592
15	0xbe756fa0	-0.23968363

features.3.weight f4 [32, 16, 3, 3]
0	0x3dccad3a	0.09993978
1	0x3dcb4891	0.0992595
2	0xbb04d9ea	-0.0020271488
3	0x3cf19c19	0.029493378
4	0x3d892345	0.0669618
5	0x3da5e0af	0.080994956
6	0x3dc7af95	0.097502865
7	0x3db18548	0.086679995
8	0x3d22b99f	0.039727803
9	0xbdd6787c	-0.10472199
10	0x3c938d8e	0.018011834
11	0xbc455564	-0.0120442845
12	0xbe2a633f	-0.16639422
13	0xbd96bbfe	-0.073600754
14	0xbde2116b	-0.110384785
15	0xbd2d2cbe	-0.042278998
16	0xbe23adb1	-0.15984227
17	0xbdaa8ab1	-0.083272345
18	0x3d8667da	0.06562777
19	0xbb35a76f	-0.0027718206
20	0x3c162b3b	0.00916558
21	0x3dbc223a	0.09186216
22	0x3dde565b	0.10856315
23	0xbc784db1	-0.015155242
24	0xbd534ccf	-0.051586922
25	0x3db26e45	0.087124385
26	0x3daf9b7a	0.08574577
27	0x3cbbd3cd	0.022928143
28	0x3d23a40f	0.03995138
29	0x3dd79a1e	0.105274424
30	0x3ca2b2ff	0.019860743
31	0xbd90b24a	-0.07065256
32	0x3bd4b263	0.006490992
33	0xbd85649a	-0.06513329
34	0xbd76ae29	-0.060224686
35	0x3c71c990	0.014757529
36	0x3e195e09	0.14977278
37	0x3cd635ad	0.026148641
38	0x3df3eb5b	0.11910125
39	0x3d6c6115	0.057709772
40	0xbd38500f	-0.044998225
41	0xbd1f37a9	-0.03887144
42	0xbd6e90e2	-0.05824364
43	0xbd56f340	-0.052478075
44	0x3d25962d	0.040426422
45	0xbc4d5b5d	-0.01253399
46	0xbcbfa3ad	-0.023393476
47	0x3af67524	0.0018803221
48	0x3e0220b1	0.12707783
49	0x3da33307	0.07968717
50	0xbb3e970c	-0.002908173
51	0x3d968462	0.07349469
52	0x3d814e5b	0.06313773
53	0x3d8e99d6	0.069629356
54	0x3d636785	0.055518646
55	0x3db24756	0.087050125
56	0x3df0d385	0.11759094
57	0x3d4222fb	0.04739664
58	0x3da64937	0.081194334
59	0xbd2621bf	-0.040559527
60	0xbce37932	-0.027767751
61	0xbd3b0dc1	-0.045667414
62	0xbd27ca6a	-0.04096452
63	0xbdb63197	-0.08896177
64	0xbda9d024	-0.08291653
65	0xbdc945f7	-0.09827798
66	0xbdcef535	-0.10105363
67	0xbd656fec	-0.05601494
68	0xbdedb5e0	-0.116069555
69	0xbd8dd2c8	-0.06924969
70	0x3a430e0b	0.0007440752
71	0xbd20695c	-0.03916298
72	0xbc02782d	-0.007963222
73	0xbd61e140	-0.055146456
74	0xbd6a2619	-0.05716524
75	0xbcf11f37	-0.02943383
76	0xbae5de98	-0.0017537652
77	0xbca16e75	-0.01970599
78	0x3d61e39f	0.055148717
79	0x3d156218	0.036470503
80	0xbcfbc854	-0.030735172
81	0xbdb29697	-0.08720129
82	0xbdc74ce5	-0.09731463
83	0x3c2e2bc6	0.010630554
84	0xbe02f65b	-0.1278929
85	0xbddc7d3d	-0.10766075
86	0x3b9d2d44	0.004796656
87	0xbd6f6fb3	-0.058456134
88	0xbc5381ee	-0.012909396
89	0xbda8ec3d	-0.08248184
90	0x3d77ae1a	0.06046877
91	0x3a8514dc	0.0010153311
92	0xba8e3642	-0.001084991
93	0x3db1770f	0.08665287
94	0x3da9e678	0.082959116
95	0x3d8a9702	0.06767084
96	0xbd62dabf	-0.055384394
97	0xbc820619	-0.015872048
98	0xbdabe55c	-0.08393356
99	0x3dccfd9f	0.10009312
100	0x3bafae9c	0.005361391
101	0x3bb6a407	0.005573753
102	0xbd1de2d0	-0.038546383
103	0xbd8800e6	-0.06640796
104	0xbc874e26	-0.016516756
105	0x3dabafff	0.08383178
106	0x3cacea40	0.021107793
107	0x3d02b5d8	0.0319117
108	0xbd7a27b7	-0.06107303
109	0xbd0b1cba	-0.033962943
110	0xbe200302	-0.15626147
111	0xbe40787b	-0.1879596
112	0xbe486d5c	-0.19572967
113	0xbe8cf1ab	-0.27528128
114	0xbe221a03	-0.15830235
115	0xbdb1b1f1	-0.08676518
116	0xbe4321dc	-0.19055885
117	0xbde5700c	-0.11203012
118	0xbda118fb	-0.07866093
119	0x3cd31c8d	0.02577045
120	0xbcef09d8	-0.029179499
121	0xbd4df8c4	-0.05028607
122	0x3ceb53f6	0.02872656
123	0xbdf0936c	-0.117468685
124	0xbd072566	-0.03299465
125	0xbda738d4	-0.08165136
126	0xbd980326	-0.074224755
127	0x39fea0a8	0.00048566354
128	0x3d697c72	0.057003446
129	0xbd8f0992	-0.06984247
130	0xbdf6bd74	-0.12047854
131	0xbdd810ce	-0.1055008
132	0xbddeb7eb	-0.10874923
133	0xbc077d1f	-0.008269577
134	0xbdec7377	-0.11545461
135	0xbd9fe9a7	-0.078082375
136	0xbdc4ac54	-0.096031815
137	0xbe66e9c2	-0.22550109
138	0xbb4a6ca3	-0.0030887506
139	0xbd4f8352	-0.050662346
140	0xbd894593	-0.06702723
141	0xbcb3a78d	-0.02193048
142	0xbd8769f7	-0.06612008
143	0xbd52608d	-0.05136161
144	0x3df81a83	0.12114432
145	0x3dd45a59	0.10368795
146	0xbd8ff626	-0.07029371
147	0x3d1ba145	0.037995595
148	0x3db8a07d	0.09014986
149	0xbcea0993	-0.028569018
150	0x3d76f6e0	0.060294032
151	0xbb461776	-0.0030226386
152	0x3cd2f66b	0.025752267
153	0xbd25017a	-0.04028461
154	0xbe25fb83	-0.16209225
155	0xbdf197a8	-0.11796504
156	0xbd9ba467	-0.07599717
157	0xbe4e03f9	-0.20118703
158	0xbdbfd56d	-0.093668796
159	0x3cb29aae	0.021802273
160	0xbe12034d	-0.14259072
161	0x3d1725f8	0.036901444
162	0xbd9521f1	-0.072818644
163	0x3ca06dc9	0.0195836
164	0x3dcd6202	0.10028459
165	0x3d74442a	0.05963532
166	0x3c75601c	0.014976528
167	0x3dac25c3	0.0840564
168	0xbd336b4c	-0.0438035
169	0x3d190cfb	0.037365895
170	0x3d8a0f6a	0.06741221
171	0xbd7ece8e	-0.062208705
172	0xbe2f8dfc	-0.17144006
173	0xbe437ea2	-0.19091275
174	0x3c1cd27c	0.009571668
175	0xbe089f52	-0.13342026
176	0xbe343a00	-0.1760025
177	0xbd562aea	-0.05228702
178	0xbdd47638	-0.10374111
179	0xbe09e41c	-0.13465923
180	0x3c1d997c	0.009619113
181	0xbdbee3b9	-0.093207784
182	0x3d8626f9	0.06550402
183	0xbd91ddba	-0.07122369
184	0xbdbf205c	-0.09332344
185	0x3c2b621a	0.010460401
186	0xbd8ed04f	-0.069733255
187	0x3d1f22f6	0.0388517
188	0xbd925cb6	-0.071465895
189	0x3d213eb8	0.039366454
190	0xbd091561	-0.033467654
191	0xbdc29e8f	-0.09502899
192	0xbb36d5ea	-0.0027898499
193	0x3da07573	0.07834902
194	0xbe1b5782	-0.151701
195	0x3da795f8	0.08182901
196	0xbd23dd40	-0.040005922
197	0xbb8cf9d7	-0.004302244
198	0x3dc194a9	0.09452183
199	0xbd28540d	-0.041095782
200	0xbdffbbd1	-0.12486995
201	0x3e040d16	0.12895617
202	0x3d5d1210	0.053972304
203	0xbe1e2280	-0.15442848
204	0x3de7100f	0.1128236
205	0x3cf89269	0.030343251
206	0xbde5d2ee	-0.11221872
207	0x3c7ec54d	0.01554997
208	0xbd03a57e	-0.032140248
209	0x3c29f839	0.010374122
210	0x3968b655	0.00022193168
211	0xbd80b5e7	-0.06284695
212	0xbcf36db3	-0.029715395
213	0x3becde7e	0.0072286716
214	0x3cd7aba4	0.026326962
215	0x3c4f19a0	0.012640387
216	0x3b5582f1	0.0032579268
217	0x3cb038bc	0.021511428
218	0xbc24dc5f	-0.010062306
219	0xbd1dee9e	-0.03855764
220	0xbd24ce92	-0.040236063
221	0xbc8556a9	-0.016276674
222	0x3d5b521e	0.05354511
223	0xbc8f41a0	-0.017487347
224	0x3c53008b	0.012878547
225	0x3d503b2a	0.050837673
226	0x3d93971f	0.072065584
227	0xbc6329f0	-0.013864979
228	0x3cc5d0f9	0.024147497
229	0x3d5e52a5	0.054278035
230	0x3a74f1bd	0.0009343883
231	0x3de968e4	0.113969594
232	0x3dcaf64d	0.099102594
233	0x3da3e835	0.08003274
234	0x3dccc135	0.09997789
235	0xbd44a942	-0.04801298
236	0xbd9f76f9	-0.07786364
237	0x3d72f868	0.05931893
238	0xbca92177	-0.02064584
239	0xbdd81619	-0.1055109
240	0x3db784c2	0.089608684
241	0xbcda28c3	-0.026630765
242	0xbd0af4cb	-0.03392486
243	0x3d40d6cb	0.047079843
244	0x3d89aa46	0.0672193
245	0x3cf0e561	0.029406251
246	0x3d22fbda	0.039790966
247	0x3d52b040	0.051437616
248	0xbd2921eb	-0.041292112
249	0xbc061b93	-0.008185285
250	0x3cd35f1a	0.025802184
251	0xbcf92ecc	-0.030417822
252	0xbd958a07	-0.07301717
253	0xbd9b92d1	-0.075963624
254	0x3da44387	0.08020692
255	0xbc82ddf0	-0.015974969

features.3.bias f4 [32]
0	0x3d73a31a	0.059481718
1	0x3d5b37e4	0.0535201
2	0x3daa53fa	0.083167985
3	0x3d464222	0.048402913
4	0x3dd69f13	0.1047956
5	0x3cca1869	0.024669843
6	0xbe017d4c	-0.12645453
7	0x3b9e45c2	0.004830093
8	0x3de7b048	0.1131292
9	0x3da89d84	0.08233169
10	0xbda09649	-0.078411646
11	0x3d431ce0	0.04763496
12	0x3cc5c349	0.02414097
13	0x3d36cf19	0.044631097
14	0x3d1199b2	0.035546966
15	0xbc96af69	-0.018394189
16	0x3d9d9cc0	0.07695913
17	0xbcfa98d5	-0.030590454
18	0x3de2fdee	0.110835895
19	0xbc683dab	-0.014174859
20	0x3e155c8b	0.14586084
21	0x3d1aac3a	0.037761904
22	0x3ca055f5	0.019572238
23	0x3d61bd58	0.055112213
24	0x3d842eb8	0.064542234
25	0xbd8a9ed5	-0.06768576
26	0x3e16d98f	0.1473143
27	0x3da0a162	0.07843281
28	0xbb77b913	-0.0037799522
29	0x3d0c3822	0.03423322
30	0xbdb91180	-0.09036541
31	0xbd4d39e5	-0.05010404

features.6.weight f4 [64, 32, 3, 3]
0	0xbc7014ed	-0.014653427
1	0x3cc27ca5	0.023741076
2	0xbb19a278	-0.0023442786
3	0x3c8615e6	0.016367864
4	0x3d3b4129	0.04571644
5	0x3c8e401d	0.017364556
6	0x3d1774a3	0.036976468
7	0x3da41dca	0.08013494
8	0x3c0d256c	0.008614879
9	0xbd947a1e	-0.072498545
10	0xbcb66d47	-0.022268904
11	0xbd873582	-0.06602003
12	0x3c90374f	0.017604498
13	0xbd0cf04b	-0.03440885
14	0xbcaf658c	-0.021410726
15	0xbbffaa4c	-0.0078022834
16	0x3b47be6c	0.003047849
17	0xbcc1c3bc	-0.023652904
18	0xbddafbc4	-0.10692552
19	0xbe1e2530	-0.15443873
20	0xbe376bfa	-0.17912284
21	0xbdc16f5b	-0.094450675
22	0xbd577509	-0.052601848
23	0xbe079401	-0.13240053
24	0xbe1a99c2	-0.15097716
25	0xbe21e3fe	-0.15809628
26	0xbd99513d	-0.07486198
27	0xbda1ac34	-0.07894173
28	0xbc9f667f	-0.019458054
29	0xbcb79b2e	-0.022412863
30	0xbcef7596	-0.029230874
31	0x3be399e1	0.006945834
32	0x3beeca8e	0.00728733
33	0xbd75b253	-0.059984516
34	0xbcb0479a	-0.021518517
35	0x3c225fde	0.009910552
36	0x3d80476a	0.06263621
37	0x3d0b1187	0.033952262
38	0xbd04d460	-0.0324291
39	0x3d6659fd	0.056238163
40	0x3d886035	0.06658975
41	0x3d2e62a3	0.042574536
42	0x3d63e835	0.05564137
43	0x3d776157	0.060395565
44	0x3d0486fd	0.032355297
45	0xbbabac78	-0.0052390657
46	0xbc902c8c	-0.017599367
47	0xbc12590a	-0.008932361
48	0xbd1535d6	-0.036428295
49	0xbab85931	-0.0014064667
50	0x3cc5328f	0.02407196
51	0x3c8718e8	0.016491368
52	0x3ccc6e73	0.02495501
53	0xb9259303	-0.00015790392
54	0xbd49e3ca	-0.049289502
55	0x3c19b349	0.009381124
56	0xbc86fd22	-0.016478125
57	0xbdbdc846	-0.09266715
58	0xbd86f384	-0.06589416
59	0x3c92172a	0.017833311
60	0xbb033392	-0.0020019752
61	0xbda9a129	-0.08282692
62	0xbc122709	-0.0089204395
63	0xbd472478	-0.048618764
64	0x3c23572f	0.009969517
65	0xbccb3166	-0.024803828
66	0x3b80b5ab	0.0039279065
67	0xbd34d41c	-0.044147596
68	0x3c46c591	0.012132064
69	0xbc74f881	-0.014951826
70	0x3c84afb6	0.016197067
71	0xbd52b345	-0.051440496
72	0x3cdfe66b	0.027331552
73	0x3d103915	0.035210688
74	0x3cf9f858	0.030513927
75	0xbd0efcc5	-0.03490903
76	0x3c6e7a47	0.01455552
77	0x3cadb9aa	0.021206696
78	0x3d8f9fff	0.07012939
79	0xbcc4fcd5	-0.024046341
80	0xbcce4d8d	-0.025183463
81	0x3ca97f2b	0.020690521
82	0x3c95e31c	0.01829677
83	0x3bf726c0	0.007542461
84	0x3c5a628f	0.013329162
85	0x3d248ed2	0.040175267
86	0x3cff7c83	0.031187302
87	0xbb32f040	-0.0027303845
88	0x3d3214ce	0.043476872
89	0xbcc60e6e	-0.024176802
90	0x3cabf715	0.020991841
91	0xbcd0098d	-0.02539518
92	0x3d3e1fee	0.04641717
93	0x3d611f78	0.05496165
94	0xbc18c831	-0.009325073
95	0x3c9fabeb	0.019491157
96	0xbd44fc74	-0.04809232
97	0xbbaac79f	-0.005211785
98	0x3d00bf08	0.03143218
99	0x3d65bee7	0.05609026
100	0x3d7bf4d4	0.061512783
101	0x3c86bc68	0.016447261
102	0x3d5ab0c0	0.05339122
103	0x3c6168fa	0.0137579385
104	0x3c21fa8e	0.009886397
105	0x3cc016ff	0.023448465
106	0x3d56320e	0.05229383
107	0xbc297f1d	-0.010345248
108	0x3d57215e	0.052522056
109	0x3c14f4f2	0.009091603
110	0xbcadc6dc	-0.021212988
111	0xbbd381e7	-0.0064546946
112	0xbd97c007	-0.07409673
113	0xbd8c3052	-0.06845154
114	0xbd7305d9	-0.05933175
115	0xbb8212d3	-0.003969529
116	0xbbfa2902	-0.007634283
117	0xbe626315	-0.2210811
118	0xbe4fad1b	-0.20280878
119	0xbe02d69d	-0.12777181
120	0xbdb83869	-0.089951344
121	0xbda40fce	-0.08010827
122	0xbe2a7e93	-0.16649847
123	0xbde8b93d	-0.113634564
124	0xbd3bca60	-0.045847297
125	0xbd73868e	-0.059454493
126	0x3a7c4035	0.00096226047
127	0xbd4f18ea	-0.05056087
128	0x3bc9381c	0.006140722
129	0xbd9259a3	-0.07146003
130	0xbcac28f6	-0.021015625
131	0xbd98b9a4	-0.07457283
132	0xbd268218	-0.04065141
133	0x3c35f0ef	0.011104806
134	0xbd3db823	-0.046318185
135	0x3da81a68	0.082081616
136	0xbbe92cd0	-0.007115938
137	0xbd1d0978	-0.03833911
138	0x3d1d20ad	0.03836124
139	0xbd3212e5	-0.04347505
140	0xbb6a1625	-0.0035718766
141	0x3c86486b	0.016391953
142	0x3d0086f6	0.03137871
143	0x3c15f309	0.009152182
144	0xbdc88d65	-0.09792594
145	0xbd791460	-0.060810447
146	0xbdb809a8	-0.08986217
147	0xbc9f792f	-0.019466965
148	0x3d081bec	0.033229753
149	0xbd284f44	-0.04109122
150	0xbda0f8c4	-0.07859948
151	0xbd9da295	-0.07697026
152	0xbadcc078	-0.0016842028
153	0x3dc0af8b	0.09408482
154	0x3d333f2b	0.043761414
155	0x3dad8133	0.084719084
156	0x3d6d09d8	0.057870716
157	0x3d5ac03c	0.053405985
158	0x3d670de0	0.056409717
159	0x3d83cdea	0.06435759
160	0xbd22aafe	-0.039713852
161	0x3d8b2447	0.06794029
162	0x3d8ec6d1	0.06971515
163	0x3d964079	0.07336516
164	0xbce171fb	-0.02752017
165	0x3cde5352	0.02713934
166	0xbcd7b137	-0.02632962
167	0x3d9f53d8	0.07779664
168	0xbb064956	-0.002049049
169	0xbbad8dbe	-0.005296438
170	0x3d0df475	0.03465696
171	0x3d338988	0.043832332
172	0xbd4fc707	-0.050726917
173	0x3d6489ad	0.05579536
174	0xbd19e263	-0.037569415
175	0xbc564767	-0.013078547
176	0x3cb0ac0b	0.021566411
177	0xbc57feac	-0.013183277
178	0x3d24dc1d	0.04024898
179	0x3c1a3ee2	0.0094144065
180	0x3aef36df	0.0018250606
181	0xbc98042f	-0.018556682
182	0x3d4fa07d	0.050690163
183	0x3d20f7d9	0.039298866
184	0x3c522dc2	0.012828292
185	0xbc42e4bc	-0.011895355
186	0x3d96612a	0.07342751
187	0xbce7f5b6	-0.028315406
188	0x3d9bf485	0.07614998
189	0xbc458567	-0.012055731
190	0xbd381ef7	-0.044951405
191	0xbd38da58	-0.045130104
192	0xbc298c6c	-0.010348421
193	0xbd8c88db	-0.068620406
194	0xbc58ad5e	-0.013224928
195	0xbd2660ba	-0.04061959
196	0x3c6d598f	0.014486684
197	0xbd1c163d	-0.038107146
198	0xbe427b28	-0.18992293
199	0xbde3b9a1	-0.1111939
200	0xbd656fec	-0.05601494
201	0xbd8572a9	-0.0651601
202	0xbdb93763	-0.09043767
203	0xbcc59469	-0.024118619
204	0xbded5524	-0.11588505
205	0xbda9a127	-0.082826905
206	0xbd7395a9	-0.0594689
207	0x3c8e2ec5	0.017356286
208	0xbd5193c0	-0.051166296
209	0xbd68c7cb	-0.056831162
210	0xbd6e54ad	-0.058186222
211	0x3d15bd9c	0.03655778
212	0x3bdb45f0	0.006691687
213	0xbd5f42a3	-0.05450691
214	0xbcec6dd7	-0.02886097
215	0xbc4b90ad	-0.01242463
216	0x3d540a8d	0.051767875
217	0x3c053326	0.0081298705
218	0xbb69aade	-0.0035654823
219	0x3cad7aa2	0.02117664
220	0xbc675c3f	-0.014121114
221	0xbd6a7396	-0.057239138
222	0xbcd5034c	-0.026002549
223	0xbd16a42b	-0.036777657
224	0x3d895803	0.0670624
225	0x3ce61d63	0.028090185
226	0x3cb08fd6	0.021552961
227	0x3c33a45b	0.010964478
228	0x3c28f249	0.0103116715
229	0xbb3f0288	-0.0029145796
230	0x3cbd2cde	0.023092683
231	0xbd4ace44	-0.049513116
232	0x3d500eef	0.05079549
233	0x3d6e46ba	0.05817292
234	0xbd4b2523	-0.049595963
235	0xbd87d927	-0.066332154
236	0x3d08432f	0.033267196
237	0xb9c91e77	-0.00038360406
238	0xbd4b6fa2	-0.04966701
239	0xba447439	-0.0007494125
240	0x3cc04879	0.023472058
241	0xbdaad80c	-0.08341989
242	0x3c665c3e	0.014060078
243	0xbd1892b8	-0.037249297
244	0x3d0ef43f	0.0349009
245	0x3d384ff5	0.044998128
246	0xbd6a00be	-0.057129614
247	0x3d3438a5	0.043999333
248	0xbcd0f069	-0.025505261
249	0x3c5915c8	0.013249822
250	0x3c29554f	0.010335281
251	0x3d3ee021	0.046600465
252	0x3d2fcb53	0.042918514
253	0x3b9b70e0	0.0047436804
254	0x3bbafb09	0.0057061953
255	0x3d2f75c1	0.04283691

features.6.bias f4 [64]
0	0x3d4cda95	0.050013144
1	0x3d8208b5	0.06349317
2	0xbd640185	-0.05566551
3	0xbda0842b	-0.07837709
4	0xbcb1fc66	-0.021726798
5	0x3cdf3e43	0.027251368
6	0xbc791c6f	-0.015204533
7	0xbb97757b	-0.004622159
8	0x3cc8811a	0.024475623
9	0xbd4287c0	-0.047492743
10	0xbd9fdab3	-0.078053854
11	0x3bf22e45	0.0073907697
12	0xbd044334	-0.032290652
13	0xbd344bd8	-0.044017643
14	0x3d0b5055	0.034012157
15	0xbd5527a6	-0.052039765
16	0x3ce3ddba	0.027815688
17	0xbd177224	-0.036974087
18	0x3d46d964	0.048547164
19	0x3dfea376	0.124335214
20	0xbe0458ff	-0.12924574
21	0x3d1d5a31	0.03841609
22	0xbcac1562	-0.02100629
23	0x3d0d7a13	0.034540247
24	0x3d484806	0.048896812
25	0xbb891e18	-0.0041844957
26	0x3de66afd	0.11250875
27	0x3ced8f2e	0.028998937
28	0x3d065e6f	0.032804903
29	0x3cb85560	0.022501647
30	0xbc65ecec	-0.014033537
31	0xbd9d776e	-0.07688795
32	0x3d83ef8b	0.064421736
33	0x3d219743	0.039450895
34	0x3d7f7b4b	0.06237344
35	0xbcc03a29	-0.023465233
36	0xbd84fe13	-0.06493773
37	0x3cb1e16c	0.021713935
38	0xbd248123	-0.040162217
39	0xbd80f591	-0.06296838
40	0x3cca568e	0.024699476
41	0x3ccc13f9	0.024911867
42	0x3d4b6582	0.049657352
43	0x3d3753d9	0.044757698
44	0xbcb8d4b2	-0.022562359
45	0x3d86f242	0.06589176
46	0x3c85aaf7	0.016316874
47	0x3d6533e8	0.055957705
48	0xbdd819c7	-0.10551792
49	0xbcda86a0	-0.026675522
50	0xbd0368d1	-0.032082383
51	0xbdecc026	-0.11560087
52	0xbc875474	-0.016519763
53	0xbd0f41ad	-0.034974743
54	0xbd6250bc	-0.055252776
55	0x3d9286d5	0.071546234
56	0x3d5911d2	0.05299551
57	0x3d77ea91	0.060526434
58	0x3a87567e	0.0010325459
59	0xbc8b8717	-0.01703219
60	0x3d62f6ca	0.055411138
61	0x3c843ebd	0.016143197
62	0x3d40e024	0.047088757
63	0xbde1215c	-0.10992691

classifier.weight f4 [206, 64]
0	0xbd326398	-0.04355201
1	0xbd32d399	-0.043658827
2	0xbe120b29	-0.1426207
3	0xbf1e54bc	-0.61848044
4	0xbe280dc3	-0.164115
5	0xbe480ad1	-0.19535376
6	0xbd8ea99d	-0.06965945
7	0x3cf0cd8a	0.029394884
8	0x3cfe5cb1	0.031050058
9	0xbef4cbc8	-0.47811723
10	0xbc8a6864	-0.01689548
11	0xbe5e1120	-0.2168622
12	0xbe786e07	-0.24260722
13	0xbe4c84b2	-0.19972494
14	0xbca75bc1	-0.020429494
15	0xbe173470	-0.14766097
16	0xbdb53069	-0.08847124
17	0xbe0119ae	-0.12607452
18	0xbddb868c	-0.10719022
19	0xbdb4f3f6	-0.08835594
20	0xbe96c2b2	-0.29445416
21	0xbe7cc8aa	-0.24685922
22	0x3c024d14	0.007952947
23	0xbc45c907	-0.012071854
24	0xbd931c25	-0.071831025
25	0xbddcbfd2	-0.10778774
26	0xbe0f9f7d	-0.14025684
27	0x3db22b6f	0.086996906
28	0x3acec675	0.0015775698
29	0xbdc7de29	-0.097591706
30	0xbcab3cc9	-0.020903008
31	0xbd15682a	-0.03647629
32	0xbd52cfa8	-0.051467568
33	0xbee4d105	-0.4469072
34	0xbf346dd4	-0.70480084
35	0xbe7b4b44	-0.2454043
36	0xbf2bf088	-0.67163897
37	0xbdaabd5f	-0.08336901
38	0xbef77b94	-0.4833647
39	0xbd6baa3f	-0.057535406
40	0xbe124579	-0.14284314
41	0xbea02286	-0.3127634
42	0xbe0d0df8	-0.1377486
43	0xbe2cc0be	-0.168704
44	0xbd9e3b67	-0.07726174
45	0xbdd42b5a	-0.10359831
46	0x3cbed64f	0.02329555
47	0xbe351199	-0.17682494
48	0xbf29035a	-0.6602074
49	0xbd9d0015	-0.07666031
50	0xbf0c160b	-0.54721135
51	0xbed21290	-0.41029787
52	0x3db0068b	0.08594998
53	0xbe326dd2	-0.17424706
54	0xbc3e90f5	-0.01163124
55	0xbdcb9896	-0.09941213
56	0xbbcf1748	-0.006319914
57	0x3c5ca71f	0.013467579
58	0xbeda0ec3	-0.42589387
59	0x3bffb60a	0.007803683
60	0xbd0246d5	-0.031805832
61	0xbc8d9540	-0.017283082
62	0xbcc43508	-0.023951069
63	0xbe108590	-0.1411345
64	0x3c7fdf6e	0.015617235
65	0xbd9b503c	-0.07583663
66	0xbe820a5d	-0.25398532
67	0xbf0a0c26	-0.5392479
68	0xbcc8da17	-0.024518056
69	0xbe58f286	-0.21186265
70	0xbe07e5df	-0.13271283
71	0x3d03c7ac	0.032172844
72	0xbdb9ccf3	-0.09072294
73	0xbef86f55	-0.4852244
74	0x3cc227bc	0.023700587
75	0xbdc8caa2	-0.09804274
76	0x3c51e1c9	0.012810179
77	0xbdfc39cc	-0.123157114
78	0xbdb7da89	-0.08977229
79	0xbdc17d3a	-0.09447713
80	0xbda8fb0e	-0.0825101
81	0xbe4890db	-0.19586508
82	0xbdf20850	-0.11817992
83	0xbcc8e94e	-0.02452531
84	0xbd2f4b87	-0.042796638
85	0xbe44b986	-0.19211397
86	0xbdd0dd3e	-0.101984486
87	0x3d20b05c	0.03923069
88	0xbcff9526	-0.03119905
89	0xbdae5852	-0.085129395
90	0x3d277d31	0.040890876
91	0xbda8c339	-0.08240361
92	0xbe0c461d	-0.13698621
93	0xbdebd21b	-0.11514684
94	0xbd197bbc	-0.037471518
95	0xbed12dc7	-0.40855238
96	0x3d66671e	0.056250684
97	0xbf26c6c0	-0.6514702
98	0xbe631315	-0.22175248
99	0xbd051ac6	-0.032496236
100	0xbd69ff3f	-0.057128187
101	0x3880a5f5	6.1344275e-05
102	0xbf00612c	-0.5014827
103	0xbded3e3e	-0.115841374
104	0x3d069df9	0.0328655
105	0xbe1b5f8b	-0.15173166
106	0x3d4ee6fb	0.05051325
107	0xbe1a261e	-0.15053603
108	0xbe08fcb1	-0.13377644
109	0xbdf2b33c	-0.118505925
110	0xbe0fe7fd	-0.1405334
111	0xbea5342c	-0.32266366
112	0xbeb63647	-0.35588285
113	0x3bf0d303	0.0073493733
114	0xbe82d05e	-0.25549597
115	0xbe2fba4a	-0.17160907
116	0x3dee487a	0.116349176
117	0xbe3625b1	-0.17787816
118	0xbcd07bb1	-0.025449606
119	0x3d5f5389	0.054523025
120	0xbdc4c2dc	-0.09607479
121	0x3c529114	0.012851972
122	0xbf280584	-0.65633416
123	0x3d301a53	0.042993855
124	0xbbb813d5	-0.0056175985
125	0xbdb23d27	-0.0870307
126	0x3cbeb923	0.02328164
127	0x3c41f872	0.011839019
128	0xbd8be091	-0.06829942
129	0xbb0031a1	-0.001956083
130	0xbe3cf204	-0.18451697
131	0xbf257d2c	-0.6464412
132	0xbda1a3da	-0.0789258
133	0xbc746d40	-0.014918625
134	0xbe41a19b	-0.18909304
135	0xbd386f68	-0.04502812
136	0x3cbbc06f	0.022918908
137	0xbef6de1b	-0.48216328
138	0xbd385f3e	-0.045012705
139	0xbd6d3426	-0.05791106
140	0xbe8b5e80	-0.27220535
141	0xbdba355c	-0.09092209
142	0xbc93b755	-0.018031755
143	0xbeb6e2d3	-0.35719928
144	0xbe444f66	-0.19170913
145	0x3db805b3	0.08985462
146	0xbe73045a	-0.23732129
147	0xbe90dbd1	-0.28292707
148	0xbd50482e	-0.050850086
149	0xbde4c59d	-0.11170504
150	0xbcd3c17f	-0.025849102
151	0xbe1de287	-0.15418445
152	0x39127eec	0.00013970927
153	0xbd586cfa	-0.052838303
154	0x3ce0d181	0.02744365
155	0xbceec0ec	-0.029144727
156	0xbd5bb255	-0.053636868
157	0xbde1a6e3	-0.11018159
158	0xbd52be1e	-0.05145084
159	0xbe22dd05	-0.15904625
160	0xbdfa90f1	-0.12234677
161	0xbeb38bc3	-0.35067567
162	0xbf601fb1	-0.8754836
163	0xbc9b6c70	-0.018972605
164	0xbe818312	-0.2529531
165	0xbcb57c18	-0.0221539
166	0xbeaef915	-0.3417441
167	0xbea4f883	-0.3222085
168	0xbcd20a2f	-0.025639622
169	0xbdec5558	-0.115397155
170	0xbd991780	-0.074751854
171	0xbe535714	-0.20638686
172	0xbd11f316	-0.035632215
173	0xbd2ad8f9	-0.041710827
174	0xbdba9f73	-0.09112444
175	0xbe90a87e	-0.2825355
176	0xbf4028f2	-0.7506248
177	0xbe383724	-0.17989784
178	0xbe9899d1	-0.29804853
179	0xbf0804ac	-0.5313213
180	0xbde68ec8	-0.11257702
181	0xbdac5ea7	-0.08416491
182	0xbe2ba4bf	-0.16762064
183	0xbe164447	-0.14674483
184	0xbe0184fe	-0.12648389
185	0xbe30f3d8	-0.17280519
186	0xbf09d3a0	-0.5383854
187	0xbdb1655d	-0.08661912
188	0xbdf1d347	-0.11807876
189	0xbe055a6c	-0.13022774
190	0xbd5a69cc	-0.053323552
191	0xbe2f5263	-0.17121272
192	0x3ba0b9f1	0.0049049784
193	0xbd565d0c	-0.05233483
194	0xbe2d4ea8	-0.16924536
195	0xbe9acc1b	-0.30233845
196	0xbd53baca	-0.051691808
197	0xbe2735bf	-0.16329096
198	0xbe0dd5d6	-0.13851103
199	0xbcc5ea8d	-0.024159694
200	0xbe110c42	-0.14164832
201	0xbebfa4ee	-0.3743052
202	0x3dc63375	0.096777834
203	0xbe32e035	-0.1746834
204	0x3cd89ed6	0.026442926
205	0x3d05904b	0.03260831
206	0xbcde7210	-0.027153999
207	0xbdfc6350	-0.1232363
208	0x3ca85001	0.020545961
209	0xbd9b58bb	-0.07585283
210	0xbe80f8c1	-0.25189784
211	0xbce18c52	-0.02753273
212	0xbdcda885	-0.10041908
213	0xbd468f52	-0.048476525
214	0xbdec1f20	-0.11529374
215	0xbd244421	-0.040104035
216	0xbd29b965	-0.04143657
217	0xbce86bca	-0.02837171
218	0xbe1671d6	-0.14691862
219	0x3cf208bc	0.02954518
220	0xbe41fdd7	-0.18944488
221	0xbda993f8	-0.08280176
222	0xbe56fd0d	-0.20994969
223	0x3ce22bdc	0.027608804
224	0xbd271685	-0.04079296
225	0xbeb2a99d	-0.3489503
226	0xbeaebc2a	-0.34127933
227	0xbca325d9	-0.019915508
228	0xbda6d74a	-0.08146532
229	0xbe39b831	-0.1813667
230	0xbe8b54e4	-0.27213204
231	0x3da0c1bd	0.07849453
232	0xbe14f022	-0.14544728
233	0x3c4ec0dc	0.012619223
234	0xbc9dd240	-0.019265294
235	0xbd66b879	-0.05632827
236	0xbe112428	-0.14173949
237	0x3ba6680b	0.005078321
238	0xbd290b23	-0.041270386
239	0xbeb6b0fd	-0.35681906
240	0xbe80aaba	-0.25130254
241	0xbd2b43c1	-0.041812662
242	0xbea53bab	-0.32272086
243	0xbed9b275	-0.42518964
244	0xbbab2e5f	-0.0052240337
245	0xbd09bc44	-0.03362681
246	0xbe0cc865	-0.1374832
247	0xbdffb9ac	-0.12486586
248	0xbd5f4e17	-0.05451783
249	0xbdc4bde3	-0.096065305
250	0xbe244eff	-0.1604576
251	0xbdbe3001	-0.092865
252	0xbdc8b95c	-0.098009795
253	0xbce617a5	-0.028087446
254	0xbe2a0d4b	-0.16606633
255	0xbde3add3	-0.11117139

classifier.bias f4 [206]
0	0xbce443e1	-0.027864398
1	0xb9e566a4	-0.00043754757
2	0x3d873506	0.0660191
3	0xbcb3331c	-0.021874957
4	0xbd68d6d3	-0.056845497
5	0x3b94b1d6	0.0045378013
6	0x3d893614	0.06699768
7	0x3d84177b	0.06449791
8	0xbdac49d1	-0.08412517
9	0xbd68d315	-0.05684193
10	0xbe12cf45	-0.1433688
11	0x3d2165ef	0.039403852
12	0xbd96c86c	-0.07362446
13	0xbd37dd68	-0.044888884
14	0xbd5b6e18	-0.05357179
15	0x3c8b814e	0.01702943
16	0x3d81abf1	0.06331623
17	0x3cce8014	0.025207557
18	0xbe34d608	-0.17659771
19	0x3dca0315	0.09863869
20	0x3da13f2e	0.07873379
21	0x3d80b0ec	0.06283745
22	0x3c03d0fb	0.00804543
23	0x3dbf4fb1	0.09341372
24	0x3c7e5abb	0.0155245615
25	0x3c945977	0.018109066
26	0x3d18315f	0.03715646
27	0xbd4152df	-0.047198173
28	0xbe00cf7e	-0.12579152
29	0x3d806b6d	0.0627049
30	0xbd4b9274	-0.049700215
31	0xbcfc7942	-0.030819539
32	0x3d9ad314	0.07559791
33	0xbdba15e6	-0.09086208
34	0xbd8a7bd9	-0.06761903
35	0x3dac76a2	0.08421065
36	0x3d648d4d	0.055798817
37	0xbc4b9330	-0.012425229
38	0xbe0fc42b	-0.14039676
39	0xbc989181	-0.01862407
40	0xbc3590ca	-0.011081884
41	0x3d6d4b5b	0.057933193
42	0x3cd2b0b1	0.025719019
43	0x3d727e9e	0.059202783
44	0xbddcc98a	-0.10780628
45	0xbd849eec	-0.064756244
46	0xbe01102c	-0.12603825
47	0x3c285c89	0.010275968
48	0x3d1cfdd2	0.038328
49	0xbdaaf2bf	-0.083470814
50	0xbcddff27	-0.027099205
51	0xbd532ac8	-0.05155447
52	0xbd276b5a	-0.040873863
53	0x3d5f2bae	0.054485016
54	0x3d047df7	0.032346692
55	0xbc822103	-0.015884882
56	0x3d198015	0.037475664
57	0xbbf97a23	-0.007613437
58	0x3dab34f0	0.083597064
59	0x3ce85214	0.02835945
60	0xbdb130df	-0.086518995
61	0x3ce48d66	0.027899455
62	0x3c91dd40	0.017805696
63	0x3cff06d4	0.031131186
64	0xbcb4b844	-0.022060521
65	0xbd52ee4b	-0.051496785
66	0x3b81fc44	0.00396684
67	0xbd0098db	-0.031395774
68	0x3dd73fd5	0.10510222
69	0xbd57a20b	-0.05264477
70	0x3d842efd	0.06454275
71	0x3b45bc58	0.0030172076
72	0x3c1ba64c	0.0095000975
73	0xbd96611b	-0.0734274
74	0xbd88f9a9	-0.06688244
75	0x3d413465	0.047169108
76	0xbe360392	-0.177748
77	0xbd95d6ca	-0.073163584
78	0xbd587079	-0.052841637
79	0x3d39e8c4	0.045388
80	0x3e17724c	0.14789695
81	0x3d80787d	0.06272981
82	0xbd5c7b33	-0.05382843
83	0xbca8a3f2	-0.020585988
84	0xbda690ee	-0.08133112
85	0x3d590800	0.052986145
86	0x3d8a1d39	0.06743855
87	0xbc34c95f	-0.011034339
88	0xbdaf1d2e	-0.085504875
89	0x3db15538	0.08658832
90	0xbdb993b7	-0.090613775
91	0x3dcba2a7	0.09943133
92	0xbdd2d20e	-0.10293971
93	0xbcd42800	-0.02589798
94	0xbd56fb7c	-0.052485928
95	0xbe3511a1	-0.17682506
96	0x3db3e68b	0.08784207
97	0x3d2cb848	0.04216793
98	0xbcf4cdfa	-0.029883374
99	0xbe00b3c3	-0.12568574
100	0xbad75cf1	-0.0016430897
101	0xbc09b634	-0.008405257
102	0x3d8994b3	0.06717815
103	0xbe07378a	-0.1320478
104	0x3d4877f8	0.048942536
105	0xbd10d889	-0.035362754
106	0x3d95df01	0.07317925
107	0x3d83d24c	0.06436595
108	0xbc3c33e3	-0.01148698
109	0xbe0fae7b	-0.14031403
110	0xbd01dade	-0.03170287
111	0x3d948cf5	0.07253448
112	0xbb6e8827	-0.003639707
113	0x3afcf967	0.0019300402
114	0xbde0f4a2	-0.1098416
115	0x3d3dd4ba	0.04634545
116	0xbd923e9f	-0.0714085
117	0x3d624806	0.05524447
118	0xbde4a8ba	-0.111649945
119	0x3dcec856	0.10096805
120	0xbd590bd1	-0.052989785
121	0xbd9689d2	-0.07350506
122	0xbb1a9cdd	-0.0023592033
123	0x3d87b4f3	0.0662631
124	0x3dc482e8	0.09595281
125	0xbda418cc	-0.08012542
126	0xbdcdb5f0	-0.100444674
127	0xbdd5086f	-0.10401999
128	0xbd4eae93	-0.050459456
129	0x3e029e81	0.12755777
130	0xbdd05300	-0.10172081
131	0xbc6d0500	-0.014466524
132	0xbdca9890	-0.0989238
133	0xbd180279	-0.037111733
134	0x3c99756f	0.018732755
135	0xbbd40ea9	-0.006471474
136	0x3c8fd961	0.017559709
137	0xbd9e68b9	-0.07734818
138	0x3d847808	0.06468207
139	0x3d1263d8	0.03573975
140	0x3db24275	0.08704082
141	0xbd9e0bef	-0.0771712
142	0xbd2948b1	-0.04132909
143	0x3cbd9859	0.023143934
144	0x3e0c192e	0.1368148
145	0xbd99a0ba	-0.07501359
146	0x3d3edd59	0.046597812
147	0xbd9bb398	-0.07602614
148	0xbdd69b1b	-0.10478803
149	0xbd0b4019	-0.033996675
150	0xbda7ed39	-0.081995435
151	0xbc32a78e	-0.010904206
152	0x3d90a12a	0.070619896
153	0xbb5b81cb	-0.003349411
154	0xbe10ee76	-0.14153466
155	0xbd13b7f9	-0.036064122
156	0xbd9d9a85	-0.07695488
157	0x3d8a4d92	0.067530766
158	0xbd176f27	-0.036971238
159	0x3d6b9c0c	0.057521865
160	0xbd189275	-0.037249047
161	0xbb43e4ab	-0.0029890935
162	0xbdb52219	-0.08844394
163	0xbdaa00ff	-0.08300971
164	0x3c22ac8b	0.009928833
165	0xbca86864	-0.02055759
166	0x3ce96ff3	0.028495764
167	0x3d8a5a83	0.06755545
168	0xbd9c862e	-0.0764278
169	0xbdbcc463	-0.09217145
170	0xbd9401b7	-0.072268896
171	0x3be37ee2	0.006942616
172	0x3d84df00	0.064878464
173	0x3bb254c8	0.0054422356
174	0x3de77f60	0.11303592
175	0x3d5ba962	0.053628333
176	0xbe0bd694	-0.13656074
177	0x3d86e819	0.06587238
178	0xbe1a76fb	-0.1508445
179	0x3d07ec37	0.033184256
180	0x3bd769b3	0.0065738796
181	0x3d8febb1	0.070273764
182	0xbbbde637	-0.005795266
183	0x3d95a0e2	0.073060766
184	0xbdc8708f	-0.09787094
185	0xbd3bf9a4	-0.045892373
186	0xbe28529b	-0.16437761
187	0x3d5e8b5a	0.054332115
188	0x3ccff8af	0.025387136
189	0xbe21fda9	-0.1581942
190	0xbceb740f	-0.028741864
191	0xbe0b0546	-0.1357623
192	0xbe033851	-0.12814452
193	0x3d69c0f4	0.05706878
194	0x3d85269b	0.06501504
195	0xba7b5995	-0.0009588239
196	0x3c1bc965	0.009508465
197	0xbd0c2b15	-0.034220774
198	0xbcbc042e	-0.022951212
199	0xbcee4cec	-0.029089414
200	0xbbebab6c	-0.007192066
201	0x3df76736	0.12080233
202	0x3d3fd5ce	0.04683476
203	0x3d337838	0.04381582
204	0x3c36fb2b	0.011168282
205	0x3c6d08af	0.014467402
