notebooks/checkpoint_epoch_25.pth (torch, 150288 bytes, 8 tensors)

features.0.weight f4 [16, 1, 3, 3]
00000000: 54e8 463f 2ec5 2b3f e977 c03e e705 dc3e
00000010: 2cff b93e 596f 203e 6a3b 553f 35f6 e03e
00000020: efed 063d 9e65 dcbe 77a9 133d a8e7 a63e
00000030: 69ce e3be 99c4 21bd e3b2 cf3e bb18 afbe
00000040: 7b81 923e a48e 7c3e abd1 113e 7829 c33e
00000050: 627e 793e a374 08be 2cb0 86be 9a44 d33c
00000060: a748 9dbd bc7e 1cbe 503c 85be 2364 dbbc
00000070: 62bb a9bd af56 a8bd 7b87 f7be bf3e 19bd
00000080: 2590 fa3e 50e2 ab3e 39f8 14be f7cb e73e
00000090: 0d08 06bf 1853 50be 013f 06bf dc77 ae3e
000000a0: df9a 193e 4d12 cd3e 0efb 1d3e d1b9 103d
000000b0: f1cd 183e 4946 2b3f 2f9a 073f f8cc 3a3e
000000c0: 8a6c e03e 86f5 223e 408b e23e b6ef cbbe
000000d0: ebec f03d 6b1c 4abe e788 f23e f1b0 423f
000000e0: dbf1 ef3e 7ce2 b93e 57ea 053f 66e2 4f3f
000000f0: 4367 f93e 38a3 233f 2e11 043f 08c8 cb3e
00000100: 51ca 5abe 4634 a5be f70f 8e3d 4981 c83d
00000110: 94f8 c8be 974a 3c3d 4a65 e43e 5c41 89be
00000120: 63a5 6abe 7d43 653e d7f9 d7bc 07f9 d9bc
00000130: 0c21 fabb 2f4a b33d 4755 8f3e 4a7a afbe
00000140: a4e0 27bd b8c1 da3e 7b87 48be 4e87 88be
00000150: 673b cf3e 6bcd d8bd a1b3 bebe 8cc0 823e
00000160: 4997 653e e668 abbe a50d b23e 43bf 1f3e
00000170: 26f9 0ebe 3233 d03e e887 053f 8489 82bd
00000180: aece 2a3f ca3f a63d 3486 ce3c fb29 f63d
00000190: 4977 38be f4cc 0f3e 1ad3 153e 0386 60be
000001a0: 7a0b 753d 2e67 063d c48a aabc 30eb 60be
000001b0: f82b cbbe b8e3 0fbf d562 03bf 437c fabd
000001c0: 6ced a7be 1fa3 8dbe 640e bbbc 1883 90be
000001d0: 6cea bcbe 07c5 ebbe e1ca 103f ed18 863d
000001e0: 3ea7 4b3d 3c55 eb3d 1377 00bd 7589 833e
000001f0: 0fef eabe 2bde 37bd a922 803d 4a6e 7cbe
00000200: 2746 453d 3b49 4e3e 3374 e5be ed8d 873e
00000210: 0f6c b03e 723f 0bbf 2cb9 d23e d80f db3e
00000220: bdda be3e 9642 dd3e abc4 8a3d a246 a6be
00000230: d57c c2be d34f 1ebe 1a8b 8abe 4f94 e4be
0.77698255 0.6709775 0.37591484 0.42973253 0.36327493 0.15667476 0.83293784 0.4393784
0.032941755 -0.43046278 0.036050286 0.32598615 -0.44493416 -0.03949413 0.40566167 -0.34198555
0.2861441 0.24663788 0.14240138 0.38117576 0.24364617 -0.13325743 -0.26306283 0.025789548
-0.07679873 -0.1528272 -0.26022577 -0.026781147 -0.082876936 -0.082196586 -0.4834555 -0.037413355
0.489381 0.335711 -0.14547814 0.452728 -0.52356035 -0.20344198 -0.52439886 0.3407582
0.15000485 0.40053025 0.15427801 0.03533346 0.1492231 0.6690412 0.5296964 0.18242252
0.4383281 0.15913972 0.44246864 -0.39831322 0.117639385 -0.19737403 0.47370073 0.7605124
0.4686421 0.36305606 0.523107 0.8120483 0.48711595 0.6392093 0.51588714 0.3980105
-0.2136624 -0.32266444 0.06936639 0.09790284 -0.3925215 0.045969572 0.44608527 -0.26807678
-0.22914653 0.22389026 -0.02636425 -0.026608003 -0.007633334 0.08754384 0.2799475 -0.34272987
-0.04098572 0.4272592 -0.19582932 -0.2666573 0.40475008 -0.10586055 -0.3724642 0.25537527
0.22420992 -0.3347847 0.34776035 0.15600304 -0.1396223 0.4066406 0.521605 -0.06373885
0.6672162 0.081176355 0.025210477 0.12019726 -0.18014254 0.14043027 0.1463131 -0.21926121
0.059825398 0.032813244 -0.020818122 -0.21964717 -0.39681983 -0.56206846 -0.5132268 -0.12230732
-0.32798326 -0.27663514 -0.02283401 -0.28225017 -0.368976 -0.46048757 0.5655957 0.06547723
0.04972004 0.114908665 -0.031363558 0.2569081 -0.45885512 -0.04488961 0.06256611 -0.24651447
0.048162606 0.20145123 -0.44815215 0.26475468 0.34457442 -0.54393685 0.411569 0.42785525
0.3727626 0.43214864 0.06775793 -0.32475764 -0.37985864 -0.15460138 -0.2705925 -0.446444

features.0.bias f4 [16]
00000000: 5e5c 1c3e 880b 43bd dc1c 083f 0edb 00be
00000010: da08 413e 9848 8bbe 365e 4dbd 7f87 d73e
00000020: 33ef 8c3e f75e 283d 3c4e 173d 5680 1a3f
00000030: 2177 56be 5634 49bd 58c7 1fb8 3311 8bbe
0.1526961 -0.04761842 0.53169036 -0.12583563 0.18851033 -0.27203822 -0.050138675 0.42095563
0.27526245 0.04110619 0.036939844 0.60352075 -0.20943882 -0.049122177 -3.8094207e-05 -0.2716156

features.3.weight f4 [32, 16, 3, 3]
00000000: 8028 c33d d239 d93d 0053 cf3c f4a6 493d
00000010: b160 af3d 5ef7 e13d 38d2 e13d 4ff5 af3d
00000020: bfb7 433d af26 70be c905 ccbd a15d 38be
00000030: ef31 b7be ff87 adbe 2028 d5be c18b 86be
00000040: 7333 dfbe b760 8fbe 7e0d d63d 9053 273d
00000050: df8f 7a3d 36d5 0f3e 1e1e 2e3e 77ee 503d
00000060: b3e7 06bc 01f9 053e a261 053e 5296 503d
00000070: 6ce2 bd3d a49d 213e 3acb ffbb 4bad d1bd
00000080: 80e4 89bc 9525 f0bd 9c9b c6bd ee7a 6d3c
00000090: 1fab b53e d66f 623e ae6b 963e 15e7 443e
000000a0: 9e8e 453d 3aeb e63c dc2f b4bc 3a15 1cbd
000000b0: 4f01 8c3d a56e 2cbc 02f9 1bba 55a3 5d3d
000000c0: ea36 2d3e 3ab9 023e 93d5 7b3d 3be2 c33d
000000d0: 7603 9c3d 9f6a b53d 80be 803d 958f e33d
000000e0: 706f 233e 4e8b 943d 7a91 e33d 53a9 c8ba
000000f0: 5d13 91bc fdf1 21bd 8965 cfbc 6a18 32be
00000100: 399f 43be daf3 20be a84d 7bbe 3013 42be
00000110: ab03 42be 0627 31be 70d9 a8bd afec b0bd
00000120: 896d 0f3d fff7 80bc 8096 dabb fa90 ae3b
00000130: 5b9b 013d 7757 a13c ce4e c13d 33c9 8d3d
00000140: 5cf8 3b3c 1984 a3be ad21 a6be 5478 f5bd
00000150: 5f85 cfbe 8b49 a8be 3f3f 03be 91dc 81be
00000160: 8512 3cbe 15e8 56be 1492 673d d29d 913b
00000170: 2165 c83c 4fe9 c93d 3b24 b73d 7b80 ae3d
00000180: c992 4fbd 7072 f9bc bbf6 b0bd e36a ae3d
00000190: 3757 9bbc 2402 b5bb e573 5dbd 0f66 abbd
000001a0: 5767 9abc c703 ae3d 2f1a 8e3c c55e 1b3d
000001b0: 4a9c ab3e b666 5c3e 019a cd3c ac03 d1bd
000001c0: 1043 a2be 3a18 b0be bdaf 4abd 152d 30bc
000001d0: 698c abbd c3e8 90bd 3f9d c93b 256e 163e
000001e0: a0d0 a23c e711 d73c 50c8 f73d ee4f a8bd
000001f0: fea5 e33b 48ac 7cbc 8735 27be 65fb c5bd
00000200: 69d9 38bc 1874 49be 2e6a 8cbe da94 52be
00000210: aace 6abe cbff 08be 06fa 40be 8cf7 7bbd
00000220: 6998 b9bd 0643 45be 83ee 093d b7a5 e4bc
00000230: 29f4 debc a26d 43bd 64f1 03be 42b7 b0bd
00000240: 2228 593e ec62 f23d 041a e2bd 91d1 f43d
00000250: efc9 c73d 9624 a8bd 9efe 003e d186 933c
00000260: 1e31 14bc f78f b5bc 7917 10bf 2932 cbbe
00000270: 0fc9 47bd 0379 20bf 329a c8be eb86 0e3e
00000280: 03e7 dabe d9f2 61be 7c09 59bd c3c0 3d3d
00000290: 663e 0e3e c499 873d 9db4 863c 4dde cb3d
000002a0: 6539 9dbc 5b72 b23c 3a79 3f3d 5f96 bbbd
000002b0: acad adbe 9925 ccbe 3d81 d2bc 3e92 95be
000002c0: 6cb7 c1be d6a3 0dbd a0c2 64be 57e5 89be
000002d0: 8114 5abc 0a2a 0bbe d83b 823c 8cf5 8fbd
000002e0: c15c cdbd b531 9abc 0b98 9ebd 2461 7b3d
000002f0: 2973 45bd 7eed 023e f10e e5bc baf0 1cbe
00000300: 4a93 b83d 5ea4 783d dcbe 76be 7de1 2d3e
00000310: f885 0fbd 1c8c babd 245c 2b3e 10b5 44bd
00000320: d0e8 39be e4c8 473e b8c9 1d3d 6b23 6abe
00000330: fd91 353e fd55 1e3d 2483 21be 0892 b53d
00000340: 4204 d4bc 2a84 063c 0924 bc3d febc 5fbd
00000350: 814f 8dbc 1145 723d 0afa 103d d907 663c
00000360: 30cc 5d3c fec7 9b3b 1b51 05bd 748c 1abd
00000370: 6061 5cbd e25a 19bd 8404 233d af50 32bd
00000380: d75a c5bc aa6a 833e 5d99 ba3d ab69 8dbd
00000390: cf77 813e 689e ae3d a838 bdbc bea6 883e
000003a0: bd87 113e c297 493d 68bc 4d3e 8d7d 07bd
000003b0: a5e0 06be a746 1e3e ccb2 34bc 0936 27be
000003c0: 881a 263e 2f41 853b e266 83bd 85b8 983d
000003d0: 66e6 a93d c460 353d 7000 8d3d 754a 8d3d
000003e0: a36d d8bc 53f5 aa3b 8477 f63c e1eb 10bd
000003f0: 4c3c 49bd 20e5 05bd 3775 003e ff99 bebc
0.09529209 0.106067315 0.025308132 0.049231485 0.08563364 0.1103351 0.11026424 0.08591711
0.047782656 -0.23452257 -0.09962041 -0.18004467 -0.35780284 -0.3389282 -0.41632175 -0.262785
-0.4359394 -0.28003475 0.10451792 0.040851176 0.061172362 0.14046177 0.17003676 0.051008668
-0.008233952 0.13083269 0.13025525 0.050924607 0.09271702 0.15782791 -0.007806209 -0.10238131
-0.01683259 -0.11725918 -0.09697649 0.014494641 0.35482118 0.22112975 0.29379028 0.19228776
0.048231713 0.028188337 -0.021995477 -0.03810618 0.06836187 -0.010524427 -0.0005949886 0.054110844
0.1691548 0.12765971 0.061482977 0.095646344 0.076178476 0.08858227 0.06286335 0.111113705
0.15960479 0.07253133 0.11111732 -0.0015309252 -0.017709428 -0.03953742 -0.02531697 -0.17392126
-0.19103707 -0.15718022 -0.24541342 -0.18952632 -0.18946712 -0.17300043 -0.08244598 -0.08638894
0.03501657 -0.015743254 -0.006670773 0.005327341 0.0316423 0.019695027 0.09438859 0.06923141
0.011472788 -0.3193672 -0.32447568 -0.119858414 -0.40531442 -0.3286861 -0.12817095 -0.2536359
-0.1836644 -0.2098697 0.056535795 0.0044438625 0.024462285 0.09858953 0.08942457 0.085205995
-0.050677095 -0.030450076 -0.0864081 0.08516481 -0.018962486 -0.005523937 -0.054065604 -0.083690755
-0.018848104 0.08496814 0.01734647 0.037932176 0.33517677 0.21523556 0.025097849 -0.102057785
-0.3169179 -0.34393483 -0.049484003 -0.010752936 -0.083763905 -0.07075646 0.0061527784 0.14690454
0.01987487 0.026253654 0.120987535 -0.082183704 0.006947278 -0.015421934 -0.16329013 -0.0966709
-0.011282303 -0.19673193 -0.2742476 -0.20564595 -0.22930399 -0.13378827 -0.18845376 -0.061515376
-0.09062273 -0.19263849 0.033674728 -0.02791105 -0.027216034 -0.047711976 -0.12885052 -0.08628704
0.21206716 0.11835274 -0.11040118 0.11954034 0.09755313 -0.08210103 0.12597129 0.018008621
-0.009044914 -0.022163374 -0.56285816 -0.39686707 -0.04877573 -0.6268465 -0.39180142 0.13918655
-0.42754373 -0.22065295 -0.05298756 0.04632641 0.1389099 0.06621125 0.016443545 0.0995451
-0.019192407 0.021783045 0.04674647 -0.091595404 -0.33921564 -0.39872435 -0.025696391 -0.29213136
-0.37835252 -0.034580074 -0.22339869 -0.26932785 -0.013310553 -0.13590255 0.015897676 -0.07029256
-0.10027457 -0.01882253 -0.07743844 0.061371937 -0.04820553 0.12785909 -0.027961226 -0.15326205
0.09012468 0.060703628 -0.24096245 0.16980548 -0.035039872 -0.09108755 0.16734368 -0.048024237
-0.18155217 0.19510227 0.038522452 -0.22865073 0.17731471 0.038656224 -0.15772682 0.08865744
-0.025880937 0.008210221 0.09186561 -0.054623596 -0.017249824 0.059147898 0.035394706 0.014039957
0.013537452 0.0047540655 -0.03254805 -0.037731603 -0.0538038 -0.03744019 0.03979923 -0.043533977
-0.024091167 0.25667316 0.09111283 -0.0690492 0.2528672 0.08526307 -0.023098305 0.26689714
0.14211936 0.049216993 0.20091403 -0.03307872 -0.13171633 0.15456639 -0.011028957 -0.16329207
0.16221058 0.0040666084 -0.06416108 0.07457069 0.08295898 0.044281736 0.06884849 0.06898967
-0.026419466 0.005217233 0.030086286 -0.0353812 -0.04912977 -0.032689214 0.12544714 -0.02326679

features.3.bias f4 [32]
00000000: 04e7 aa3d 9b2e a23d 8909 e53d ee77 2b3d
00000010: 2b07 8d3d fcdc e7bb f9bc 2abe a865 3a3d
00000020: 286a 0b3e a738 c03d 326f e0bd 15ed 443d
00000030: c614 a13d 323d 383d 66b8 0f3d 9340 beba
00000040: c6a5 123d e5f6 35bd 05b7 353e c31e 10bd
00000050: 3990 213e a78c bab9 b225 27bd e361 973d
00000060: 7ce4 b63d 5551 4abe 344c 703e 6a96 093e
00000070: 5315 26be a594 a73c f1ac debd 812e 3dbd
0.08344844 0.079190455 0.11183459 0.04186242 0.06886133 -0.007075904 -0.1667365 0.045507103
0.13614714 0.093858056 -0.10958709 0.04807766 0.0786529 0.044980235 0.035087965 -0.0014515094
0.035802625 -0.04442491 0.17745598 -0.035185587 0.15777673 -0.0003558148 -0.040807433 0.07391717
0.08930299 -0.19757588 0.23466569 0.13436285 -0.16219072 0.020456621 -0.1087283 -0.046186928

features.6.weight f4 [64, 32, 3, 3]
00000000: ba22 0cbd 0a52 723c 3c9a 683b eff6 1c3d
00000010: fccf 9c3d 8b35 6c3d d090 753d d4d1 e13d
00000020: 979a 413d 50a6 5bbe b556 26be ee72 2ebe
00000030: 28f7 67bd 01ed b4bd d362 b9bc f96f 083d
00000040: 3cab 823d 736f b03d 8717 85be 4915 a0be
00000050: 62f9 94be ab5c b1bd 99ca 8bbd fbad dcbd
00000060: 678d 16bc 01b9 84bc ae95 f83d ee7d 61be
00000070: aa77 15be f80b 08be 91c1 acbd fc4b 06bd
00000080: 4bf6 92bc c0d9 5abd 5ad5 ec39 aa07 373d
00000090: cc33 c7bb d1a7 f5bc 9444 b9bd d2c0 0c3d
000000a0: 6f0d 453d a258 d53c c46b 483d 8564 6a3d
000000b0: 0ced 023d 6b65 f2bd 8f0c f3bd 1bf5 c5bd
000000c0: 3031 88bd 46f6 aebc 30b2 693c 4a1a 073d
000000d0: 058c 553d e00f 133d 5128 843d 26bd a33d
000000e0: cb05 d33d ef97 5a3c 806b fe3c a132 343e
000000f0: e931 d13d 82dd 553c 7952 143e 3472 5abd
00000100: 9e58 96bc d917 36bd 1d73 07bd 6ff9 d9bd
00000110: 49f7 10bd 9332 b9bd a5f4 a9bd b0e4 fdbd
00000120: 1740 10bd 2137 7dbc ac73 2ebc 6138 3abd
00000130: 1e25 643c cf12 d73c cbe8 a43d 6a3d c2bb
00000140: ea67 27bb a41f 97bb a9da e8bb fcad a9bc
00000150: ecb6 a93a e50f e93c 3290 783c 3d3b f3bb
00000160: ad86 183d 859e 07bd aced 8d3d c9f4 ad3c
00000170: ca4e ce3d 398b 043e 93a7 823d eef7 da3d
00000180: 77df 9f3c e425 793d 5b13 e43d b0c0 0e3e
00000190: abb6 133e 3a65 ee3d 669b 183e 2387 d73d
000001a0: 39a8 ed3d d2f8 aa3d 113f de3d e2b3 743d
000001b0: 874f 523d b482 21bc 4e1a 18bd 1479 75bd
000001c0: 554f 14be c6a5 0abe e980 2ebe 5b0a 10be
000001d0: e7fa 03be 0e38 cfbe 5d85 d3be 6552 96be
000001e0: d0f7 d2bd 83bd 03be d912 35be 61ca 82bb
000001f0: 0ca5 363d 1314 973d 7b02 783d 0fd6 9bbb
00000200: f821 c23d d95f b639 8a47 243d 4475 f53c
00000210: 5c2e 38bd 58e6 d33a 7f62 b9bc feb3 603d
00000220: eff9 1dbd 20b6 94bd 8490 793c fc83 8ebd
00000230: 4227 01bd d2a3 f3b8 4b3d 3f3c bc32 2ebc
00000240: 3bb4 95be 19e5 7ebe 8ac3 81be 4f63 cabd
00000250: a002 17bd 9ca5 b6bd f47f a7bd d0ec 8dbd
00000260: c20b dc3c b0cf 5a3e e070 223e 705c 573e
00000270: bf21 3b3e 5f63 2e3e 953d 413e b06f 433e
00000280: c1a8 9d3d dda9 483e 20f4 113d c903 2a3d
00000290: 9aa6 6dbd 0913 6f3c f187 18bd 1c99 883d
000002a0: 3367 fdbb 6df5 39bc ca4c e63c d4c4 36bb
000002b0: 7633 acbd 3a48 273d f2a7 d7bc 4788 393c
000002c0: f45c 6e3d 051d 5d3b 58f7 863d f41e 3c3d
000002d0: 4461 aebc bbf8 3cbd 6646 a63c deb1 733c
000002e0: 6027 72bc bfc5 27bd 4d9d 503d e09d 5abd
000002f0: f239 503d d0a9 533d 3a21 4d3b 0ef1 533d
00000300: e591 9b3d 69cf 123c 6b76 ef3d aafb 97bc
00000310: 5185 0c3d abba af3c bf88 f2be 6bdb c6be
00000320: 6192 85be 0634 53be c3fb 4dbe 5aaf 79bd
00000330: 90a1 d5bd ca54 32bd b273 313d bb38 63be
00000340: 8c1a 95be f5b4 7fbe 31e3 4ebe 5754 b0bd
00000350: f71d 1cbd 757b d4bc 6555 b03c 7545 d93d
00000360: 489a 8c3d f814 023c abde 31bc ddf8 a13b
00000370: fd2c 3ebd d50e c3bd 5abc e1bd 1ad4 0ebe
00000380: 240a 61bd 669a e7bc 3bb6 b6bc c948 60bc
00000390: f3dd 6c3c 21a9 243c df89 473d 89d2 46bb
000003a0: 364d d93d 98ac f63d def6 c63c 5dce 813c
000003b0: 9933 0c3e dc82 493d 00eb a83b 6aa6 993d
000003c0: b203 4bbc 1451 f5bd c262 a5bb c9d2 273a
000003d0: 51d0 8d3d 25d3 9f3d 4b65 84bb 94e5 bd3d
000003e0: acc7 d63c 9e2b a03d 88e7 983d 8f6f e63d
000003f0: 9816 10bd ed0d 5dbd d5bb 0dbd 9c55 e83c
-0.034212805 0.014790067 0.0035492321 0.03832143 0.07656857 0.05766825 0.059952557 0.1102635
0.04726657 -0.21450162 -0.16244014 -0.1703603 -0.05663219 -0.088342674 -0.02263013 0.03330991
0.063803166 0.08615007 -0.25994512 -0.3126624 -0.29096514 -0.08660253 -0.06825752 -0.10775372
-0.009188986 -0.016201498 0.12137924 -0.22020695 -0.1459643 -0.13285816 -0.08435357 -0.032787308
-0.017939707 -0.05343032 0.00045172387 0.044685043 -0.0060791727 -0.029987248 -0.09046283 0.034363575
0.048108514 0.02604324 0.0489309 0.05722477 0.031964347 -0.1183575 -0.1186763 -0.09665891
-0.06650007 -0.021357667 0.014263675 0.032984056 0.052135486 0.03590381 0.06453002 0.079950616
0.10303839 0.013341888 0.03105712 0.17597438 0.10214598 0.0130533 0.14484586 -0.05333157
-0.018352803 -0.044456337 -0.033068765 -0.10643279 -0.03539208 -0.090428494 -0.08298615 -0.12397134
-0.03521737 -0.015455038 -0.0106476955 -0.045463923 0.013924865 0.026254086 0.08052214 -0.0059277313
-0.0025544115 -0.004611926 -0.0071061444 -0.020712845 0.0012948192 0.028449962 0.015171098 -0.0074228332
0.03723781 -0.03311016 0.06930098 0.021234887 0.100736216 0.12943734 0.063796185 0.1069182
0.019515736 0.06082715 0.11136504 0.13940692 0.14425151 0.11640401 0.1490303 0.10523822
0.116043516 0.0834824 0.10851873 0.059741862 0.051345374 -0.009857822 -0.03713446 -0.059929922
-0.14483388 -0.135398 -0.17041363 -0.1406645 -0.1288868 -0.40472454 -0.41312686 -0.29359737
-0.10301173 -0.12865262 -0.17682971 -0.0039914106 0.044590995 0.07376876 0.06054924 -0.0047557424
0.09479135 0.00034785157 0.040107287 0.029963143 -0.044966087 0.001616667 -0.022629974 0.054859154
-0.038568433 -0.072613 0.015232209 -0.06958768 -0.03153158 -0.00011617657 0.011672328 -0.010632213
-0.29239067 -0.24892081 -0.25344497 -0.09882223 -0.036867738 -0.08918306 -0.08178702 -0.06929934
0.026861075 0.21368289 0.15863371 0.21031356 0.18274592 0.17030095 0.18871148 0.19085574
0.07698203 0.19596048 0.035633206 0.041507516 -0.05802021 0.014591941 -0.03723902 0.06669828
-0.0077332496 -0.011350018 0.028112788 -0.0027888315 -0.08408253 0.040840365 -0.0263252 0.011323995
0.058194116 0.003373922 0.06590146 0.045927957 -0.021286614 -0.046135645 0.02029724 0.01487395
-0.014779896 -0.04096007 0.050931264 -0.053373218 0.05083651 0.051675618 0.0031300322 0.05174356
0.075961865 0.008960583 0.11692508 -0.01855262 0.034306828 0.021451315 -0.47369954 -0.38839278
-0.2608824 -0.20625314 -0.2011557 -0.060958244 -0.10431206 -0.043537892 0.043323226 -0.2218961
-0.29121816 -0.24971373 -0.20203854 -0.086098365 -0.038114514 -0.025937775 0.021525094 0.10608951
0.06865364 0.00793957 -0.010856311 0.004942997 -0.046429623 -0.09524313 -0.11022253 -0.13948098
-0.05494131 -0.028271865 -0.022303691 -0.013689228 0.014457214 0.010050089 0.04871547 -0.003033789
0.1061043 0.120446384 0.024287637 0.015845472 0.13691558 0.049197063 0.0051549673 0.07502444
-0.012391018 -0.11978355 -0.0050471732 0.0006401954 0.06924499 0.078039445 -0.0040403954 0.09272304
0.026218258 0.07820819 0.07466036 0.11251747 -0.035177797 -0.05396836 -0.03460296 0.028361134

features.6.bias f4 [64]
00000000: 8c7d 583d ba61 263d d282 a0bd 2655 cabd
00000010: 428b 5bbd 69b2 713c 1fff 9abc 74f5 f6bc
00000020: f27c cebc 90d4 a3bc b3da 9fbd 55bf 33be
00000030: 2b06 30bc 40ba c13c ed4d f0bc 3716 87bd
00000040: 8bf9 473d d394 f1bd 3fd4 983d a710 183e
00000050: c8c6 11be 4e3c 403d a702 e6bd 07f3 3cbc
00000060: 6a4f 893d d28f bbbb 9442 0f3e f83c c73a
00000070: 7c89 52ba a46b 9a3c 3968 1739 4fc1 06be
00000080: bbc0 9b3c c746 023d b6b6 993d 3bba 34bd
00000090: 8e6d a4bd cb72 863c 1673 31bd dfd7 ecbc
000000a0: e127 cc3c 680b 31bc 1a1e 99bc 0b27 163d
000000b0: f18d 27bd 5bd4 0b3d bc38 d1bc 8abd bdbc
000000c0: 70ac fdbd cc37 73bd d627 c1bd 7ade 48be
000000d0: 7454 87bc 3ae7 83bd d0d0 19be f6b2 c93d
000000e0: ef9e 6f3d 9462 7c3d 71cd edbc 12b9 22bd
000000f0: 2497 3a3d 4b2d fa3b 1f95 553d f1c6 31be
0.052854106 0.040620543 -0.07837452 -0.09879522 -0.053599603 0.014752009 -0.01892048 -0.030146338
-0.025206063 -0.019998819 -0.078053854 -0.17553456 -0.010743658 0.023648381 -0.029334033 -0.06596034
0.048821967 -0.11795964 0.07462358 0.14850102 -0.14235985 0.04693251 -0.11230975 -0.011532552
0.067046 -0.005723932 0.13990241 0.0015200665 -0.0008031351 0.018850155 0.00014439308 -0.13159679
0.0190128 0.03180578 0.075055525 -0.044122916 -0.080287084 0.01641216 -0.043322645 -0.02891153
0.02492136 -0.010805942 -0.018691111 0.036658328 -0.04090685 0.034138065 -0.025539748 -0.023161668
-0.123864055 -0.059379384 -0.09431426 -0.19616118 -0.016519763 -0.06440587 -0.15021062 0.09848587
0.05850118 0.06161745 -0.029028626 -0.039727278 0.045554295 0.007634794 0.052144166 -0.17361046

classifier.weight f4 [206, 64]
00000000: d230 393d 3310 8a3d da1c eabd 1847 1bbf
00000010: b685 58bd c6f7 0dbe d21d a43d c4c2 313e
00000020: 39c0 073e 63d6 85bf 6468 8abc a2f1 e3bd
00000030: 1029 93be be15 65bf 1712 fb3c 2970 40be
00000040: cc47 15be 0192 04be b3da 2b3d 2f07 763d
00000050: fc2a 49be 700e 44be f5f4 063e c0ac d9bc
00000060: f29f 26bd 724a a1bd 4d7e 9ebc 9409 013e
00000070: 49aa df3d 828f 0abd 946d 7d3d 6798 a4bf
00000080: 9d4c 603d a503 b4be ab91 0cbf e7a6 16be
00000090: 0961 17bf 2abb 23bc edf9 14bf f6cd 4bbc
000000a0: 5c7c 8bbc 24c0 8abe 069b f4bc 20d5 91bd
000000b0: 5c5f e4bd 7493 4cbd f78b d03d 9165 9cbd
000000c0: b2ac 61bf d150 a03c f060 08bf 9172 96be
000000d0: 8b06 b03d 4f57 63be 4096 453c f445 2f3c
000000e0: 42bb cd3d 3d1d 703d c8e6 f4be 7b18 dabd
000000f0: cb45 5bbd 55ce fb3d a4b8 e63d 9fcc 68bd
00000100: bfc3 813d a889 68bc 7c6b 9bbe 6dc5 ccbe
00000110: 16b1 763d 766f 7dbe 4564 a7bc 332b 333e
00000120: 2b90 2f3b 3e8f 7fbf bc27 c23c 2d30 d13d
00000130: ff34 5a3c 6555 30bf 4609 46bd 301a 34ba
00000140: 1c0e 37be c895 adbd 5a38 2ebd 3e64 9e3d
00000150: 2534 0a3e 2694 36be eed9 2e3d c9ea ef3d
00000160: 7b35 b4bd 27b0 e4bd 1b44 d43d 822c c0bd
00000170: d6b3 50bd db66 aebd 65b2 613c 5151 80bf
00000180: 72a6 3d3e 2c65 2bbf e647 5cbe 798e d83d
00000190: 276f 573c de21 683d 7e1d 2cbf 2b9e 13bc
000001a0: 7f32 9d3d 2acf 2fbe 7d6f fe3d 5641 8bbd
000001b0: 3768 d5bd c2f1 5cbd 728c 4f3c 5bd3 7bbe
000001c0: 3a78 9fbf b0e1 243e 52dd 53be 0e31 efbd
000001d0: 7a48 ee3d 65fc c1be 18bc cd3d 94cb d73d
000001e0: d668 92bd f249 1f3c c54d 4bbf 3c2e b5bd
000001f0: 9dbe d5bb 18ce e73c 49c5 113e 1b0c 6c3d
00000200: bb5a bfbc 627e a43d 5d58 a0bd 87d3 c5bf
00000210: 96c4 b03c c8a3 a73d c268 95bd 6622 81bd
00000220: 2e74 e13d d3f1 e8be 3e5f 38bd 4918 b6bd
00000230: b781 5bbe ce33 56be 1533 a2bd c945 92be
00000240: c397 81be 4281 94bd 8c60 06be 9769 63be
00000250: 0bbe b5bd f7bb 76bd f0f6 513d acca 01be
00000260: c574 1f3d 8dfd 6f3c c3c9 da3d 77ed 4b3d
00000270: eb02 ec3c e112 00bd aa1a ff3b 32aa 1dbf
00000280: 1c77 38bd b301 8bbe e657 90bf c6a7 b03c
00000290: 1d94 72be c397 c73b f826 cbbe 5e98 94be
000002a0: aa77 8b3d 588a 17bd 816e 67bc f276 0fbe
000002b0: dd40 653d 6867 9a3a a74c 41bc 4105 a7be
000002c0: 3e43 68bf d06b 50be ef77 9cbe e03b 35bf
000002d0: c88e e6bd eb95 16bd a0fb c4bd 2dd7 1cbd
000002e0: 8256 2dbd 72b8 e9bd a7ad 06bf 7ea1 84bd
000002f0: be25 90bd a8ef 95bc 2490 263d ee0d bebd
00000300: aece 5f3d af7e 23bd f68d 28be b09c 92be
00000310: 2a1a 623d 72ee e7bd 210b 69be 2373 1a3d
00000320: b3a2 edbd 98fc b0be 7533 c63d 40b3 37be
00000330: abe3 af3d e29f 50be c01a 3bbd 796e fdbc
00000340: 619b 93bc baf0 52bd b843 00bf c424 2b3d
00000350: d251 b8bd 06e1 3bbc a05d 27be a277 3b3d
00000360: 772d b73c a573 cc3c 011d 77be d209 4f3d
00000370: feaf 55be 5586 c53a 1029 7ebe e402 b83c
00000380: 4739 b23c 5749 24bf 5f30 d2be cfde 3e3d
00000390: de26 6bbd b394 65be 10f8 7fbe a0ba 283e
000003a0: 006b 89be eb72 cb3d 8111 27bd b66a 233d
000003b0: e64d 50bd 9801 b23d ca9b c13c d553 acbe
000003c0: 5aab 57be f046 bebd 415f 9bbe 7104 dabe
000003d0: 5f2e abbb b012 123c 1cd3 b6bd 8e08 22be
000003e0: fb57 46bb b8fc acbd 888a 2ebe 61dd afbb
000003f0: 48d5 dfbc 23b6 99bd 8a1f 53be 224b 4f3b
0.045212574 0.06741371 -0.11431284 -0.60655355 -0.05286189 -0.1386405 0.080135 0.17359453
0.13256921 -1.0456051 -0.01689548 -0.11130072 -0.28742266 -0.894863 0.030648274 -0.18792786
-0.1457817 -0.12946321 0.041956615 0.060065445 -0.19645303 -0.19146132 0.13179381 -0.026571631
-0.04067988 -0.078755274 -0.019347334 0.1260131 0.10921151 -0.033828266 0.06187208 -1.285901
0.054760564 -0.3515903 -0.5490977 -0.14712106 -0.5913244 -0.009993354 -0.58193856 -0.012439242
-0.017027073 -0.27099717 -0.029859077 -0.071207285 -0.11151001 -0.04994531 0.10182946 -0.0763656
-0.8815414 0.019569786 -0.53272915 -0.29384282 0.08594998 -0.22201274 0.012059748 0.0106978305
0.10045482 0.058621634 -0.47832322 -0.106492005 -0.053533357 0.12295214 0.11265686 -0.056835767
0.06336164 -0.014192976 -0.30355442 -0.39994374 0.060227476 -0.2474955 -0.020433554 0.17496948
0.0026788812 -0.99827945 0.023700587 0.10214267 0.013318299 -0.688803 -0.048348688 -0.00068703573
-0.17876476 -0.08475834 -0.04253421 0.077339634 0.13496454 -0.17829952 0.042688303 0.117147036
-0.08799263 -0.11166411 0.103645526 -0.09383489 -0.050952755 -0.08515712 0.013775443 -1.0024816
0.18520525 -0.6695125 -0.21511802 0.105740495 0.013149059 0.056672923 -0.672325 -0.009009878
0.07675647 -0.1716887 0.124236085 -0.06799571 -0.10420268 -0.053941496 0.012667762 -0.24592344
-1.2458565 0.16101718 -0.20689896 -0.11679278 0.116349176 -0.37887874 0.10045642 0.10536876
-0.07148902 0.00972222 -0.7941554 -0.08846709 -0.006522967 0.028296515 0.14235415 0.057628732
-0.023358693 0.08031918 -0.07829354 -1.5455178 0.021578114 0.08185536 -0.072953716 -0.06305389
0.11008488 -0.45496997 -0.045012705 -0.08891351 -0.21436201 -0.209182 -0.079198994 -0.28568867
-0.25311098 -0.072512165 -0.13122767 -0.22208248 -0.088741384 -0.06023785 0.05126089 -0.1267497
0.03892972 0.014647854 0.10683014 0.04978701 0.028809985 -0.031268004 0.007785161 -0.6158782
-0.045035467 -0.27149734 -1.1276824 0.021564376 -0.23689313 0.0060910895 -0.39678168 -0.29022497
0.068099335 -0.03699717 -0.014125467 -0.14010218 0.05597006 0.0011780085 -0.0117980605 -0.32621196
-0.90727603 -0.20353627 -0.30560252 -0.70794487 -0.11257702 -0.036764067 -0.09618306 -0.038291145
-0.04231883 -0.11412133 -0.5260872 -0.06476115 -0.07038449 -0.018302754 0.040664807 -0.092800006
0.054640464 -0.039915737 -0.16460404 -0.28635168 0.055200733 -0.11324777 -0.22758152 0.03770746
-0.11603298 -0.34567714 0.096777834 -0.17939472 0.08588346 -0.2037349 -0.045679808 -0.030936467
-0.018018426 -0.051499106 -0.5010333 0.04178311 -0.08999981 -0.011467224 -0.16344309 0.045768388
0.022360547 0.024957487 -0.24132158 0.050546475 -0.20867917 0.0015069941 -0.24820352 0.022462316
0.021755828 -0.6417441 -0.4105253 0.046599206 -0.057410114 -0.22420006 -0.24996972 0.16477442
-0.26839447 0.09934028 -0.040788177 0.03989669 -0.05085554 0.0869171 0.023633856 -0.3365771
-0.21061459 -0.09290874 -0.3034611 -0.42581514 -0.0052240337 0.008915588 -0.08926985 -0.15823576
-0.0030264843 -0.0844664 -0.17045033 -0.0053669666 -0.02732338 -0.07505443 -0.206175 0.0031630476

classifier.bias f4 [206]
00000000: 1c74 8c3d 6dfd 523d 9af6 103e 4c3e f23c
00000010: 8194 69bc b5c3 b13d e7bf be3d 7956 1b3e
00000020: 3a1a 7dbb 7bc9 a9bc 0b04 b7bd b26b a33d
00000030: 6cdf d4bd 1b5d 60bc c8c5 90bd 86df 56bc
00000040: a9fa a93d cceb 8d3d 389b 44be 2f55 1a3e
00000050: b18c 033e fb8b e13d 361c a73c a576 123e
00000060: ceb4 c23d f0a0 963d 6332 a93d df86 283c
00000070: 0df7 cebd 2a48 783d 860b debd 4cfc f13c
00000080: 8c63 373e c0aa 33bc 07e0 13be 6391 2b3e
00000090: 6b98 663d be34 ee3b 3c66 97bd 5377 fb3c
000000a0: f5e1 9b39 1700 e23d 6559 c43b d549 623d
000000b0: 6ec4 6ebd 1d84 b2bd e5ca ecbd f4d6 483c
000000c0: a2cc 043e 7d06 c2bc a448 6e3c eda1 7bbb
000000d0: d0e9 0c3d efa2 3d3d f6b1 543d f702 68b9
000000e0: ee77 623d 7241 743c ff8b 713e 9c4f ba3d
000000f0: ae27 32bd 06db 9b3d dab3 dcbc a261 833d
00000100: b0fe 2cbd 7e81 76bd b212 f63c 83a1 74bd
00000110: 908f 493e 4f9b 64bd d04d 853d 77e5 0dbd
00000120: 5b0e 51bc 5f1c f0bd 20ce b5bd 531a de3c
00000130: 2d10 72be 2ed3 a9bd 0264 f7bc a7d0 a93d
00000140: cf3c 2a3e e66e d53d de44 1cbd 8ff1 803a
00000150: 30ae c8bd 13b5 5a3d 7096 d13d b121 00bd
00000160: f44c 0bbd 9462 c23d 44d8 1abe 8c50 033e
00000170: cc33 fbbd f2c2 10bd 6bc4 3cbd f967 3dbe
00000180: 8d0a e43d 9f38 d83c 96ee 223b 1afb 16be
00000190: 4dab ccbc 951d 4cbd 8b84 573d de3c d0bd
000001a0: 77c2 e53c 1910 fabc 1607 863d a318 f83c
000001b0: 4a4d 9cbb 3957 09be 6899 cc3c 129a 673d
000001c0: d38d 20bc 42a3 c93c b760 95bd b7c1 8f3d
000001d0: fe94 98bd 6aad aa3d 51fe 11be 65c8 ce3d
000001e0: d00d 39bd f8e6 c0bd 610b 81bc 9717 533d
000001f0: be4c 693d ad5e b5bd e3e9 81bd 28af b9bd
00000200: 9c41 17bd 2e4f 5b3e e3a4 f0bd 6415 a93c
00000210: d697 a5bd 6da3 57bd f718 c73c ef7f c4bc
00000220: 156a d9bb d7eb 17bd 7ffc 5a3d 2332 853d
00000230: 16be a63d f959 c2bd 5ced 09bd dc63 a13d
00000240: db56 e33d d2ae 06bd 7c59 6e3c 48fa e7bd
00000250: 23fe cebd 3358 18bd c727 babd 2eef 86bd
00000260: 66cd 843d 993f 27bd 8a81 f5bd 664a d5bc
00000270: fd58 22bd 23ed 9d3d dc6f 78bd 1bef 9f3d
00000280: c4d0 38bd 3280 05bc 33f3 c9bd 8b66 9abd
00000290: d364 eebb ffed 3abd e214 fb3c 6f24 083e
000002a0: 4338 b2bd 9444 d6bd 39bf afbd 8b3a 83bc
000002b0: 5c0e 373d 7730 8dba 8bf1 9c3d 4321 92bc
000002c0: f0ab 20be f57b cc3c a626 48be 5a20 c33c
000002d0: e199 b7bc fff1 5b3d d6af ef3c fb6c 5c3d
000002e0: 1e20 43bd 4b00 e0bd 0320 48be a15d 50bc
000002f0: c1d2 90bd 1016 07be 0a72 10bd 8531 33be
00000300: 3dd1 16be b072 023e f2f0 b03c 972b fd3b
00000310: 4c56 0cbd 3f5d 9fbd 9977 58bc b23e fbbc
00000320: f0f9 39bc 6f71 923d 9069 2f3c f4cf 7cbc
00000330: bae5 4bbc b29f 6c3d
0.068580836 0.051511217 0.14156571 0.029570721 -0.0142565975 0.08679906 0.09313946 0.15169705
-0.0038620369 -0.020725956 -0.08936318 0.079795256 -0.10394177 -0.013694073 -0.07068974 -0.013114816
0.08299763 0.0692974 -0.19199836 0.15071557 0.12846638 0.11013027 0.020399194 0.14303072
0.09507142 0.07354915 0.08261564 0.010286062 -0.10105715 0.060615696 -0.10842042 0.02953925
0.17909068 -0.010966003 -0.14440928 0.1675468 0.0562977 0.007269471 -0.073925465 0.030696547
0.00029732255 0.110351734 0.005992102 0.055246193 -0.0582928 -0.08716605 -0.115621366 0.01225828
0.12968686 -0.023684734 0.014543686 -0.0038396076 0.03440267 0.046297964 0.05192753 -0.00022126349
0.055290155 0.0149081815 0.2358856 0.090972155 -0.043494873 0.07610135 -0.026941229 0.06415106
-0.042235076 -0.060182087 0.030038211 -0.059724342 0.19683671 -0.055812176 0.06508982 -0.034642663
-0.01275977 -0.11724161 -0.08877206 0.027112162 -0.23638983 -0.082922325 -0.030199055 0.082917504
0.16624759 0.10421543 -0.038151614 0.0009837615 -0.09798849 0.053395342 0.10233772 -0.03128213
-0.034008935 0.094914585 -0.15121561 0.12823695 -0.12265739 -0.035342164 -0.046085756 -0.18496694
0.11134825 0.026394187 0.0024861447 -0.14744225 -0.024984026 -0.0498329 0.052616637 -0.101678595
0.02804683 -0.030525254 0.0654432 0.030285185 -0.0047699558 -0.13412179 0.024975494 0.056543417
-0.0097994385 0.02461398 -0.072938375 0.0701937 -0.07450293 0.08333857 -0.1425717 0.10096816
-0.04517919 -0.09419054 -0.015752496 0.05153617 0.056957953 -0.088559486 -0.063434385 -0.090666115
-0.036927804 0.21416923 -0.117502 0.020640083 -0.08085601 -0.05264609 0.024303896 -0.023986785
-0.0066349604 -0.03709015 0.053463455 0.065037034 0.08141725 -0.09489817 -0.03367363 0.07880375
0.11100551 -0.032881565 0.014547702 -0.11327034 -0.101070665 -0.03719349 -0.09089618 -0.06588589
0.06484489 -0.040832136 -0.11987598 -0.026036453 -0.039635647 0.07711246 -0.060653552 0.078092776
-0.04512097 -0.00814824 -0.0986084 -0.0753909 -0.007275203 -0.045637127 0.030649606 0.13295148
-0.08702137 -0.10462299 -0.08581395 -0.016019126 0.04469143 -0.001077189 0.07663258 -0.017838126
-0.15690589 0.024961451 -0.19545993 0.023819137 -0.022412242 0.053697582 0.02925865 0.05381487
-0.04763805 -0.10937556 -0.19543462 -0.012717635 -0.07071448 -0.1319201 -0.035265006 -0.17499359
-0.14728256 0.12739062 0.021599267 0.0077261436 -0.034261987 -0.07781457 -0.013212108 -0.030669544
-0.011351094 0.07150542 0.01070632 -0.015430439 -0.012444908 0.057769485
